Neural_network/pytorch_tflite_convert/model/yolov5.onnx (onnx, 160668 bytes, 52 tensors)

model.0.conv.weight f4 [4, 3, 3, 3]
000000 ff af 3a 3f c8 c1 f4 3d c0 99 6e bf f4 e8 fc bf
       0.729248 0.11951023 -0.93203354 -1.9758592
000010 f5 56 c3 bc 52 44 0b 40 76 0c aa bf 04 de b2 be
       -0.023845175 2.176045 -1.3285053 -0.3493501
000020 7a 57 90 3f ac 1e 63 3f 5b 2f bc be a5 81 11 bf
       1.1276696 0.88718677 -0.3675488 -0.56838447
000030 a6 9b 06 c0 ee 2e 3d be a6 f3 e3 3f 48 ce a5 bf
       -2.10325 -0.18474934 1.7808731 -1.2953577
000040 5d 80 14 bf 8d 81 c3 3f 28 e0 ad 3e 0e c9 e3 be
       -0.58008367 1.5273911 0.3396008 -0.4448933
000050 42 15 79 be 7f 85 88 bf a0 39 a4 3d 06 12 1d 40
       -0.24324515 -1.066574 0.080188036 2.454225
000060 f8 87 b4 bf 43 83 3f bf 1e 4d da 3f f5 29 a0 3d
       -1.4103994 -0.74809664 1.7054784 0.07820503
000070 f7 0b a0 be 33 08 eb bd b8 a3 74 3e 29 04 44 3f
       -0.31259128 -0.11476173 0.23890579 0.7656885
000080 82 44 15 3f 9a 4f a7 be 0b 5c 46 be e2 85 49 3e
       0.5830766 -0.3267792 -0.19371049 0.19679978
000090 bf 22 60 3e 63 9c 97 3e 32 65 2f 3e 56 aa 18 3f
       0.21888255 0.296115 0.17128447 0.5963491
0000a0 d7 42 de 3e cb 71 23 3f dd 1e 8e bd 8c 72 94 be
       0.4341037 0.6384551 -0.069394805 -0.28993642
0000b0 b0 a2 91 3e 4e d7 7c 3e 94 9d 4f 3e 3f 18 6a 3e
       0.28444433 0.24691507 0.20274955 0.22860812
0000c0 d9 24 5e 3e c5 bf cb 3e df 00 8e 3f 1e 15 89 3e
       0.21693744 0.39794746 1.1094016 0.26773924
0000d0 78 0d 82 3e d6 9f 22 3f 77 d9 8a 3e cf d1 0c bf
       0.254009 0.6352514 0.27119038 -0.5500764
0000e0 94 fd 37 3e 85 fe dc be 8b 90 09 bf 87 cb db bd
       0.17967826 -0.43162933 -0.5373618 -0.10732179
0000f0 f5 11 c1 be a3 9e 61 bf d6 20 15 bf 89 f9 24 3e
       -0.37709013 -0.88132685 -0.5825323 0.16110815
000100 b2 d3 56 be 9e cb b0 3d f5 11 41 be d9 9f 85 be
       -0.20979193 0.08632587 -0.18854506 -0.26098517
000110 24 20 6e 3e 53 c2 66 be a6 b1 9d bf 49 e9 03 bf
       0.23254448 -0.22535066 -1.2319839 -0.5152784
000120 3e ba 40 3e 72 57 01 be f0 aa c4 3e 39 cc 82 3d
       0.18821046 -0.12631014 0.38411665 0.06386609
000130 ae 97 8a be 1b e9 59 be a8 3b f8 be 52 20 98 bf
       -0.27068847 -0.21280329 -0.48483014 -1.1884863
000140 fb 2a 2f bf d8 72 6e 3c b6 5c 1f bd e7 5c 2a bf
       -0.6842496 0.014553748 -0.038906775 -0.6654801
000150 c9 4e 9a 3e ce 18 e9 bd 0c bd 00 bf 93 3e 16 be
       0.30138233 -0.11381684 -0.5028846 -0.14672308
000160 78 b8 02 be b9 22 0c bf 6b f7 29 be df 06 02 be
       -0.12765682 -0.5474048 -0.16598289 -0.12697934
000170 c0 f4 94 bd 5c 4f bb 3e f6 c2 cb be ba a6 2b bf
       -0.07273245 0.36583984 -0.3979718 -0.6705128
000180 8e b2 3c 3e 24 dc 40 be 10 c9 1c bf 50 ed fb be
       0.18427488 -0.18833977 -0.612443 -0.49204493
000190 b0 ab bf 3c 8f 15 b3 bd 92 9d af 3d fd 14 12 be
       0.023397297 -0.08744346 0.08574976 -0.14265819
0001a0 4b 82 46 bf 8a 68 b0 3b 7d 65 05 bf 18 fe 1b bf
       -0.7754256 0.005383556 -0.52107984 -0.6093459

model.0.conv.bias f4 [4]
000000 fe 61 d3 3e f2 d1 77 bf 9c 49 5f 40 26 f0 e1 3f
       0.412857 -0.96804726 3.4888678 1.7651412

model.1.conv.weight f4 [4, 1, 3, 3]
000000 34 2b 6c 3d 07 f4 16 be 40 d2 db bd ce 9a b6 3e
       0.05765839 -0.14741527 -0.107334614 0.35664982
000010 7a 79 ab 3e 5d ad b5 3e f6 53 75 3e db e8 1d 3e
       0.33491117 0.35483828 0.2395781 0.15420859
000020 05 5c 03 3e 04 23 3b 3e 6f e2 c1 3c e4 a9 7f be
       0.12828071 0.18275076 0.023667542 -0.24967152
000030 d9 f4 80 3f 7e c1 82 be 33 ce 83 3f c4 e4 26 3e
       1.0074722 -0.25538248 1.0297302 0.16298205
000040 d7 df 95 bf 22 34 89 bf 66 0e a2 3b e2 62 a4 bc
       -1.1708935 -1.0719035 0.004945564 -0.020066682
000050 40 bb 74 3c 87 b6 80 be aa df 00 bf 85 b7 de be
       0.014937222 -0.25139257 -0.50341284 -0.4349939
000060 1b 54 04 be 2c c7 ab be 02 0b 83 bd 61 9d af 3e
       -0.12922709 -0.33550394 -0.06398584 0.34299758
000070 53 99 19 3e 04 d3 bc 3e 96 9e 3c 3e cb 52 45 bd
       0.14999895 0.36879742 0.1841987 -0.04817466
000080 fc 21 6c 3e 87 56 ac 3e 68 a3 70 bd bd 4e 2f 3f
       0.23059839 0.33659765 -0.058749586 0.6847952

model.1.conv.bias f4 [4]
000000 45 a4 10 bf 50 ab 53 3d f7 81 7a 40 a4 52 c6 be
       -0.56500655 0.05167705 3.9141824 -0.38734925

model.2.conv.weight f4 [8, 4, 1, 1]
000000 f0 f5 7a bd f5 01 00 bf 65 65 98 3f 1c 13 40 3f
       -0.0612697 -0.50002986 1.1905943 0.7502916
000010 1b 9b 34 bf a7 34 bb bf dc 59 d5 be d1 94 64 bf
       -0.7054917 -1.4625443 -0.4167012 -0.89289576
000020 81 c7 84 3f 1a c2 a4 be ae 8f 8c 3f 62 16 10 3f
       1.0373384 -0.32179338 1.0981348 0.56284153
000030 c8 cc 6b 3f 83 67 8d be 62 87 78 3f a0 0e 4e 3f
       0.92109346 -0.27618036 0.9708158 0.80491066
000040 e4 9d 03 be d9 62 90 bf e5 27 3e bf 2a 9e 68 bf
       -0.12853199 -1.1280166 -0.74279624 -0.9086634
000050 95 1b 43 3d f2 37 c3 be eb 87 ca be 60 7c 33 3f
       0.047633726 -0.3812862 -0.39556822 0.70111656
000060 4c d4 e2 bf 3d 05 c2 be 36 c8 88 3f 2c 51 9d 3e
       -1.7721038 -0.37894621 1.06861 0.30725992
000070 b0 4a f0 be 7a eb 02 3e 64 48 21 bf 50 eb db 3e
       -0.46931982 0.1278514 -0.63001084 0.42952967

model.2.conv.bias f4 [8]
000000 28 d4 ef bf f4 2f 01 40 67 a4 f3 bf 2a 5b 10 c0
       -1.873662 2.0185518 -1.9034547 -2.2555642
000010 dc 1d 42 40 c0 d3 0d 3c 50 5d 15 bf cf 44 91 3e
       3.0330725 0.008656442 -0.5834551 0.2837281

model.3.conv.weight f4 [8, 1, 3, 3]
000000 d4 84 ea bd a7 e4 1f 3d 43 eb 4d 3e c8 af a2 3d
       -0.11451116 0.03903642 0.20109276 0.07943684
000010 3c 0e e9 3e 50 16 f8 3e 5e 68 8b 3b 6f 65 c9 3e
       0.45518672 0.48454523 0.004254385 0.393352
000020 ef 01 a8 3e c5 16 f4 bd d6 3b 3c 3e 41 90 57 3f
       0.32813975 -0.119184054 0.183822 0.8420449
000030 89 26 5b be ed c5 8d 3e 34 4f a7 3f 46 2e 33 bb
       -0.21401419 0.27690068 1.3071046 -0.0027340814
000040 cb 76 53 3e 2b 73 80 3f 9a 1e 7a be 6b 75 9c be
       0.20650785 1.0035146 -0.24425736 -0.30558333
000050 9a 09 c3 be 6d 2e 48 be 5d 67 72 3c 15 22 07 be
       -0.38093263 -0.1954896 0.014795152 -0.13196595
000060 47 43 fc 3e b4 79 f3 3e c6 25 52 be c3 1c ec bc
       0.4927008 0.4755379 -0.20522222 -0.028822308
000070 f5 c1 37 3e d1 d9 c3 3e 5c 23 56 3d 96 96 c4 3e
       0.17945082 0.38252118 0.052279815 0.38396138
000080 14 7b 33 3f 96 96 c4 bb f1 ba 84 3e 30 61 00 3f
       0.7010968 -0.0059993966 0.25923875 0.50148296
000090 2a 19 d2 3d 3e e9 65 be 8c 4e 5f be 38 e0 a0 3e
       0.10258706 -0.22452256 -0.21807307 0.31421065
0000a0 54 95 a7 be 18 c3 40 bf 39 1d 22 3e f9 6b 76 be
       -0.32731116 -0.7529769 0.1583146 -0.24064626
0000b0 25 d6 22 bf 26 42 3f 3f ec ca 03 3e 3a da e9 bd
       -0.6360801 0.7471031 0.12870377 -0.114185765
0000c0 0f 55 ce 3e 3b a1 d6 bd 17 e5 6c bf 6e ba 92 3f
       0.4029927 -0.10479971 -0.92537063 1.1463144
0000d0 04 44 0d bd 7a c2 9e bf a5 6c 35 3e 6a 6c 99 3e
       -0.034488693 -1.24031 0.17717226 0.29965526
0000e0 57 ee 8a be 93 b6 db 3e e4 25 83 3e c1 b4 c5 3b
       -0.27134964 0.4291273 0.25614846 0.0060335104
0000f0 ff f8 8d 3d e7 d7 c2 3e 35 03 be bc 6d df cb 3e
       0.06932258 0.38055345 -0.023194889 0.39818898
000100 1e e3 e7 3e cf ac 11 3f 06 26 3c 3e 02 e3 9b 3e
       0.45290464 0.5690431 0.1837388 0.3044663
000110 8d 00 a7 3e cb fa b9 be 55 3a 81 3e e2 d9 a1 3e
       0.32617608 -0.36324152 0.25239816 0.31611544

model.3.conv.bias f4 [8]
000000 00 5f 8f ba 5c 86 ed bf d6 f3 7f 3f e0 e0 3e 3c
       -0.0010938346 -1.8556628 0.9998144 0.011650294
000010 15 8a 1f 40 59 51 63 bd 78 e9 a4 bd a8 d4 78 bf
       2.4928029 -0.0554975 -0.08052343 -0.9719949

model.4.conv.weight f4 [16, 8, 1, 1]
000000 76 9f bf 3e 3d 13 49 bb 4e 63 70 be 52 28 06 3f
       0.37426347 -0.0030681633 -0.23475382 0.52405274
000010 d2 b0 5a 3e b9 9c c9 3b e8 c5 17 bf 99 fb 4e be
       0.21356514 0.006152716 -0.59286356 -0.20213164
000020 22 5d d4 be 3e 7b 91 3e de ba d4 bd e7 48 ae be
       -0.41477305 0.2841434 -0.103872046 -0.34039995
000030 8c a1 95 be fe 54 2c 3e ae 20 de 3d 3e f6 26 3e
       -0.29224813 0.16829297 0.10846077 0.16304871
000040 12 ca d8 3e 73 49 42 be f2 d3 33 bd 5e 9c 8b 3e
       0.42341667 -0.18973331 -0.0439033 0.27267736
000050 86 67 c6 3e f6 bd ac 3e f5 be d0 3d c6 c2 15 be
       0.38750857 0.3373868 0.10192672 -0.14625081
000060 1e 52 e7 be d6 51 eb bd 6a ba 14 be b4 dc dc be
       -0.45179838 -0.11490218 -0.14524236 -0.43137133
000070 0d 29 ff 3e d6 51 6b bc ad f6 03 bf a7 8f 44 3e
       0.49836007 -0.014362773 -0.5154827 0.19195424
000080 9e 8b 05 bd 99 08 f0 be 85 44 62 be c6 8b 50 3f
       -0.032603852 -0.4688156 -0.2209645 0.8146328
000090 1f 4e 29 bc a8 f6 b5 3e cc c7 f4 be c3 3a d0 bc
       -0.010333567 0.35539746 -0.47808683 -0.025418645
0000a0 a5 31 49 3e 84 a2 77 3e 6d f0 cc bc a9 f0 24 3f
       0.19647844 0.24183089 -0.025016988 0.6442972
0000b0 35 2e 05 3f 13 74 1a 3e 9f 88 78 bf 60 cc 8a bd
       0.5202363 0.15083341 -0.9708347 -0.06777263
0000c0 66 55 a4 3f bb a9 9e bd 38 f3 8b 3f e4 bf 4e be
       1.2838562 -0.07747217 1.09336 -0.20190388
0000d0 be 27 00 be 59 a6 75 3e 42 45 16 bf e2 23 41 3f
       -0.1251516 0.23989238 -0.5869943 0.7544538
0000e0 7b b9 e2 be dc 29 44 bf 8c 28 31 be a3 6b fe 3e
       -0.44282135 -0.7662637 -0.17300624 0.49691495
0000f0 10 0a 5c 3f f6 3a dc 3e c9 ed 11 bf 7e a8 39 3d
       0.85952854 0.43013734 -0.57003456 0.045326702
000100 59 50 2a 3e aa a2 f9 bd 63 04 2a 3e 94 42 4a 3f
       0.16632213 -0.12189229 0.16603236 0.7900784
000110 95 3a fa be cb b5 bc 3e 13 12 81 3e 0d 0d c2 3e
       -0.4887282 0.36857447 0.25209102 0.37900582
000120 30 49 82 bf a9 79 ec bd 17 c9 ba 3d 79 a2 24 3f
       -1.0178585 -0.11546642 0.09120386 0.64310414
000130 33 e3 39 3f 1d 04 ad 3e e4 c0 5f 3f 5b f2 13 3f
       0.72612303 0.337922 0.874037 0.5779168
000140 24 f0 a5 3f 33 a5 07 bf b0 56 81 bf d5 9b 46 bf
       1.296391 -0.5298645 -1.010458 -0.7758153
000150 f3 05 0a 3f 5f f2 96 3e 51 31 8f be 40 66 8f 3d
       0.5391533 0.2948179 -0.27967313 0.070019245
000160 97 1a 34 3f 6b 14 25 3d 25 0b 9a 3e fe 45 13 3e
       0.7035307 0.040302675 0.30086628 0.14382169
000170 09 0a 51 3e 6a 53 91 3d 5f 72 97 3e c9 3f 1b 3e
       0.20413984 0.07095988 0.29579446 0.15161051
000180 be 57 59 bf 71 45 50 3f 29 a5 65 3d 94 2f 9f 3f
       -0.8489951 0.8135596 0.056065712 1.2436395
000190 2a 48 39 3e 27 dc 96 3e 65 15 70 3e 6d d3 b1 3f
       0.18093935 0.29464838 0.23445661 1.3892647
0001a0 27 7e f8 be 17 53 8e be bb f3 d7 be 3a 25 13 3f
       -0.48533747 -0.27797768 -0.4217814 0.5747868
0001b0 64 1f bc be 5d 50 be 3e c3 59 14 bf 89 2a b1 3e
       -0.367427 0.37170687 -0.57949466 0.34602764
0001c0 70 eb c3 be 0f 23 e9 be d4 69 0a bf ce b3 59 3f
       -0.38265562 -0.4553456 -0.5406773 0.85039985
0001d0 64 8c 25 3e dd 12 bd 3e f2 5d 15 3e 37 1e 15 be
       0.16166836 0.36928454 0.14586619 -0.14562307
0001e0 4f 92 26 bf 36 48 7b be 81 6c 16 be 87 b4 19 3f
       -0.65067 -0.24539265 -0.14689828 0.6004109
0001f0 f6 02 0d 3d 23 9a 8f 3e 07 f4 46 bf 11 37 d3 3d
       0.034426652 0.28047284 -0.77716106 0.103132375

model.4.conv.bias f4 [16]
000000 06 d7 e8 3e 98 fc ff 3d 38 5c 49 bd 7e 04 33 3f
       0.4547655 0.1249935 -0.049160212 0.6992873
000010 19 25 63 3e fe 20 42 be 4c d2 eb bf 09 7c 89 3d
       0.2218212 -0.18957898 -1.8423553 0.06713111
000020 31 b7 6d bf b3 e7 ba bf b0 f0 27 3f c2 62 14 bf
       -0.9285765 -1.4601959 0.65601635 -0.5796319
000030 29 61 cb bf 1c f9 14 3f 80 d6 02 3f a6 c5 ec 3e
       -1.5889026 0.5819261 0.5110855 0.46244544

model.5.conv.weight f4 [16, 16, 1, 1]
000000 66 bc 35 3e 1d f2 a3 3e 0f ac 80 3e 2a d3 62 3e
       0.1774765 0.32020655 0.2513127 0.22150865
000010 a6 22 80 3e b7 4b 78 be f1 e3 7e 3e 50 82 b4 3e
       0.25026435 -0.24247633 0.2489164 0.3525567
000020 e2 c8 8d 3e a6 70 4a 3d 1c 8d 3f be 24 b7 54 3e
       0.27692324 0.049423836 -0.18706173 0.20772988
000030 a9 7e 51 be 00 0b 85 3e 64 ae 2e 3e 8b a1 be bd
       -0.20458473 0.25984955 0.17058712 -0.093081556
000040 e4 0b d7 3c ca ac 37 be 10 b9 3b be 36 74 1a be
       0.026250787 -0.17937008 -0.18332314 -0.15083393
000050 f7 d2 ce 3e 8a 19 87 3d 19 06 40 3d a2 0e 0e 3e
       0.40395328 0.06596668 0.046880815 0.1387277
000060 3e d0 b8 3d 53 2e 38 3e 2e 91 2e be e3 92 a4 3e
       0.09024094 0.17986421 -0.17047569 0.32143316
000070 1c 43 69 bd 6c 6e 83 be f0 ef e2 3e 3a fc 87 be
       -0.056948766 -0.25670183 0.44323683 -0.2655962
000080 df 16 25 3e d1 e9 34 3e 25 f9 73 bd 10 a5 8c be
       0.16122006 0.17667319 -0.059563775 -0.27469683
000090 91 83 a8 3e 24 c5 3d 3e d1 82 66 3c d3 62 86 3d
       0.32912877 0.18532234 0.014069275 0.06561818
0000a0 c6 be 97 3c 99 df 0a bc da ce 18 3d b6 6d a1 3e
       0.018523585 -0.008476161 0.037306644 0.31529015
0000b0 19 23 a2 3b 43 00 5c bd 2a 86 1b 3d b0 ce f6 3d
       0.0049480316 -0.053711187 0.037969746 0.12051141
0000c0 9d 1b bc 3e 41 ba b1 be a6 fc 78 3d ff e1 f6 be
       0.36739817 -0.34712413 0.06078782 -0.48219296
0000d0 b6 33 10 3e f9 cb 73 3e 3f 3e 25 3d 4c b9 d8 3e
       0.14082226 0.23808278 0.040342566 0.4232887
0000e0 96 b6 0b 3e 34 bf ee bd 42 a9 8a be 8c 15 87 be
       0.1364387 -0.11657563 -0.27082258 -0.26383626
0000f0 02 6d 78 be 92 5c cd 3d 5c 10 8c 3e c0 63 7a be
       -0.24260333 0.10027422 0.2735623 -0.24452114
000100 fd 88 74 be 5c 91 4c bd 2b db 42 be f1 b5 e7 3e
       -0.23880382 -0.049943313 -0.19028918 0.45255998
000110 61 94 49 be 81 0b 72 3e 27 41 9d be 46 83 5a bb
       -0.19685508 0.23637201 -0.3071377 -0.0033342405
000120 ea 4e 2f be 4d 59 85 be 5f 2a 73 3d d4 d7 65 be
       -0.17119947 -0.26044694 0.05936658 -0.22445613
000130 12 cb 52 3e 4b ef 2e 3e 3c 1a 24 bd b4 c9 94 3e
       0.20585278 0.1708347 -0.04006408 0.29060137
000140 04 f2 89 bd 1c ca d9 bc 3a 64 52 be 75 fd 0f 3b
       -0.06735614 -0.026585631 -0.20546046 0.002197114
000150 4d 1e 76 be e2 10 06 bd 09 d7 0b be b0 08 a2 3c
       -0.24034996 -0.032730944 -0.13656248 0.019779533
000160 dd dc 88 bd 35 82 93 bc 98 cb 05 3e 09 26 87 be
       -0.06682751 -0.018006423 0.13065946 -0.26396206
000170 8e 27 1e be 8e b2 86 bd a6 51 ac bd 43 41 e4 3d
       -0.15444776 -0.06577025 -0.08414011 0.1114526
000180 99 6a 88 3e 2f 46 99 bc 70 4a 76 3e 38 66 f9 bd
       0.26643828 -0.018710224 0.24051833 -0.121777
000190 a8 d5 6f 3d 70 37 54 3e 96 e9 4f 3d df 12 f0 3d
       0.058553368 0.20724273 0.050759874 0.117223494
0001a0 59 4e 26 be be a3 63 bd dc 63 db 3d 5f ac cf ba
       -0.16240825 -0.05557608 0.10712406 -0.0015844217
0001b0 a5 b2 1d be a7 ba 35 3e 23 fe 83 3e 33 e2 0b 3e
       -0.15400179 0.17746983 0.25779828 0.13660507
0001c0 6a d5 40 3e 3e 87 13 be 24 ef b2 3d af b0 70 be
       0.18831411 -0.1440706 0.08737019 -0.235049
0001d0 37 e8 8a 3d f3 84 96 3d fc 0c 8c 3e 5a db 11 3d
       0.06782573 0.07349577 0.27353656 0.03560958
0001e0 46 48 0d be 7b 96 eb bd 3d 9e 26 3e c1 cb b9 3e
       -0.13797101 -0.11503311 0.162713 0.36288264
0001f0 41 f3 19 be 9d 3e 06 3e 89 c2 94 3d 91 4a 8a 3d
       -0.150342 0.13109823 0.07263667 0.06752504
000200 d2 d2 8a 3e 2c 4f 2a be c4 cc b8 3d bf 52 9e bd
       0.27113968 -0.16631764 0.09023431 -0.07730626
000210 4c e5 59 3a 6f 52 6c 3e 28 78 47 3e 98 ca 0c bc
       0.0008312061 0.23078321 0.1947943 -0.008593224
000220 b5 f0 99 bd 5b 85 81 bd 52 f9 49 3e a0 c5 50 3e
       -0.07516614 -0.06324264 0.19724014 0.20387888
000230 b4 23 2f be d1 38 b5 3c e2 ae a9 3d 74 a1 96 3d
       -0.17103463 0.022121819 0.082853094 0.073550135
000240 42 ae b7 3d 73 f5 4d bd 15 17 78 3e 85 0e eb bc
       0.08968784 -0.050282907 0.24227555 -0.028693447
000250 c7 fc 46 3c e5 98 56 be 28 16 e9 3d 89 4f 1d be
       0.012145228 -0.20956762 0.11381179 -0.15362372
000260 9d 14 50 3e a1 35 f0 3d 4d 31 aa 3e 34 b6 ba 3e
       0.20320363 0.11728979 0.3324074 0.36467135
000270 3b 32 b9 bc 78 0c 8b bd c4 be c7 bd f1 e4 bd bd
       -0.02260696 -0.067894876 -0.097531825 -0.09272183
000280 e6 d1 b2 bb d4 cb 99 3b af 1b 00 3d b7 56 bd 3d
       -0.0054571507 0.0046934877 0.0312764 0.09245055
000290 35 99 32 bd 54 cb f9 bb c6 12 8a bd 5f f5 aa bd
       -0.04360314 -0.0076231156 -0.06741862 -0.08347582
0002a0 88 7c 72 bc ca 76 99 3d 92 30 c8 bb 07 38 80 bd
       -0.014800198 0.0749336 -0.0061093057 -0.06260686
0002b0 eb d9 29 3d 31 d9 0a 3d 43 c8 1d bd ad 74 db bd
       0.04146759 0.033898536 -0.038521063 -0.107156135
0002c0 3a 1e 6e 3e 80 67 12 be e7 30 5c 3e 3e c0 32 be
       0.23253718 -0.14297295 0.2150303 -0.17456147
0002d0 69 e1 82 3d 2e 4d 96 3c 2d 45 83 3e 45 18 49 3d
       0.0639065 0.018347349 0.25638714 0.04909541
0002e0 3f d0 58 3b 52 e5 b9 bd e8 3c 9b 3d ab 0e 7d 3e
       0.0033083109 -0.090769425 0.07579976 0.24712627
0002f0 4a 48 00 be 95 16 e0 3c 53 6b 19 3d c4 e5 6e 3d
       -0.12527576 0.027354518 0.037455868 0.05832459
000300 e2 c5 ef bb 0f be a7 3d b1 49 b4 3e 0d 0e 70 bd
       -0.0073172906 0.08190548 0.35212472 -0.05860715
000310 fa 4f 0d be 74 d2 21 be 31 99 12 3e 13 d5 0b be
       -0.1380004 -0.15802938 0.1431625 -0.136555
000320 64 a3 8f bb fe cd 62 3d 3d a0 c5 3e 72 66 d6 3e
       -0.0043834914 0.05537223 0.38598815 0.41875035
000330 d2 57 90 bd f5 4f d2 bd bd 3f ec bd 84 0c 01 3d
       -0.070480004 -0.10269157 -0.115355946 0.031506076
000340 c2 97 f7 3c 1b 65 02 bc 66 bc 0c 3e 3d 42 98 3c
       0.030223731 -0.007958676 0.13743743 0.018586272
000350 70 3e c0 3e 50 04 dc 3e 08 69 9b be 96 9b dc 3d
       0.37547636 0.4297204 -0.3035357 0.10771863
000360 f7 70 f4 bd 41 63 b0 3d 64 7c 09 3e 15 ca c3 3c
       -0.11935609 0.08612681 0.13426358 0.023900071
000370 52 46 ff be d6 70 33 3e 45 46 65 3e 79 59 05 3e
       -0.49858338 0.17523512 0.22390087 0.13022412
000380 2c 8a eb be a4 f4 d4 bc 69 32 b6 bd ef 6f 73 3e
       -0.46003854 -0.02599556 -0.08896334 0.23773168
000390 df d2 18 be 2e e2 44 be d9 8e d8 3e 66 e5 11 be
       -0.14924191 -0.19226906 0.42296484 -0.14247665
0003a0 1e fe 80 39 72 ee de bb 2f 65 62 bd 5c 54 ad bd
       0.00024603395 -0.0068033272 -0.055272277 -0.08463356
0003b0 bc e6 df 3e d0 44 5d 3c b9 c4 ff bd 83 8d 0a 3e
       0.43730724 0.013505176 -0.12488694 0.13530545
0003c0 b5 1e 4b 3e 24 28 cc 3c fe ad 5d 3e ad 41 0e be
       0.19835933 0.024921484 0.21648404 -0.13892241
0003d0 f3 6b d6 3b 94 f6 51 3e a3 b1 b6 3e 63 13 f4 bc
       0.0065436303 0.20504218 0.356824 -0.0297944
0003e0 f1 08 35 3b 92 ba 18 be a1 3a 02 3b 0e b8 50 3e
       0.0027623738 -0.14914921 0.0019871371 0.20382711
0003f0 37 6e 78 be 59 e5 7f bc 7d e8 39 3e 6a 18 04 3d
       -0.24260794 -0.015618646 0.18155093 0.032249846

model.5.conv.bias f4 [16]
000000 0e 56 22 bf 38 c1 3b 3c a0 e5 17 3d 92 ec 72 3e
       -0.6341256 0.011459641 0.03708422 0.23723057
000010 c7 14 4f 3e bd 54 82 3f 98 c7 57 bd d0 94 d4 3c
       0.2022277 1.018211 -0.05268058 0.025949866
000020 50 74 db 3c e8 95 4b bd 00 b8 9d 3f 50 64 17 3d
       0.02678886 -0.04970351 1.2321777 0.0369609
000030 f0 3b 02 3d a0 af e4 bc 54 12 f1 3e 9d 05 96 be
       0.031795442 -0.027915776 0.47084296 -0.29301158

model.6.conv.weight f4 [16, 1, 3, 3]
000000 78 bf 72 be 34 8d 1e be de fe 67 be 7a 39 d5 be
       -0.23705852 -0.15483552 -0.22655818 -0.41645414
000010 d2 cd e3 3b 15 34 a5 be 35 93 f6 be 1d 28 91 3e
       0.006952026 -0.32266298 -0.48159185 0.28350917
000020 af b1 0d bf 77 63 52 bc 4c da 08 3f a9 31 9f bd
       -0.5534925 -0.012841097 0.53458095 -0.07773144
000030 1c b7 aa 3c 99 dc c3 3e 61 5d 0f be 2a 6a 2a 3e
       0.020839266 0.3825424 -0.14000465 0.16642061
000040 09 df 92 3e ca ce 5c bc 8e 11 04 3e 33 69 a3 3e
       0.28685787 -0.013477037 0.12897322 0.31916198
000050 66 0a 0d 3e cb 1b 51 bf 55 2e a0 bf d8 d4 9c bb
       0.13773498 -0.81683034 -1.251414 -0.004786115
000060 34 7f 21 3f d9 cd 65 3f dc ee 62 be bf 16 9a 3d
       0.6308472 0.89767224 -0.2216143 0.0752387
000070 e5 a5 01 be a4 8a 41 bd 19 5a 18 3f 6c bc a7 be
       -0.1266094 -0.04725136 0.5951248 -0.32760942
000080 05 0a 63 be 4a 68 00 3f 45 2d 40 3c ed 3c d9 3e
       -0.22171791 0.5015913 0.011729543 0.42429295
000090 1e ff 86 3d 5f d7 f9 be 31 61 86 be a0 8e 05 bd
       0.065916285 -0.48797128 -0.26246026 -0.03260672
0000a0 4b 7f 36 bf de 12 1c be 6c 0a c3 3e 91 0d 5d 3f
       -0.71287984 -0.15241572 0.3809389 0.86348826
0000b0 00 d2 12 40 74 c5 b6 3f da 39 45 3c 93 1b 3b 3e
       2.2940674 1.4279008 0.012037719 0.18272237
0000c0 26 3f 0b 3f 52 e2 fe be ff f7 6a 3d a0 eb fd 3e
       0.5439323 -0.49782044 0.057365414 0.4959383
0000d0 b7 02 2c bc ba 0c 0c 3f 90 f3 7f bd 98 e4 ea bc
       -0.010498694 0.5470692 -0.06248814 -0.028673455
0000e0 34 30 21 3d 6c 0a 80 bc 44 f0 1d 3e e6 3f 8f be
       0.03935261 -0.01562997 0.15423685 -0.27978438
0000f0 09 94 a1 3e 56 32 38 3f ce f3 72 3e 09 12 d4 bc
       0.31558254 0.71951807 0.23725817 -0.025887506
000100 80 73 41 3f d3 2e 49 be 83 dc d1 3e 91 76 07 3f
       0.75566864 -0.19646768 0.4098855 0.5291529
000110 a0 b4 4e bf a0 b4 4e be fe 0a 2e bf fa 3d 3f 3e
       -0.8074436 -0.2018609 -0.6798552 0.18675986
000120 6d 98 48 be f8 88 7a 3d 07 ee 28 3f e3 a7 16 3e
       -0.19589396 0.06116578 0.659882 0.14712481
000130 fa fa ed be 38 7f 08 3f b5 99 b6 3e 89 fd 49 be
       -0.46480542 0.5331912 0.35664144 -0.19725622
000140 d4 07 0d bf 40 09 ec bb b2 13 04 3e f8 3b 79 bd
       -0.5509007 -0.007203251 0.12898138 -0.060848206
000150 fd 28 5c 3d ca e8 14 3f 63 77 11 be 21 bc 18 3d
       0.053750027 0.5816771 -0.14205699 0.03728879
000160 86 d8 27 3f 8c c3 41 3d 2b 78 0d 3e 25 b7 8c 3d
       0.65564764 0.04730563 0.13815372 0.068708695
000170 e0 e0 93 bd 85 e4 84 3e b0 2b 0a 3f 6d e5 a8 bf
       -0.07220626 0.25955597 0.5397291 -1.3195015
000180 59 91 6c be 1b 50 93 bf b5 9e 35 c0 82 bb e8 bd
       -0.2310232 -1.1508821 -2.8378117 -0.11363889
000190 57 1e c9 3d 06 af 3d 3e 4a 44 34 3d 2b 23 80 3f
       0.0982024 0.18523797 0.044010438 1.0010732
0001a0 cd 6c 7e bd 25 a8 ba bd b8 c0 03 be 31 09 ad be
       -0.06211548 -0.09114102 -0.12866485 -0.33796075
0001b0 49 53 bd bd d5 fe 5e 3c 61 6f 65 3e ed a4 d0 bd
       -0.09244401 0.013610561 0.22405769 -0.10187707
0001c0 19 56 88 bc 7a 81 35 3f 65 95 95 bd be a6 60 bd
       -0.016642617 0.7090069 -0.07303885 -0.054846518
0001d0 e4 a8 d9 3e 4b c3 44 be c8 94 53 be 15 11 db be
       0.42511666 -0.19215123 -0.20662224 -0.4278647
0001e0 cf 57 93 3e d7 c9 e1 3e 51 15 b8 3e a9 e7 1a 3e
       0.2877793 0.44099304 0.35953763 0.15127434
0001f0 a4 8a 38 3e e3 c6 c2 3e 18 dd 52 be 8e 52 cd be
       0.18021637 0.38042364 -0.20592153 -0.40102047
000200 2d 5a f9 be 68 85 6d be 2a c2 07 bf c3 64 81 be
       -0.4870161 -0.23195422 -0.53030646 -0.25272188
000210 7b ff 9d 3c b2 52 ec bd b9 e9 84 bd 2c 6d 10 3e
       0.019286862 -0.115392104 -0.064898916 0.14104146
000220 e5 bf 5a be 57 07 0a be 71 40 f3 3c 47 13 a3 bf
       -0.21362264 -0.13479362 0.029693814 -1.2740258
000230 5a 3f c2 3f fe 35 bd 3d cc 41 70 3f 29 c0 a6 bf
       1.5175583 0.09238814 0.938504 -1.3027393

model.6.conv.bias f4 [16]
000000 2f e4 24 3f ce a7 22 bf f0 fb 0e 3d 52 90 83 3e
       0.6441068 -0.635373 0.034908235 0.25696045
000010 7c cb 62 bf 7d 23 da bf 9a de 36 3e e8 34 b9 3d
       -0.8859174 -1.704208 0.17858353 0.09043294
000020 97 3e 5d 3f 6a b2 17 3e 4d dd c6 40 bc 50 b6 3e
       0.8642363 0.14814153 6.2145143 0.3560847
000030 48 9c 25 3e 66 bf 56 be 9d a6 d9 3f de 55 02 3d
       0.16172898 -0.2097145 1.7003971 0.03182017

model.7.conv.weight f4 [32, 16, 1, 1]
000000 82 f4 91 3e c6 1b 5f be e3 5e d4 3d 61 a0 85 be
       0.28506857 -0.21787938 0.10369661 -0.26098922
000010 20 5e 49 be 32 6c e2 3d 2f 55 21 be 79 d6 76 3c
       -0.19664812 0.11055793 -0.15755151 0.015065783
000020 aa 53 8b be 77 f5 78 be 2f 8b e4 bd 37 df c2 be
       -0.27212268 -0.24312387 -0.1115936 -0.38060924
000030 1b 66 8a 3d bf da 2e bd 81 92 48 3d 91 21 2d bd
       0.06757756 -0.04268908 0.048967842 -0.04226834
000040 cc bc 60 3e ab a2 c1 bd d1 ec 9a be a0 db 1f bf
       0.2194702 -0.094548546 -0.30258802 -0.62444496
000050 b2 2b ff bd 83 0c 5a be d3 a1 c0 be 89 c4 9d be
       -0.12459506 -0.21293835 -0.37623462 -0.30814007
000060 35 f2 87 3e 41 13 62 be 1b f8 0e 3f 0a 78 74 be
       0.26551977 -0.22077657 0.5584733 -0.23873916
000070 d9 67 ae 3e d7 76 0d 3e 89 c4 1d be 1c 24 f6 bd
       0.34063604 0.13814865 -0.15407003 -0.12018606
000080 d3 55 31 bd e6 0e 71 be b2 99 89 3c 99 b4 a0 be
       -0.04329474 -0.2354084 0.01679692 -0.31387785
000090 b0 03 35 3e 8d e4 d7 be 52 ce 59 3e 4c 42 85 3e
       0.17677188 -0.42166558 0.21270111 0.26027143
0000a0 3f 27 52 bd 66 63 29 3f f5 98 fe be 87 61 1f be
       -0.05130696 0.66167295 -0.49726072 -0.15564547
0000b0 df 58 19 3f ce 50 02 be d5 fd 3d 3c 2f 37 86 bd
       0.5990123 -0.12726137 0.011596163 -0.06553494
0000c0 4c 15 f6 bd 52 e5 f3 be 07 b2 33 3e e7 f5 be be
       -0.12015781 -0.47635895 0.17548381 -0.37296984
0000d0 61 8a 13 3e 6a 7a 10 3f 8d 02 84 3f 9b dd d9 bc
       0.14408256 0.5643679 1.0313278 -0.026594928
0000e0 8f 3e 03 bf 5e a2 14 bf 04 ca 34 bf 6f 9d 69 3f
       -0.5126733 -0.5806025 -0.7062075 0.9125585
0000f0 9c 89 d9 bd 25 de 28 be 2f 26 a5 be 76 35 67 3e
       -0.1062195 -0.16490991 -0.32255694 0.22578987
000100 b2 99 a3 3e c1 7b 72 be 92 d9 c2 3d 92 da be 3e
       0.31953198 -0.23680021 0.095141545 0.3727613
000110 41 7c 47 3e 4f 61 0f 3d 8f df 2a 3f e8 2d 62 3d
       0.19480993 0.03500491 0.66747373 0.05521956
000120 d4 54 6a 3e da 49 1b 3d 6d 24 0d bf 10 de 07 3f
       0.22883922 0.037912227 -0.55133706 0.53073215
000130 d1 5a 52 bf 3e 82 06 3c 94 d5 80 be 9e c0 54 3e
       -0.82169825 0.008209763 -0.25162947 0.20776603
000140 e0 cc f4 3d 6d 0b 9f 3d 2a 6c f4 3d d2 16 d8 be
       0.11953139 0.07765851 0.11934693 -0.4220491
000150 dc cc 41 be 7d 9c 8e 3e d7 71 c4 be 78 81 95 3e
       -0.18925804 0.27853766 -0.38368103 0.2920034
000160 6a 70 bf 3e 00 6f 5c be 0d c0 25 bf cd d6 8f be
       0.37390453 -0.21526718 -0.6474617 -0.28093567
000170 75 26 3a bd a1 3e a9 3e c4 e0 32 3e ff c9 84 be
       -0.04544683 0.33055595 0.17468554 -0.2593536
000180 76 35 10 bf 15 37 b1 3d 01 51 b4 3d 20 60 50 3e
       -0.56331575 0.08653084 0.08804513 0.20349169
000190 0c 5f 17 3e 9f b7 4d 3e 41 0a 0b bf 6f 78 0f 3f
       0.14782351 0.20089577 -0.5431252 0.5604314
0001a0 8a b6 7d be 07 d8 02 bf 48 ac 15 bf 82 de 1d 3f
       -0.24776664 -0.5111088 -0.58466005 0.61667645
0001b0 7a 06 84 3e 4c 98 a2 3e 93 a9 6a 3e 5a f7 ad be
       0.2578619 0.31756818 0.2291625 -0.33977777
0001c0 91 c2 f8 bd ac 99 7d 3e 78 77 78 be 97 40 e5 3d
       -0.121464856 0.24765652 -0.24264324 0.1119396
0001d0 5e e0 35 3d 35 e7 b6 3d 05 9d 78 bd 3f aa 59 3e
       0.044403426 0.08930818 -0.06069662 0.2125635
0001e0 a8 08 05 bd 04 77 d7 bd 30 a9 0c 3e 1f 28 3b 3e
       -0.03247896 -0.10520747 0.13736415 0.18277024
0001f0 12 bf 72 3e ca 16 a8 3e 35 54 26 3e 73 5f ef 3d
       0.237057 0.32829887 0.1624306 0.11688127
000200 f9 ba a7 be 75 41 14 be 59 3e a3 3e 9c fe 5a 3e
       -0.32759836 -0.14478095 0.31883505 0.21386188
000210 3c 85 1f be 75 3c b4 bd 0c 6b 88 3f 0b 0b 1f 3d
       -0.15578169 -0.08800594 1.0657668 0.03882889
000220 78 08 c3 be ed f6 11 be 39 b9 90 3e fa 6b 5a be
       -0.380924 -0.14254351 0.28266314 -0.21330252
000230 5b 4f bf bd 34 de 61 bf f1 6e 73 be d6 75 42 3e
       -0.09341308 -0.8822968 -0.2377279 0.18990263
000240 0f df ed 3d 24 ac f7 be 21 ab 54 bc b8 06 86 3e
       0.11614811 -0.4837352 -0.012980253 0.26177
000250 3f 59 87 3e e7 34 9d be 5d 7e 6e 3e 96 cb 9a bd
       0.26435277 -0.30704424 0.23290391 -0.07558362
000260 1b c8 84 3d 70 f5 e0 bd 65 b4 0b 3f 67 8f 6d be
       0.064834796 -0.109843135 0.54572135 -0.23199235
000270 86 c2 ea be 5b 10 ac 3e 09 f5 d2 be 75 34 70 3e
       -0.45851535 0.33606228 -0.41202572 0.23457511
000280 dd 8b 4c 3d 0c f7 be be 06 8d 1f 3e 58 48 f3 be
       0.04993807 -0.37297857 0.1558114 -0.4751613
000290 63 ee 07 3d f7 45 33 3d c2 3b 38 bc 21 bc 82 3e
       0.033186328 0.043767896 -0.011244716 0.25534156
0002a0 55 93 63 3d 39 57 87 3e 38 ad 21 bf c8 4f 3d bf
       0.05556043 0.26433733 -0.63154936 -0.7394986
0002b0 ec 28 d3 3e 54 a7 9b bd dd 35 b2 be a4 ab 10 bf
       0.41242158 -0.07600275 -0.3480672 -0.565119
0002c0 c6 a2 fd be cc bd 6c 3e b9 86 e3 be f6 1d 58 3e
       -0.4953825 0.23119277 -0.44438723 0.21105179
0002d0 9b 84 c1 bc 60 c5 61 bd 4d a8 9c 3c b2 6b f4 bb
       -0.023622802 -0.055119872 0.01912322 -0.0074591273
0002e0 90 33 5a bf 86 d4 cb bd 9c f0 4b 3f 43 3c 2c bf
       -0.8523493 -0.09952645 0.79664016 -0.6727945
0002f0 79 9e ed bd 8e 4e e3 be 8d ef 3a 3e 2d a7 3f be
       -0.11602492 -0.4439587 0.18255444 -0.18716116
000300 7b 08 72 be 72 01 b3 3d fe 33 af bd 13 24 9d bd
       -0.23636048 0.0874051 -0.085548386 -0.07672896
000310 77 34 c8 3e 15 f1 6f 3e 5c 3d cf 3c de 02 fe 3d
       0.39102527 0.23431809 0.025297813 0.124028906
000320 e9 59 60 3f 4b e6 04 3f c4 e6 1d bf f3 f9 8e be
       0.8763719 0.519139 -0.61680245 -0.2792507
000330 77 93 b3 be 59 95 63 3c bd 4d c6 3c e0 b1 0c bf
       -0.35073444 0.013890588 0.02420699 -0.54958916
000340 d4 cc 04 3f f9 bf 56 be 90 80 2d be a2 20 05 3d
       0.5187504 -0.2097167 -0.16943574 0.032501824
000350 69 36 74 3e e0 9f 5d 3d f7 05 17 bf 23 0f 95 3e
       0.23848881 0.054107547 -0.58993477 0.2911311
000360 9f cb 35 3e ef f1 82 be a6 2a 0f bb 0a ef 1b 3e
       0.17753457 -0.25575206 -0.0021845489 0.15227905
000370 0b 60 ae 3f 47 b9 39 bf 06 e5 11 3e f2 d3 27 be
       1.362306 -0.72548336 0.14247522 -0.16389444
000380 00 9c 5c 3f cd 6b 25 be bb 92 d6 be 2d fc bb be
       0.8617554 -0.16154404 -0.4190882 -0.36715832
000390 75 89 d0 be 8c 9d 5d 3f 28 cd 64 bf 19 e6 09 bf
       -0.4072987 0.8656852 -0.89375544 -0.53866726
0003a0 f3 e0 59 bf b6 41 e9 3e e3 a1 c8 3e 0a e4 db 3d
       -0.8510887 0.45557946 0.3918601 0.107368544
0003b0 9a 25 3f 3f 47 72 41 bf 94 ca 8f 3f 52 23 02 be
       0.7466675 -0.75565 1.1233697 -0.12708786
0003c0 41 5d c9 bd 9d 68 e8 3c 63 5d 10 be 7f ae 9d 3e
       -0.0983224 0.028370196 -0.14098124 0.30797192
0003d0 fc 51 04 3d 00 cb bb 3d 94 d8 77 be 3a 6d d6 3e
       0.03230475 0.091695786 -0.24203712 0.41880208
0003e0 9e 9f a8 be 2f 3d 68 bf b5 d8 3e 3e 7d d6 21 3e
       -0.32934278 -0.9071836 0.18637355 0.15804477
0003f0 86 ff 50 be 80 af 5b 3e 26 14 39 bd 44 9c 06 3e
       -0.20409974 0.21453667 -0.04518523 0.13145548

model.7.conv.bias f4 [32]
000000 7a 09 51 3f e4 0b 89 3d 71 c8 ac 3e 70 38 bb 3d
       0.81655085 0.06691721 0.33746675 0.09141624
000010 33 09 21 bf a7 89 f5 3e a8 bb c4 3d b8 f0 96 bd
       -0.6290466 0.47956583 0.09606105 -0.07370132
000020 d9 16 de 3e 91 67 08 3e 33 5d 98 3f a0 15 95 3f
       0.43376806 0.13320757 1.1903442 1.1647224
000030 95 6d 08 bf c5 01 0c bf 56 1e 06 3e f8 61 10 3f
       -0.5329221 -0.546902 0.1309751 0.5639949
000040 18 c1 3f 3f d9 0c dc 3e c8 6f 94 bd 2c 5b e8 bd
       0.7490401 0.42978552 -0.07247883 -0.11345515
000050 07 ec d0 3d ae 18 d4 3f 7c 2b 67 3f d6 cd 43 3f
       0.10201269 1.6570032 0.90300727 0.76485956
000060 54 64 86 3f 84 84 f9 3d 64 47 9f 3e a9 15 ba 3e
       1.0499368 0.121834785 0.31109154 0.3634465
000070 da c7 9c 3e 9f 81 f2 be 30 2d 74 be 8e 8c 33 3f
       0.30621225 -0.47364518 -0.23845363 0.70136344

model.8.conv.weight f4 [32, 32, 1, 1]
000000 bf 47 ef bc 1e 0c 2a be 45 f2 68 3e 20 ab 32 3d
       -0.029209016 -0.16606185 0.22748668 0.04362023
000010 0a bd b8 3d 90 79 87 bd 8f 5c a3 bd 24 84 83 bd
       0.09020431 -0.06614983 -0.079766385 -0.06421688
000020 5f 42 1e be 15 4f 79 bc 6f 1d 7f 3d 3e b0 0e be
       -0.15455006 -0.0152166085 0.06228393 -0.13934419
000030 d0 da 73 3e 7e 52 09 be 05 7f 27 be ec e6 95 3d
       0.23813939 -0.13410375 -0.16357048 0.073194355
000040 75 30 18 3f c3 97 55 3d cb 13 f8 bd cd 5f 15 3c
       0.5944894 0.052146684 -0.1211315 0.009117079
000050 3a 4e d3 3d 99 6c 3f be 36 10 c2 3d 75 1e 43 3e
       0.10317655 -0.1869377 0.09475748 0.19054587
000060 87 eb 8f be 84 12 3f be bf d0 59 3e 07 a7 9a bc
       -0.2810938 -0.18659407 0.21271037 -0.018878473
000070 58 65 84 bd ac 15 e2 be 7d 35 a5 3e da 48 02 be
       -0.06464642 -0.4415716 0.3226737 -0.12723103
000080 11 07 0c bd d8 fc 7c be b1 a4 9c be 2b 67 2f be
       -0.034186427 -0.24705827 -0.305944 -0.17129199
000090 78 41 84 bd 70 d5 f8 3e 67 db ac 3e bd af cd 3d
       -0.064578 0.4860034 0.3376114 0.10043285
0000a0 c3 f5 e9 bd b3 c6 5f be c9 72 d3 be 96 9f 98 be
       -0.114238285 -0.21853141 -0.41298512 -0.29809254
0000b0 5e 3a ea 3e 7c 98 fe 3d 63 25 e7 be c6 63 04 be
       0.45747656 0.12431428 -0.4514571 -0.12928686
0000c0 76 65 56 be 30 ad 4b 3e 8b dc 92 3e cb 04 40 3e
       -0.20937142 0.19890285 0.28683886 0.18751828
0000d0 d3 13 96 be ef 4d 51 3e 35 50 9d bd c7 98 3b 3e
       -0.29312 0.20439886 -0.07681314 0.18319999
0000e0 41 13 23 be 6d 0e 55 be e4 1c b8 3e bc c2 41 be
       -0.15925314 -0.20806284 0.35959542 -0.18921942
0000f0 a4 97 55 3e d2 6e 35 3f 19 71 01 3e 36 3d a9 3d
       0.20858628 0.70872223 0.126408 0.08263628
000100 5a 41 60 3e 27 19 20 3e b3 91 20 be ef 01 cc 3d
       0.2189993 0.15634595 -0.1568058 0.09961306
000110 31 74 24 be 65 05 e2 bd 3a e2 41 bb 7e 39 2e 3e
       -0.16059949 -0.11036185 -0.0029584304 0.17014119
000120 20 90 96 3e f5 92 28 3e c5 cb 12 be 4d f6 01 3e
       0.29406834 0.1646231 -0.14335544 0.12691613
000130 dd 25 11 3c e4 63 7c be f9 5c d0 bd e7 22 5e bd
       0.008859125 -0.2464748 -0.10173983 -0.054232504
000140 ed a0 21 be c8 19 24 3e 90 02 50 bd 7e 39 ae 3d
       -0.15784045 0.1602546 -0.050783694 0.085070595
000150 75 cb 90 bd a1 d3 c4 bc 36 05 01 3e 88 81 99 3d
       -0.07070056 -0.024026694 0.12599644 0.07495409
000160 44 cc f5 bd bf be 1f 3e 60 bf a3 3b 9e 27 7c 3d
       -0.12001851 0.15600108 0.004997179 0.06156122
000170 b1 3b bc 3e 1a 83 a3 bd 24 cb 0e 3e b2 a4 39 3e
       0.3676429 -0.0798399 0.1394468 0.18129233
000180 e1 0f 95 3d ff f8 50 3e bc 9a a0 bd 30 a0 1e 3e
       0.07278419 0.20407484 -0.07842013 0.15490794
000190 ae ea 0d be 5d 92 61 3d f0 96 d5 3b db 8e 39 3e
       -0.13859054 0.055071224 0.0065182373 0.18120901
0001a0 09 49 9f 3d 90 1b ba 3d 4f e2 4e 3d 93 56 b9 bc
       0.07777602 0.090872884 0.050508793 -0.02262429
0001b0 d1 f0 53 be 72 d9 09 be a1 ad 57 be 85 58 0f bd
       -0.20697333 -0.13461855 -0.21062328 -0.03499653
0001c0 62 af eb bd 11 ac 85 3d 2c f6 f0 bd 3f b4 82 3e
       -0.11508061 0.0652696 -0.117657036 0.25528142
0001d0 de 22 ad 3d d9 53 3a be fd 16 46 3e 6b f4 5c 3e
       0.08453916 -0.18196048 0.19344707 0.21577613
0001e0 4f 94 b7 bd 57 f7 9d 3d 24 20 2e bd 60 e3 1a 3d
       -0.089638345 0.07713192 -0.04251112 0.037814498
0001f0 de d4 15 3e 5d e0 f8 3d 02 e6 38 3e b3 07 18 3e
       0.14631984 0.12152169 0.18056491 0.14846687
000200 ff b1 03 3e 9b e4 ab bd 3c 30 6b 3e 0e 5f 49 bd
       0.12860869 -0.083932124 0.22967619 -0.049162917
000210 cb 3e 0c be 85 19 bc bd f0 9c ed 3c 1e 88 e3 bc
       -0.13695829 -0.09184555 0.029005498 -0.027774867
000220 ff 8a 45 bd 18 00 62 bd de 38 11 3d cb 0a 64 3d
       -0.04822826 -0.05517587 0.035454623 0.055674355
000230 e3 44 be bd b5 80 86 bd 6e 41 e2 bd 56 e6 99 bd
       -0.09290483 -0.06567518 -0.11047636 -0.07514636
000240 b3 04 b2 3e bc 5d 1e 3b 5b 47 5d bd 49 b2 80 3d
       0.3476921 0.0024164757 -0.054023128 0.06284005
000250 72 39 0b 3e a7 cd 70 be 32 9c 3c be 9f e3 6e 3e
       0.13596132 -0.2351595 -0.18418959 0.23329018
000260 76 5f 0c be b5 80 86 bb 8f c7 be 3d f0 9c ed bd
       -0.1370829 -0.0041046985 0.093154065 -0.11602199
000270 be bf 1e 3c 2a cc 0e 3e d4 8a 8e 3e a6 92 ae bb
       0.00968927 0.1394507 0.27840292 -0.0053275404
000280 dc 77 38 3c 2c fd 10 3e af 95 3e 3e d3 09 0a bd
       0.011259045 0.14159077 0.18611787 -0.033700775
000290 9e db 58 be 72 ca cb bb 68 26 2a 3e e3 21 96 bd
       -0.21177527 -0.0062192017 0.16616213 -0.07330682
0002a0 19 e1 82 3d 3c 15 1d be fe 49 2a 3d e1 ae 4f 3d
       0.0639059 -0.15340132 0.04157447 0.050703887
0002b0 38 36 70 be 08 93 83 be 7c da d3 be 18 6b 5e be
       -0.23458183 -0.25698113 -0.41377628 -0.2172054
0002c0 78 12 01 3e ca ec e5 3d bf 77 57 3d 99 09 c8 3e
       0.12604702 0.112268046 0.052604433 0.39069822
0002d0 d8 11 8e 3e 6c 8c 54 bd 93 cb 50 3d b6 09 29 3e
       0.2774799 -0.05189173 0.050975394 0.1650761
0002e0 6f f2 7e 3d d0 fb 49 3e 75 95 fc 3d f2 a1 86 bd
       0.06224292 0.19724965 0.12333194 -0.06573857
0002f0 22 e0 6c bd 73 d1 2b be 89 27 2f 3e 9a 75 2e 3e
       -0.057830937 -0.16779117 0.17104925 0.17037049
000300 ea 72 58 3e a5 60 07 be 45 a4 2f be 04 0f 06 3e
       0.21137586 -0.1322046 -0.17152508 0.13091666
000310 20 cf 70 3e 29 20 20 3e c1 76 f5 bc 77 a8 ba bd
       0.23516512 0.15637268 -0.029963853 -0.09114163
000320 c0 fb d7 3e ab 95 84 bd 4a 77 da 3d c0 5d 2a 3e
       0.42184258 -0.064738594 0.10667284 0.16637325
000330 4a 0a 16 3e 06 8a a3 be 63 1e 7a be a8 cf d5 3d
       0.14652362 -0.3194124 -0.24425654 0.10439998
000340 73 2b 13 3d d7 ac 3c be aa dd ae 3d 22 70 85 3e
       0.03593011 -0.18425308 0.08538373 0.26062113
000350 40 d1 84 3e 94 76 7e be 9f 73 b4 bc b6 c2 46 3e
       0.25940895 -0.24849921 -0.022027789 0.19410214
000360 4f ac d7 bd 8a 6e d6 bd bc af 99 bb 66 5d 3c 3e
       -0.10530912 -0.104703024 -0.0046901386 0.18395004
000370 d4 0c 85 bc b8 d0 1f bd 99 4a 86 3e 53 97 20 3e
       -0.016241468 -0.03901741 0.26228788 0.15682726
000380 fe 0d d7 bd a4 51 3a be 52 6e 67 be d5 97 0d 3e
       -0.10500716 -0.18195206 -0.22600678 0.1382745
000390 56 31 1c be 6f 80 1c 3e 6d 85 33 bd ff c7 95 be
       -0.15253195 0.15283369 -0.043828417 -0.29254147
0003a0 73 30 f7 3e 90 ad fd 3c cb 12 12 3d a9 ad c6 3d
       0.4827915 0.03096655 0.035662454 0.09701092
0003b0 84 65 83 3e df 95 67 be c5 13 ca be 8c fd 22 3c
       0.25663388 -0.22615765 -0.39468208 0.009948146
0003c0 cd 4e a5 3c 8d 7f 77 bd 5f ee cb 3c 30 95 54 3d
       0.020179177 -0.060424376 0.024893938 0.05190009
0003d0 44 d7 7f 3e 1b 20 8c be e1 90 d0 bb 56 80 53 3e
       0.24984461 -0.27368245 -0.006364927 0.20654425
0003e0 7d 82 55 bd ae d6 35 bc c0 9b a3 3c f4 50 a7 3d
       -0.052126396 -0.011098547 0.019971728 0.081697375
0003f0 11 39 ff 3c b4 81 79 be 31 79 ba 3e e6 d5 d9 3d
       0.031155141 -0.24365884 0.36420587 0.10636501

model.8.conv.bias f4 [32]
000000 80 44 66 ba 9e 15 b7 bc dc cf 96 be 22 9b 14 be
       -0.0008784011 -0.022349175 -0.2945546 -0.14512303
000010 d6 b6 98 3c 78 c2 1b be 4a 2f 1f be 9a b0 8a 3e
       0.01864187 -0.15210903 -0.15545383 0.2708786
000020 c7 63 21 be 43 d3 13 3e b1 0c a7 be d7 59 23 3f
       -0.15760718 0.14436059 -0.3262687 0.6380896
000030 24 4a 21 be 56 ab bb bd 5c b6 32 be ae 0e 89 3e
       -0.15750939 -0.09163539 -0.17452377 0.26769012
000040 d9 06 13 3f 0c 49 12 be 32 9c 9f 3e 29 a8 30 be
       0.57432324 -0.14285678 0.31173855 -0.17251648
000050 3e 21 d6 be f0 aa a9 be d8 4b c0 be 96 84 a2 be
       -0.41822237 -0.33138227 -0.37557864 -0.3174178
000060 d3 08 1c 3f 5c db 09 be 69 7e 19 3e 6a 28 23 be
       0.60950965 -0.13462585 0.14989628 -0.15933385
000070 5d f6 23 be 72 b8 d1 3d 3c 78 e9 3d e8 ae 8b 3c
       -0.16011949 0.10240258 0.11399886 0.017051175

model.14.conv.weight f4 [32, 32, 1, 1]
000000 6a e3 1b be 71 5d c2 3d 95 5d 8c be d5 9c cb 3e
       -0.1522347 0.09490479 -0.27415147 0.3976809
000010 ed 3e 3d be f2 f5 7f be 89 5d 1e 3f 7f 06 55 bd
       -0.18481036 -0.24996164 0.61861473 -0.05200815
000020 d1 8e 2d 3e 2e 54 90 be 99 c9 94 3d 30 b9 89 bd
       0.16949011 -0.28189224 0.07265014 -0.06724775
000030 1b 69 61 3c b1 6b 06 be 68 20 38 be a5 c9 82 3e
       0.013757969 -0.13127019 -0.17981112 0.25544468
000040 39 c7 9e 3d fc d9 a8 bd cc 1b 96 bc b0 af 31 3e
       0.077528425 -0.08244702 -0.018323801 0.17352176
000050 ed 29 87 3e 18 5b 43 bf 12 2c d7 be 45 f6 81 be
       0.26399174 -0.76310873 -0.4202581 -0.253832
000060 54 8c e4 bc 1c e1 8a 3d e5 aa d7 bd 95 5d 8c be
       -0.027898945 0.067812175 -0.105306424 -0.27415147
000070 bb 37 76 be 64 b4 2f be b6 3c 88 3e 74 c2 3b 3e
       -0.24044697 -0.17158657 0.2660882 0.18335897
000080 64 2a 2b bd 91 6b f4 3d 92 c9 c5 3d 83 98 8d 3d
       -0.041788474 0.11934579 0.09657587 0.06913855
000090 d1 63 bd bd db ee 09 be ee 65 cc 3e b1 e6 90 3e
       -0.09247554 -0.13470022 0.39921516 0.28301004
0000a0 b1 e6 90 bd e5 29 87 3d 03 3a 18 be 03 f8 4a 3a
       -0.07075251 0.065997876 -0.1486588 0.0007742645
0000b0 02 9a f9 bd e5 29 87 3d ac 51 7f bc d1 c2 d6 bd
       -0.12187578 0.065997876 -0.015583437 -0.10486377
0000c0 1b f6 1c 3c 7e b2 e4 3e 0b 68 5b bc 80 6f cf bb
       0.0095801605 0.4466743 -0.013391505 -0.0063304305
0000d0 4a 61 ec bd e9 70 59 be c1 75 1a be 89 ec 19 be
       -0.11541994 -0.21234478 -0.15083982 -0.15031637
0000e0 b7 9a 7e 3d 59 e1 ab 3c b4 10 17 3e 0f a0 63 3e
       0.062159266 0.020981478 0.14752465 0.22229026
0000f0 4f 47 95 3e ac 42 35 3e 4a 01 0b 3d af bc 0a bd
       0.29155967 0.17701215 0.033936776 -0.03387135
000100 60 49 28 3e c1 93 86 3e 51 62 9c 3e 30 9f b6 bd
       0.1643424 0.26284602 0.3054376 -0.08917081
000110 8d 07 a4 3c 28 be 72 be 20 c2 2f be f1 0d 39 bd
       0.020023132 -0.23705351 -0.17163897 -0.04517931
000120 fd b3 8b bd 57 b5 85 bd b1 a3 a2 3e e5 97 25 3e
       -0.068214394 -0.065287285 0.31765512 0.16171224
000130 ee 3e a5 3e e2 ab 2f be ba 1a e3 be 03 f4 97 bd
       0.32274574 -0.17155412 -0.44356328 -0.074195884
000140 81 61 51 3e 2e 96 de 3c cd 5e 5d 3e c7 86 71 bd
       0.20447351 0.02717122 0.21618195 -0.058966424
000150 7e 88 b8 bc bc f3 7b 3c 44 a9 ec 3d 96 46 83 bd
       -0.022526022 0.015377935 0.11555722 -0.064099476
000160 13 a1 5f be c9 ac ab 3e d2 53 2b 3e 4d 18 0b bd
       -0.21838789 0.33530262 0.16731194 -0.033958722
000170 d4 5c 83 3e 72 aa 84 be a7 e9 c5 3e 70 39 8c 3c
       0.2565676 -0.2591129 0.38654825 0.017117232
000180 0c 6c b6 3d 27 96 f9 3d 56 2b 54 bd db 6c 14 3e
       0.08907327 0.121868424 -0.05179914 0.1449465
000190 0a 0f 1b 3e be 38 6f 3d 99 45 1e 3e 6d 50 22 be
       0.15142456 0.058403723 0.15456237 -0.15850993
0001a0 88 4e 30 3e 35 e5 8d 3e 59 ac a9 3d 02 a3 a8 3d
       0.17217457 0.27713934 0.08284826 0.08234216
0001b0 6f a0 11 3f 15 23 67 be 16 61 f9 be d2 c2 0f 3e
       0.5688543 -0.22571976 -0.48706883 0.14039162
0001c0 5e 78 bd 3c 1b 3f 6a 3e 23 91 84 bd a1 d0 19 3e
       0.023128685 0.22875635 -0.06472995 0.15020992
0001d0 8f 96 e8 3c 88 41 84 3c 0c 6c b6 bc 48 77 29 be
       0.028392104 0.016144529 -0.022268318 -0.16549408
0001e0 1d 94 0a 3e 23 b0 0d be 40 0b b7 3d 6e 6f 2b 3e
       0.13533063 -0.13836722 0.08937693 0.16741726
0001f0 a6 bb b6 3d dc aa a6 3d 38 80 3b 3e bf 3d 20 3f
       0.0892251 0.081380576 0.1831063 0.6259422
000200 c5 1c dd be 84 69 a2 3e 8a 37 95 3e d7 fb 93 3e
       -0.43186012 0.31721127 0.29143935 0.28903076
000210 7e 26 51 3d ea 6e f3 3d f8 9f 09 bf 16 14 c4 3d
       0.0510621 0.118863896 -0.5375972 0.095741436
000220 51 f0 04 bf e7 c3 ff ba 1a bf b7 3d 68 0e d8 bd
       -0.51929194 -0.001951334 0.089719966 -0.10549623
000230 67 80 09 bf 02 1c 9d bd c3 7e a5 bd 62 c8 59 3e
       -0.5371155 -0.07671358 -0.080808185 0.21267846
000240 d1 33 fb bd d2 40 b7 bd 67 86 63 3e 73 1f 1c be
       -0.122657426 -0.0894791 0.22219239 -0.15246372
000250 5b 72 72 bd 7c 10 0e bf e5 25 c8 be 30 4f bc 3e
       -0.05919109 -0.55493903 -0.3909141 0.36779165
000260 f3 5f e5 be 9f 3f 25 be 7c 88 99 3e f1 c4 da be
       -0.44799766 -0.16137551 0.29986942 -0.4272838
000270 25 4b b4 3d a2 ea 18 bd 62 c8 d9 3e cd fa 38 be
       0.08803395 -0.03733314 0.42535692 -0.18064423
000280 09 da 88 bd cc 22 a1 be 62 7d 46 3d 54 0d 5a 3d
       -0.06682212 -0.3147186 0.048459418 0.053235367
000290 95 25 e2 3e 7e 5d 1f 3e af 3a b0 3d a7 7c d4 3d
       0.44169298 0.15563008 0.08604943 0.10375338
0002a0 3c bf 31 3e e8 4f 37 be 95 25 62 bd 53 fd a9 be
       0.17358106 -0.17901576 -0.055211622 -0.33201084
0002b0 bb 9e 51 3e 83 ca 0a 3e 73 01 16 bd 99 82 1d be
       0.20470707 0.13553815 -0.036622476 -0.1538185
0002c0 8b 0a 99 bc fd f7 19 bd 78 7a 7e 3e 26 91 e9 3e
       -0.018681785 -0.037590016 0.24851406 0.45618552
0002d0 48 ee 5d be a1 85 1e be 7a cb 6e bd ac d9 8f be
       -0.21672928 -0.15480663 -0.05829952 -0.28095758
0002e0 52 77 c4 3c 4e 5b c9 bb 09 17 16 3e 22 eb a3 3e
       0.023982678 -0.0061449176 0.14657225 0.3201533
0002f0 40 a6 b7 bd fe 07 ca bd ee 01 c8 3e 63 be 86 3d
       -0.089672565 -0.09864806 0.39063972 0.06579282
000300 ec 3e 9b be 0d dc 7e bd a8 03 15 be c0 64 a0 3d
       -0.30321443 -0.062221576 -0.14552176 0.078317165
000310 a6 45 17 bd e5 36 c9 3e f1 8d 23 3f 49 99 aa bd
       -0.036931656 0.39299694 0.6388846 -0.08330018
000320 9c fe 97 bd c8 dd 46 be 6a df 7c bc 18 75 5b 3e
       -0.0742161 -0.1942054 -0.015434125 0.21431386
000330 f0 cf 25 bd 25 38 56 ba ed fc 98 be 4d 25 01 3f
       -0.040481508 -0.00081718183 -0.29880467 0.5044754
000340 e2 b5 19 3c 15 46 09 3e 05 07 93 be ca 07 e5 3d
       0.009381743 0.1340564 -0.28716293 0.11183126
000350 a6 45 97 3e c6 c3 03 bf 69 6e a8 be aa 89 78 be
       0.29545325 -0.514706 -0.32896736 -0.24271265
000360 00 6b 61 3d 8c bf a1 be 56 05 14 be ca 02 b1 bb
       0.055033684 -0.3159145 -0.1445516 -0.005401944
000370 7e 4e 84 3e 0a b2 e0 3d f5 cc 50 be 6a 88 6b 3e
       0.25841135 0.10971458 -0.20390685 0.23001257
000380 95 8a d3 bd d0 00 19 3d 77 34 8f 3e 86 d6 10 be
       -0.10329167 0.03735429 0.27969715 -0.14144334
000390 3e aa ec 3b 67 40 7e bd 8d 87 ea bc 71 0b 08 be
       0.007222443 -0.062073138 -0.028629089 -0.13285615
0003a0 e8 2d 56 3e 6b e2 00 3d 08 5e 7c be a0 dd af 3d
       0.2091595 0.03146593 -0.24645245 0.085871935
0003b0 87 c3 81 ba e1 8e 3d bc 6b e2 00 bd 2a ba 93 bd
       -0.0009900191 -0.0115697095 -0.03146593 -0.07213242
0003c0 c5 24 9c bd a4 07 85 3d 64 de 49 3e 26 7d 2f 3e
       -0.07624201 0.06495598 0.19713742 0.17137584
0003d0 f5 6c d5 3c e7 a5 83 bd ec e1 99 bd 65 54 db 3d
       0.026052931 -0.06428128 -0.07513794 0.10709456
0003e0 be 97 c4 bd 0b 9b e0 3d 09 26 1d be ca d7 91 3d
       -0.09599255 0.10967072 -0.1534654 0.071212366
0003f0 8a 37 f7 3d 00 ad 22 3e a5 a2 66 3e 8c 11 59 3e
       0.1207114 0.15886307 0.22522981 0.211981

model.14.conv.bias f4 [32]
000000 7a 98 af 3f b2 46 23 3e 96 b1 7b be bf 29 01 bf
       1.3718407 0.15944937 -0.24579462 -0.50454324
000010 4c 4a 9e 3f cc 4c 81 be bd 08 7b 3f a8 53 2e bd
       1.2366424 -0.25253904 0.9806021 -0.04256025
000020 6d 52 76 3f 36 50 ea 3e c2 2d 9c 3d 40 56 1f 3f
       0.9621952 0.4576432 0.07625915 0.6224098
000030 5c bd 27 3e 7a 3a b8 3e 08 22 07 3f aa 98 c6 3e
       0.16380829 0.35982114 0.527863 0.38788348
000040 73 fb 11 3f 38 e4 4b be cb 2c 22 be 6e d2 cc 3e
       0.57024306 -0.19911277 -0.158374 0.40004295
000050 fc ce 40 3e 96 0f 27 3e da 56 44 bf 52 eb 38 3f
       0.18828958 0.1631454 -0.76695025 0.7223407
000060 37 03 c9 3e ec c7 85 3e 3a 9b 2a 3f 7a c1 67 3f
       0.39260265 0.2612909 0.66643107 0.90529597
000070 08 05 d4 bd 1c 49 04 3f 10 dd 93 3e 5d 70 c4 3f
       -0.10352522 0.51674056 0.28879595 1.534679
