Neural_network/tinyengine/assets/tflite/mbvnet-w0.35.tflite (tflite, 968600 bytes, 53 tensors)

tfl.pseudo_qconst1 i1 [1000, 448]
0	0x1c	28
1	0xf1	-15
2	0x04	4
3	0x07	7
4	0xec	-20
5	0xf9	-7
6	0x03	3
7	0xc9	-55
8	0xc7	-57
9	0x85	-123
10	0xf1	-15
11	0xe1	-31
12	0xcb	-53
13	0x4b	75
14	0x12	18
15	0x04	4
16	0x5a	90
17	0x06	6
18	0xeb	-21
19	0x1a	26
20	0x3d	61
21	0xff	-1
22	0xd1	-47
23	0xfd	-3
24	0xd6	-42
25	0xca	-54
26	0xd2	-46
27	0xf3	-13
28	0x01	1
29	0xf3	-13
30	0xd6	-42
31	0x9c	-100
32	0xd1	-47
33	0xe0	-32
34	0xe9	-23
35	0x13	19
36	0xb3	-77
37	0xbe	-66
38	0x0f	15
39	0xce	-50
40	0xc7	-57
41	0xdb	-37
42	0xcf	-49
43	0x22	34
44	0x26	38
45	0xdc	-36
46	0xf7	-9
47	0x35	53
48	0x25	37
49	0x13	19
50	0x21	33
51	0xf4	-12
52	0x10	16
53	0x43	67
54	0x36	54
55	0xec	-20
56	0x45	69
57	0xb7	-73
58	0xe4	-28
59	0x3a	58
60	0x9f	-97
61	0x3c	60
62	0xc4	-60
63	0x18	24
64	0xf6	-10
65	0xdc	-36
66	0x13	19
67	0x10	16
68	0x66	102
69	0x3a	58
70	0xdc	-36
71	0xd6	-42
72	0x08	8
73	0x05	5
74	0xd0	-48
75	0x15	21
76	0xdb	-37
77	0x3c	60
78	0x5f	95
79	0xe2	-30
80	0x02	2
81	0xf6	-10
82	0x0e	14
83	0x47	71
84	0xf8	-8
85	0x10	16
86	0x1e	30
87	0x56	86
88	0x24	36
89	0x03	3
90	0x14	20
91	0x22	34
92	0x07	7
93	0x5e	94
94	0x60	96
95	0xd7	-41
96	0xfd	-3
97	0xe1	-31
98	0x2e	46
99	0x03	3
100	0xbb	-69
101	0xde	-34
102	0x9e	-98
103	0x49	73
104	0xef	-17
105	0xf8	-8
106	0xfb	-5
107	0x19	25
108	0xac	-84
109	0xcd	-51
110	0xdd	-35
111	0xde	-34
112	0x0a	10
113	0xbe	-66
114	0x18	24
115	0xc2	-62
116	0xf8	-8
117	0xf3	-13
118	0x43	67
119	0x1c	28
120	0x1c	28
121	0xce	-50
122	0xfe	-2
123	0x00	0
124	0xb3	-77
125	0xf6	-10
126	0xe0	-32
127	0x11	17
128	0xe0	-32
129	0xbf	-65
130	0xf2	-14
131	0xf0	-16
132	0xfa	-6
133	0x36	54
134	0x2d	45
135	0xd9	-39
136	0x20	32
137	0xf6	-10
138	0x39	57
139	0x48	72
140	0x13	19
141	0x18	24
142	0xdf	-33
143	0x51	81
144	0xc7	-57
145	0xff	-1
146	0x2c	44
147	0x1c	28
148	0xdc	-36
149	0x49	73
150	0xe7	-25
151	0x25	37
152	0x26	38
153	0x1b	27
154	0xfc	-4
155	0x4f	79
156	0x40	64
157	0xd0	-48
158	0x1d	29
159	0x02	2
160	0xca	-54
161	0xf9	-7
162	0x23	35
163	0xe7	-25
164	0xf4	-12
165	0xd5	-43
166	0xbe	-66
167	0xb7	-73
168	0xe4	-28
169	0xf1	-15
170	0x49	73
171	0x08	8
172	0xd6	-42
173	0x1d	29
174	0xcb	-53
175	0xeb	-21
176	0xe4	-28
177	0xc5	-59
178	0x22	34
179	0xe9	-23
180	0x01	1
181	0xdc	-36
182	0xf8	-8
183	0xe5	-27
184	0xf1	-15
185	0xd2	-46
186	0x22	34
187	0x35	53
188	0xe4	-28
189	0xd5	-43
190	0xde	-34
191	0x33	51
192	0x21	33
193	0x1c	28
194	0x17	23
195	0xf2	-14
196	0xfe	-2
197	0x4b	75
198	0x09	9
199	0xf2	-14
200	0xd6	-42
201	0x00	0
202	0x0f	15
203	0x3d	61
204	0x28	40
205	0xda	-38
206	0x23	35
207	0xcf	-49
208	0x0a	10
209	0x16	22
210	0x57	87
211	0xf1	-15
212	0x2a	42
213	0x4b	75
214	0x46	70
215	0x34	52
216	0x1f	31
217	0xed	-19
218	0x28	40
219	0xf7	-9
220	0x2d	45
221	0x2f	47
222	0xe9	-23
223	0x41	65
224	0xdf	-33
225	0xf1	-15
226	0xe3	-29
227	0x07	7
228	0xff	-1
229	0xe8	-24
230	0xe9	-23
231	0xf0	-16
232	0xd0	-48
233	0xf3	-13
234	0x95	-107
235	0x0d	13
236	0x46	70
237	0xb2	-78
238	0xf6	-10
239	0x27	39
240	0x4e	78
241	0x5a	90
242	0xdf	-33
243	0xc8	-56
244	0xe9	-23
245	0x22	34
246	0x10	16
247	0x81	-127
248	0x19	25
249	0xcd	-51
250	0xb0	-80
251	0xbc	-68
252	0x01	1
253	0x0f	15
254	0x49	73
255	0x28	40

tfl.pseudo_qconst3 i1 [448, 1, 1, 112]
0	0xa9	-87
1	0x41	65
2	0xff	-1
3	0x05	5
4	0xde	-34
5	0x0a	10
6	0x04	4
7	0xde	-34
8	0xe8	-24
9	0xe0	-32
10	0xc6	-58
11	0x45	69
12	0x46	70
13	0x44	68
14	0xd1	-47
15	0xf1	-15
16	0xc1	-63
17	0x24	36
18	0xdd	-35
19	0xc4	-60
20	0xeb	-21
21	0x57	87
22	0xe8	-24
23	0xed	-19
24	0x9f	-97
25	0xf1	-15
26	0x5f	95
27	0x24	36
28	0x18	24
29	0x1a	26
30	0x38	56
31	0x33	51
32	0xe5	-27
33	0x01	1
34	0xef	-17
35	0x11	17
36	0x7c	124
37	0x33	51
38	0xfa	-6
39	0xe9	-23
40	0xdf	-33
41	0x11	17
42	0x47	71
43	0xda	-38
44	0x94	-108
45	0xf5	-11
46	0x0d	13
47	0x23	35
48	0xd0	-48
49	0x1a	26
50	0x18	24
51	0x58	88
52	0x1c	28
53	0x8a	-118
54	0x35	53
55	0x00	0
56	0x58	88
57	0x25	37
58	0x21	33
59	0xeb	-21
60	0x0c	12
61	0xa3	-93
62	0x1d	29
63	0xd3	-45
64	0xe4	-28
65	0x39	57
66	0x38	56
67	0xcb	-53
68	0x23	35
69	0xb8	-72
70	0xee	-18
71	0xb6	-74
72	0xe8	-24
73	0xf5	-11
74	0x40	64
75	0xd1	-47
76	0xfe	-2
77	0xf2	-14
78	0xf0	-16
79	0xce	-50
80	0xec	-20
81	0x15	21
82	0xdb	-37
83	0x36	54
84	0xdb	-37
85	0xab	-85
86	0x69	105
87	0x7f	127
88	0x27	39
89	0xff	-1
90	0x10	16
91	0x3a	58
92	0x28	40
93	0xf4	-12
94	0xc4	-60
95	0x07	7
96	0x27	39
97	0x24	36
98	0x73	115
99	0x6b	107
100	0xea	-22
101	0xbf	-65
102	0x17	23
103	0xef	-17
104	0x3f	63
105	0xed	-19
106	0xcd	-51
107	0xfa	-6
108	0xc5	-59
109	0xac	-84
110	0x43	67
111	0xf3	-13
112	0xdb	-37
113	0xef	-17
114	0x29	41
115	0x54	84
116	0x11	17
117	0xe5	-27
118	0xf0	-16
119	0x30	48
120	0xfb	-5
121	0xd9	-39
122	0xe1	-31
123	0x06	6
124	0x01	1
125	0xe6	-26
126	0x09	9
127	0xd7	-41
128	0xfd	-3
129	0x44	68
130	0x03	3
131	0x01	1
132	0xef	-17
133	0x1f	31
134	0x72	114
135	0x23	35
136	0x0b	11
137	0xec	-20
138	0xd0	-48
139	0xf3	-13
140	0x29	41
141	0x4c	76
142	0x19	25
143	0xd8	-40
144	0x1e	30
145	0x26	38
146	0xda	-38
147	0xaa	-86
148	0x32	50
149	0x1b	27
150	0xe2	-30
151	0x9b	-101
152	0x00	0
153	0xbb	-69
154	0xb9	-71
155	0xfc	-4
156	0xad	-83
157	0x02	2
158	0xe6	-26
159	0x1c	28
160	0x2a	42
161	0xc5	-59
162	0x43	67
163	0x01	1
164	0xf8	-8
165	0x1f	31
166	0x12	18
167	0x26	38
168	0xd0	-48
169	0xe2	-30
170	0x64	100
171	0x19	25
172	0x17	23
173	0x1b	27
174	0x07	7
175	0x1c	28
176	0xc8	-56
177	0x0e	14
178	0x2b	43
179	0xb9	-71
180	0x23	35
181	0xcd	-51
182	0xf6	-10
183	0xd4	-44
184	0x04	4
185	0xe3	-29
186	0xc2	-62
187	0xec	-20
188	0x48	72
189	0xeb	-21
190	0xd9	-39
191	0xe9	-23
192	0x05	5
193	0xa6	-90
194	0xdc	-36
195	0xee	-18
196	0x02	2
197	0x20	32
198	0xff	-1
199	0xf5	-11
200	0xe7	-25
201	0x81	-127
202	0xe4	-28
203	0xfd	-3
204	0xde	-34
205	0xd6	-42
206	0x0a	10
207	0x12	18
208	0xe4	-28
209	0x0b	11
210	0x0c	12
211	0x0a	10
212	0x19	25
213	0x0c	12
214	0xf6	-10
215	0x15	21
216	0xf2	-14
217	0xf4	-12
218	0xc9	-55
219	0xdc	-36
220	0x16	22
221	0x1e	30
222	0xe2	-30
223	0x33	51
224	0xea	-22
225	0x37	55
226	0x06	6
227	0xde	-34
228	0xd6	-42
229	0x3d	61
230	0xd0	-48
231	0xd8	-40
232	0x68	104
233	0x00	0
234	0xad	-83
235	0x1a	26
236	0x01	1
237	0xf5	-11
238	0xf7	-9
239	0x11	17
240	0xd0	-48
241	0xf2	-14
242	0x21	33
243	0x16	22
244	0x14	20
245	0x04	4
246	0x02	2
247	0xf6	-10
248	0xe3	-29
249	0xca	-54
250	0x10	16
251	0xe7	-25
252	0xf3	-13
253	0x23	35
254	0x5b	91
255	0x40	64

tfl.pseudo_qconst5 i1 [112, 1, 1, 336]
0	0xf6	-10
1	0xe8	-24
2	0xef	-17
3	0x11	17
4	0x1d	29
5	0x0c	12
6	0x0e	14
7	0x40	64
8	0xec	-20
9	0x2d	45
10	0xf8	-8
11	0xfd	-3
12	0x39	57
13	0x0c	12
14	0x01	1
15	0xcf	-49
16	0xfe	-2
17	0x31	49
18	0x2b	43
19	0xcd	-51
20	0xfc	-4
21	0xe1	-31
22	0xff	-1
23	0x16	22
24	0xd2	-46
25	0xeb	-21
26	0xee	-18
27	0x1d	29
28	0x0c	12
29	0xee	-18
30	0xd9	-39
31	0x2a	42
32	0xf6	-10
33	0xf1	-15
34	0xed	-19
35	0xe3	-29
36	0x20	32
37	0x1b	27
38	0xd4	-44
39	0xf8	-8
40	0x0a	10
41	0x40	64
42	0x3d	61
43	0xd3	-45
44	0xec	-20
45	0x09	9
46	0xd7	-41
47	0x11	17
48	0xfe	-2
49	0xe6	-26
50	0x17	23
51	0x29	41
52	0xf9	-7
53	0x16	22
54	0xff	-1
55	0x08	8
56	0x24	36
57	0xcb	-53
58	0xb7	-73
59	0x0e	14
60	0x11	17
61	0xf8	-8
62	0xf3	-13
63	0x4b	75
64	0x00	0
65	0x20	32
66	0x18	24
67	0x06	6
68	0xe4	-28
69	0xd5	-43
70	0x01	1
71	0xec	-20
72	0xc7	-57
73	0xe7	-25
74	0xdd	-35
75	0x23	35
76	0x15	21
77	0x10	16
78	0xf7	-9
79	0x2a	42
80	0x3c	60
81	0xed	-19
82	0x06	6
83	0x2e	46
84	0x1f	31
85	0xff	-1
86	0xff	-1
87	0x09	9
88	0xfc	-4
89	0x13	19
90	0x27	39
91	0x3d	61
92	0xea	-22
93	0x17	23
94	0x0b	11
95	0xd1	-47
96	0x0a	10
97	0x18	24
98	0x20	32
99	0xe9	-23
100	0xea	-22
101	0x58	88
102	0x15	21
103	0xb2	-78
104	0xf8	-8
105	0x09	9
106	0xf1	-15
107	0x06	6
108	0x2c	44
109	0x37	55
110	0x29	41
111	0xe5	-27
112	0xf1	-15
113	0xf4	-12
114	0x2d	45
115	0x0a	10
116	0xfc	-4
117	0xe6	-26
118	0xf4	-12
119	0xe1	-31
120	0xc2	-62
121	0x02	2
122	0xe1	-31
123	0x35	53
124	0xf9	-7
125	0x11	17
126	0xec	-20
127	0x1b	27
128	0x2e	46
129	0x7f	127
130	0xf0	-16
131	0xeb	-21
132	0x12	18
133	0x1e	30
134	0x13	19
135	0x0c	12
136	0xb3	-77
137	0xf9	-7
138	0xd7	-41
139	0xea	-22
140	0xd8	-40
141	0xfe	-2
142	0x24	36
143	0xc7	-57
144	0xee	-18
145	0xdb	-37
146	0xf8	-8
147	0x05	5
148	0x15	21
149	0xf6	-10
150	0x09	9
151	0xf7	-9
152	0x08	8
153	0xfa	-6
154	0xf7	-9
155	0x10	16
156	0x08	8
157	0xd6	-42
158	0xdd	-35
159	0xf9	-7
160	0x26	38
161	0x24	36
162	0xed	-19
163	0x1c	28
164	0xf5	-11
165	0xed	-19
166	0xd8	-40
167	0x30	48
168	0xd6	-42
169	0xff	-1
170	0xc7	-57
171	0xcc	-52
172	0x11	17
173	0xda	-38
174	0x14	20
175	0xb9	-71
176	0xd9	-39
177	0xd9	-39
178	0xd3	-45
179	0x12	18
180	0xfd	-3
181	0xf6	-10
182	0x05	5
183	0xdb	-37
184	0x05	5
185	0xf9	-7
186	0x13	19
187	0xe8	-24
188	0xe8	-24
189	0xd8	-40
190	0x2a	42
191	0xdf	-33
192	0x42	66
193	0x2e	46
194	0x3a	58
195	0x0e	14
196	0x1b	27
197	0x0b	11
198	0x16	22
199	0x15	21
200	0x1a	26
201	0xfd	-3
202	0xf4	-12
203	0xd3	-45
204	0x0b	11
205	0xdc	-36
206	0x39	57
207	0x0b	11
208	0xde	-34
209	0xdf	-33
210	0xe2	-30
211	0xf6	-10
212	0x3a	58
213	0x06	6
214	0x02	2
215	0x1d	29
216	0xfd	-3
217	0xe6	-26
218	0x17	23
219	0x16	22
220	0x37	55
221	0x02	2
222	0x04	4
223	0xe9	-23
224	0x06	6
225	0x05	5
226	0x1b	27
227	0x28	40
228	0xc1	-63
229	0xfc	-4
230	0xe0	-32
231	0x1d	29
232	0x10	16
233	0x2a	42
234	0xd3	-45
235	0x22	34
236	0x0c	12
237	0xe0	-32
238	0xf6	-10
239	0x26	38
240	0xff	-1
241	0x09	9
242	0xd9	-39
243	0x09	9
244	0x0c	12
245	0xf1	-15
246	0x30	48
247	0x1f	31
248	0xea	-22
249	0xee	-18
250	0x1f	31
251	0xfb	-5
252	0x1f	31
253	0x05	5
254	0x13	19
255	0xf4	-12

tfl.pseudo_qconst7 i1 [1, 3, 3, 336]
0	0x7f	127
1	0x7e	126
2	0x83	-125
3	0x7f	127
4	0x57	87
5	0x7a	122
6	0x7b	123
7	0x6f	111
8	0x7b	123
9	0x86	-122
10	0x65	101
11	0x7f	127
12	0x90	-112
13	0x7f	127
14	0x5f	95
15	0x7f	127
16	0x7f	127
17	0x81	-127
18	0x7e	126
19	0x81	-127
20	0x7a	122
21	0x85	-123
22	0x87	-121
23	0x72	114
24	0x7f	127
25	0x7f	127
26	0x7f	127
27	0x76	118
28	0x98	-104
29	0x7f	127
30	0x7c	124
31	0x78	120
32	0x6f	111
33	0x67	103
34	0xa2	-94
35	0xa8	-88
36	0x7e	126
37	0x7f	127
38	0x6c	108
39	0x89	-119
40	0x62	98
41	0x5a	90
42	0x7b	123
43	0x7c	124
44	0x7b	123
45	0x8b	-117
46	0x71	113
47	0x8c	-116
48	0x79	121
49	0x75	117
50	0x7d	125
51	0x8a	-118
52	0x8c	-116
53	0x81	-127
54	0x7f	127
55	0x5d	93
56	0x8b	-117
57	0x77	119
58	0x85	-123
59	0x65	101
60	0x3d	61
61	0x76	118
62	0x79	121
63	0x7e	126
64	0x77	119
65	0x77	119
66	0xa4	-92
67	0x7b	123
68	0x95	-107
69	0x7a	122
70	0x71	113
71	0x53	83
72	0x77	119
73	0x6b	107
74	0x7f	127
75	0x8e	-114
76	0x7f	127
77	0x7f	127
78	0xa2	-94
79	0x6f	111
80	0x7e	126
81	0x74	116
82	0xa4	-92
83	0x6b	107
84	0x7d	125
85	0x5e	94
86	0x70	112
87	0x76	118
88	0x7f	127
89	0x7f	127
90	0x6c	108
91	0x7b	123
92	0x84	-124
93	0x72	114
94	0xa9	-87
95	0x7c	124
96	0x7a	122
97	0x81	-127
98	0x7e	126
99	0x77	119
100	0x7f	127
101	0x8a	-118
102	0x8f	-113
103	0x7f	127
104	0x74	116
105	0x70	112
106	0x6a	106
107	0x7c	124
108	0x7f	127
109	0x84	-124
110	0x7f	127
111	0x70	112
112	0x6e	110
113	0x7d	125
114	0x74	116
115	0x7d	125
116	0x74	116
117	0x72	114
118	0x7e	126
119	0x7f	127
120	0x85	-123
121	0x78	120
122	0x65	101
123	0x76	118
124	0x7f	127
125	0x7d	125
126	0x74	116
127	0x81	-127
128	0x7d	125
129	0x78	120
130	0x7b	123
131	0x7e	126
132	0x78	120
133	0x7c	124
134	0x85	-123
135	0x7e	126
136	0x7f	127
137	0x7a	122
138	0x7c	124
139	0x7b	123
140	0x70	112
141	0x70	112
142	0x7d	125
143	0x6a	106
144	0x6c	108
145	0x81	-127
146	0x68	104
147	0x51	81
148	0x68	104
149	0x7f	127
150	0x7f	127
151	0xa0	-96
152	0x7f	127
153	0x7c	124
154	0x7c	124
155	0x7f	127
156	0x7f	127
157	0x7e	126
158	0x7e	126
159	0x7f	127
160	0x45	69
161	0x8f	-113
162	0x73	115
163	0x7c	124
164	0x7f	127
165	0x5d	93
166	0x81	-127
167	0x7c	124
168	0x7c	124
169	0x7b	123
170	0x78	120
171	0x81	-127
172	0x7c	124
173	0x8c	-116
174	0x71	113
175	0x7f	127
176	0x54	84
177	0x7b	123
178	0x7d	125
179	0x7f	127
180	0x60	96
181	0x66	102
182	0x81	-127
183	0x5a	90
184	0x7d	125
185	0x7f	127
186	0x85	-123
187	0x7d	125
188	0x8a	-118
189	0x79	121
190	0x7a	122
191	0x51	81
192	0x73	115
193	0x79	121
194	0x7f	127
195	0x7e	126
196	0x7f	127
197	0x78	120
198	0x68	104
199	0x91	-111
200	0x7f	127
201	0x7f	127
202	0x7d	125
203	0x72	114
204	0x78	120
205	0x79	121
206	0x7c	124
207	0x6d	109
208	0x7e	126
209	0x7a	122
210	0x8f	-113
211	0x79	121
212	0x7f	127
213	0x51	81
214	0x77	119
215	0x7f	127
216	0x81	-127
217	0x7f	127
218	0x7c	124
219	0x9a	-102
220	0x7f	127
221	0x7f	127
222	0x7d	125
223	0x6d	109
224	0x7d	125
225	0x7f	127
226	0x7e	126
227	0x7d	125
228	0x4c	76
229	0x6c	108
230	0x7f	127
231	0x6d	109
232	0x7c	124
233	0x8a	-118
234	0x59	89
235	0x83	-125
236	0x84	-124
237	0x8d	-115
238	0x7f	127
239	0x90	-112
240	0x7f	127
241	0x7e	126
242	0x73	115
243	0x71	113
244	0x7d	125
245	0x73	115
246	0x8e	-114
247	0x6d	109
248	0x81	-127
249	0x47	71
250	0x7d	125
251	0x78	120
252	0x7a	122
253	0x7c	124
254	0x7c	124
255	0x7a	122

tfl.pseudo_qconst9 i1 [336, 1, 1, 56]
0	0x31	49
1	0xc5	-59
2	0xd8	-40
3	0xb1	-79
4	0x1e	30
5	0xe5	-27
6	0xd8	-40
7	0xc9	-55
8	0xf5	-11
9	0x0a	10
10	0x45	69
11	0xa3	-93
12	0x3b	59
13	0x2b	43
14	0x27	39
15	0x67	103
16	0xf7	-9
17	0xfd	-3
18	0x2d	45
19	0x00	0
20	0x41	65
21	0x12	18
22	0x4a	74
23	0xfc	-4
24	0xfb	-5
25	0xc9	-55
26	0xe5	-27
27	0x24	36
28	0x33	51
29	0xd2	-46
30	0xd2	-46
31	0xfb	-5
32	0x73	115
33	0xde	-34
34	0x40	64
35	0xbf	-65
36	0x99	-103
37	0xdd	-35
38	0x30	48
39	0x06	6
40	0x81	-127
41	0x76	118
42	0xd3	-45
43	0xee	-18
44	0x40	64
45	0x04	4
46	0x48	72
47	0x2c	44
48	0xe6	-26
49	0x41	65
50	0xf7	-9
51	0xfb	-5
52	0xef	-17
53	0xe5	-27
54	0x44	68
55	0x41	65
56	0x1b	27
57	0xf9	-7
58	0xb7	-73
59	0x1c	28
60	0x61	97
61	0x17	23
62	0xc8	-56
63	0xa5	-91
64	0xf3	-13
65	0xda	-38
66	0x28	40
67	0xca	-54
68	0x06	6
69	0xef	-17
70	0x13	19
71	0xf0	-16
72	0x0a	10
73	0xc5	-59
74	0x20	32
75	0x5e	94
76	0x01	1
77	0x27	39
78	0x9e	-98
79	0x3a	58
80	0xaa	-86
81	0xd0	-48
82	0x00	0
83	0x47	71
84	0xfa	-6
85	0x3e	62
86	0xd1	-47
87	0x41	65
88	0xdb	-37
89	0x14	20
90	0x1d	29
91	0x4c	76
92	0x4d	77
93	0xfc	-4
94	0x7f	127
95	0x00	0
96	0xc1	-63
97	0xd2	-46
98	0xce	-50
99	0xfd	-3
100	0xcd	-51
101	0xd3	-45
102	0xfd	-3
103	0xb1	-79
104	0xb6	-74
105	0xbf	-65
106	0xfa	-6
107	0x9b	-101
108	0x28	40
109	0x0a	10
110	0xd0	-48
111	0xea	-22
112	0xb1	-79
113	0x23	35
114	0xef	-17
115	0x06	6
116	0xee	-18
117	0xd5	-43
118	0x10	16
119	0xfb	-5
120	0x33	51
121	0x4f	79
122	0xfd	-3
123	0x34	52
124	0xf2	-14
125	0x03	3
126	0xee	-18
127	0x32	50
128	0xec	-20
129	0xd3	-45
130	0x11	17
131	0x09	9
132	0xea	-22
133	0xef	-17
134	0xe1	-31
135	0x09	9
136	0xe4	-28
137	0xec	-20
138	0xe8	-24
139	0xe1	-31
140	0x41	65
141	0xf7	-9
142	0xf4	-12
143	0x16	22
144	0x7f	127
145	0x17	23
146	0xcd	-51
147	0xeb	-21
148	0xd8	-40
149	0x0c	12
150	0x16	22
151	0xf5	-11
152	0x04	4
153	0xbf	-65
154	0x06	6
155	0x17	23
156	0x28	40
157	0xf3	-13
158	0x06	6
159	0x28	40
160	0x06	6
161	0x11	17
162	0xf6	-10
163	0xd6	-42
164	0x0a	10
165	0xcc	-52
166	0xc7	-57
167	0x17	23
168	0x4a	74
169	0x11	17
170	0xc9	-55
171	0x2d	45
172	0x00	0
173	0x1a	26
174	0xf2	-14
175	0x2f	47
176	0x33	51
177	0xeb	-21
178	0xf9	-7
179	0x17	23
180	0xf4	-12
181	0x23	35
182	0xf4	-12
183	0x1c	28
184	0xd9	-39
185	0xfb	-5
186	0xec	-20
187	0x15	21
188	0xb6	-74
189	0x36	54
190	0xbc	-68
191	0x6e	110
192	0xdc	-36
193	0x44	68
194	0x0a	10
195	0xd3	-45
196	0x48	72
197	0x24	36
198	0x02	2
199	0x34	52
200	0x73	115
201	0x10	16
202	0x1e	30
203	0xfd	-3
204	0xe0	-32
205	0x2a	42
206	0x46	70
207	0xfa	-6
208	0x81	-127
209	0x1b	27
210	0xf8	-8
211	0xd2	-46
212	0x16	22
213	0x27	39
214	0xce	-50
215	0xdd	-35
216	0x0b	11
217	0xde	-34
218	0x28	40
219	0xd8	-40
220	0x10	16
221	0xf6	-10
222	0xdd	-35
223	0x08	8
224	0x2c	44
225	0xe5	-27
226	0xf8	-8
227	0xb5	-75
228	0xd6	-42
229	0x06	6
230	0x58	88
231	0x8b	-117
232	0xda	-38
233	0xe0	-32
234	0xc6	-58
235	0x3e	62
236	0x0e	14
237	0x1e	30
238	0x95	-107
239	0xf2	-14
240	0xc3	-61
241	0xfe	-2
242	0xe2	-30
243	0x2b	43
244	0xca	-54
245	0x7f	127
246	0xf9	-7
247	0xff	-1
248	0xf8	-8
249	0x4c	76
250	0xd4	-44
251	0x7a	122
252	0xc2	-62
253	0xdf	-33
254	0xca	-54
255	0x61	97

tfl.pseudo_qconst11 i1 [56, 1, 1, 336]
0	0xd2	-46
1	0x0d	13
2	0x39	57
3	0x2a	42
4	0x04	4
5	0x14	20
6	0xcf	-49
7	0xdf	-33
8	0x0d	13
9	0x02	2
10	0x12	18
11	0xc3	-61
12	0xea	-22
13	0xee	-18
14	0x31	49
15	0x44	68
16	0xd1	-47
17	0x20	32
18	0xd7	-41
19	0x04	4
20	0xbf	-65
21	0xdc	-36
22	0xb4	-76
23	0x1f	31
24	0xe3	-29
25	0xf8	-8
26	0xf0	-16
27	0xc2	-62
28	0x0c	12
29	0xf0	-16
30	0x20	32
31	0x0b	11
32	0xb1	-79
33	0xe5	-27
34	0x06	6
35	0xfe	-2
36	0xfd	-3
37	0xfe	-2
38	0xca	-54
39	0x06	6
40	0xf1	-15
41	0xf7	-9
42	0xee	-18
43	0x1c	28
44	0xd8	-40
45	0x18	24
46	0x36	54
47	0xcc	-52
48	0xd3	-45
49	0x1c	28
50	0xb2	-78
51	0xf7	-9
52	0xf5	-11
53	0xf5	-11
54	0xeb	-21
55	0xed	-19
56	0x01	1
57	0x1b	27
58	0x0a	10
59	0xcc	-52
60	0x0e	14
61	0x33	51
62	0xb9	-71
63	0x37	55
64	0x0c	12
65	0xd3	-45
66	0xe7	-25
67	0x32	50
68	0xf9	-7
69	0x41	65
70	0x0a	10
71	0x07	7
72	0xd9	-39
73	0xe1	-31
74	0xf4	-12
75	0xe7	-25
76	0xfe	-2
77	0xd9	-39
78	0xf6	-10
79	0xfc	-4
80	0xbf	-65
81	0x01	1
82	0xc6	-58
83	0x31	49
84	0x27	39
85	0xf6	-10
86	0x12	18
87	0xac	-84
88	0xe6	-26
89	0xe7	-25
90	0x48	72
91	0xfc	-4
92	0x01	1
93	0xf7	-9
94	0xe4	-28
95	0x3a	58
96	0x38	56
97	0xcf	-49
98	0xec	-20
99	0x3c	60
100	0xcf	-49
101	0xdf	-33
102	0x1c	28
103	0x27	39
104	0xf6	-10
105	0xaa	-86
106	0x2f	47
107	0xeb	-21
108	0x1b	27
109	0x0f	15
110	0x41	65
111	0x9d	-99
112	0xc1	-63
113	0xee	-18
114	0xfc	-4
115	0xca	-54
116	0xf4	-12
117	0xef	-17
118	0xda	-38
119	0xe9	-23
120	0xd8	-40
121	0x0f	15
122	0xfe	-2
123	0x2c	44
124	0xb9	-71
125	0xaa	-86
126	0x5d	93
127	0x30	48
128	0x0e	14
129	0xec	-20
130	0xdd	-35
131	0xd6	-42
132	0xbd	-67
133	0x1f	31
134	0x1d	29
135	0x0c	12
136	0xe2	-30
137	0xfe	-2
138	0x0c	12
139	0x24	36
140	0xe1	-31
141	0xf0	-16
142	0x06	6
143	0x24	36
144	0xc4	-60
145	0xf1	-15
146	0xcd	-51
147	0x12	18
148	0x20	32
149	0xe4	-28
150	0xdc	-36
151	0xac	-84
152	0xff	-1
153	0x03	3
154	0xd6	-42
155	0xf3	-13
156	0xe8	-24
157	0x14	20
158	0x05	5
159	0xf8	-8
160	0x1a	26
161	0xcf	-49
162	0x27	39
163	0x00	0
164	0xf5	-11
165	0xe1	-31
166	0x3b	59
167	0x00	0
168	0xf7	-9
169	0xce	-50
170	0x14	20
171	0x00	0
172	0xfe	-2
173	0xe5	-27
174	0xbc	-68
175	0xc9	-55
176	0x37	55
177	0xf6	-10
178	0xf8	-8
179	0xe8	-24
180	0xd3	-45
181	0xf9	-7
182	0x25	37
183	0x28	40
184	0xec	-20
185	0x0b	11
186	0xd0	-48
187	0xd3	-45
188	0x0e	14
189	0x0c	12
190	0xbb	-69
191	0x59	89
192	0x16	22
193	0x26	38
194	0x1b	27
195	0xe7	-25
196	0xf3	-13
197	0xb5	-75
198	0xe4	-28
199	0xfa	-6
200	0x24	36
201	0x23	35
202	0xdf	-33
203	0x42	66
204	0xf9	-7
205	0xde	-34
206	0x14	20
207	0x21	33
208	0x1a	26
209	0xd1	-47
210	0xb0	-80
211	0x04	4
212	0x36	54
213	0x14	20
214	0x14	20
215	0x5b	91
216	0x18	24
217	0xfe	-2
218	0x1a	26
219	0xd1	-47
220	0xe0	-32
221	0xeb	-21
222	0x1a	26
223	0x1d	29
224	0x24	36
225	0x17	23
226	0x19	25
227	0xf4	-12
228	0xef	-17
229	0xd4	-44
230	0x95	-107
231	0xe0	-32
232	0x18	24
233	0xf4	-12
234	0xff	-1
235	0xb8	-72
236	0xf2	-14
237	0xbd	-67
238	0xf6	-10
239	0xe1	-31
240	0xfb	-5
241	0x08	8
242	0x19	25
243	0x29	41
244	0xea	-22
245	0x07	7
246	0xf3	-13
247	0xe0	-32
248	0x0f	15
249	0xd8	-40
250	0xc8	-56
251	0xfe	-2
252	0x26	38
253	0x81	-127
254	0xea	-22
255	0xd8	-40

tfl.pseudo_qconst13 i1 [1, 3, 3, 336]
0	0x0a	10
1	0x85	-123
2	0xc7	-57
3	0x46	70
4	0xe4	-28
5	0x18	24
6	0x41	65
7	0x01	1
8	0x1a	26
9	0xcf	-49
10	0x02	2
11	0x2e	46
12	0xfe	-2
13	0x12	18
14	0xb5	-75
15	0x06	6
16	0x0d	13
17	0x01	1
18	0xf8	-8
19	0x7f	127
20	0x06	6
21	0xd5	-43
22	0xe2	-30
23	0x0d	13
24	0xf1	-15
25	0xff	-1
26	0x0e	14
27	0x64	100
28	0x57	87
29	0x14	20
30	0xe2	-30
31	0x03	3
32	0x06	6
33	0x15	21
34	0xd4	-44
35	0xa7	-89
36	0x07	7
37	0x57	87
38	0xf9	-7
39	0x8c	-116
40	0x14	20
41	0xec	-20
42	0x1c	28
43	0x19	25
44	0xec	-20
45	0x37	55
46	0x0b	11
47	0x69	105
48	0x73	115
49	0x0c	12
50	0x18	24
51	0x2e	46
52	0x98	-104
53	0xe2	-30
54	0x1f	31
55	0x3c	60
56	0xee	-18
57	0xfa	-6
58	0x06	6
59	0x33	51
60	0x2e	46
61	0x39	57
62	0xe6	-26
63	0xe7	-25
64	0x06	6
65	0xdc	-36
66	0xef	-17
67	0x25	37
68	0x2f	47
69	0x20	32
70	0x89	-119
71	0xe1	-31
72	0x5a	90
73	0x0a	10
74	0x0d	13
75	0x0b	11
76	0xd8	-40
77	0x20	32
78	0xff	-1
79	0x9d	-99
80	0x99	-103
81	0x1b	27
82	0x1e	30
83	0x15	21
84	0xdc	-36
85	0x01	1
86	0x49	73
87	0x25	37
88	0x2e	46
89	0x1c	28
90	0x20	32
91	0xb5	-75
92	0x3b	59
93	0x95	-107
94	0x9f	-97
95	0xf3	-13
96	0x07	7
97	0x4e	78
98	0x58	88
99	0xe7	-25
100	0x11	17
101	0xf7	-9
102	0xcd	-51
103	0x06	6
104	0x6d	109
105	0x6b	107
106	0x0c	12
107	0x0e	14
108	0x43	67
109	0x7f	127
110	0xef	-17
111	0xf5	-11
112	0x61	97
113	0x88	-120
114	0x03	3
115	0x02	2
116	0x17	23
117	0xce	-50
118	0x19	25
119	0x41	65
120	0xd6	-42
121	0x04	4
122	0x9b	-101
123	0xfb	-5
124	0x35	53
125	0x08	8
126	0xfe	-2
127	0x0f	15
128	0xec	-20
129	0x10	16
130	0x28	40
131	0x0e	14
132	0x06	6
133	0x20	32
134	0x26	38
135	0xa2	-94
136	0x0a	10
137	0xec	-20
138	0x3a	58
139	0x3e	62
140	0x0e	14
141	0x68	104
142	0xcd	-51
143	0x07	7
144	0x15	21
145	0x96	-106
146	0x3e	62
147	0xc0	-64
148	0xcd	-51
149	0xf4	-12
150	0xf9	-7
151	0xe6	-26
152	0x30	48
153	0x08	8
154	0xf0	-16
155	0x02	2
156	0xdb	-37
157	0x2a	42
158	0xd0	-48
159	0xb7	-73
160	0xe7	-25
161	0x21	33
162	0x52	82
163	0xf5	-11
164	0xeb	-21
165	0x27	39
166	0xce	-50
167	0xfd	-3
168	0x9f	-97
169	0x42	66
170	0x7f	127
171	0x1d	29
172	0xb7	-73
173	0xcb	-53
174	0x35	53
175	0xec	-20
176	0x0c	12
177	0x16	22
178	0x0e	14
179	0xc6	-58
180	0xf5	-11
181	0xf5	-11
182	0xcb	-53
183	0xb6	-74
184	0xbd	-67
185	0xad	-83
186	0xfc	-4
187	0xd0	-48
188	0xf1	-15
189	0xe6	-26
190	0x38	56
191	0xef	-17
192	0x26	38
193	0xf2	-14
194	0x24	36
195	0x11	17
196	0xe6	-26
197	0x11	17
198	0xed	-19
199	0xf5	-11
200	0x93	-109
201	0xc2	-62
202	0x28	40
203	0xf7	-9
204	0x3c	60
205	0xff	-1
206	0x2d	45
207	0x2d	45
208	0x11	17
209	0x26	38
210	0x19	25
211	0xf6	-10
212	0xe6	-26
213	0x10	16
214	0x0c	12
215	0xd2	-46
216	0xe4	-28
217	0x18	24
218	0x40	64
219	0x7f	127
220	0xe9	-23
221	0x0b	11
222	0x32	50
223	0x72	114
224	0xf7	-9
225	0xc9	-55
226	0x1b	27
227	0xd7	-41
228	0x3f	63
229	0x2d	45
230	0xfd	-3
231	0xd9	-39
232	0x81	-127
233	0xf8	-8
234	0x45	69
235	0xd4	-44
236	0xfc	-4
237	0xc2	-62
238	0x13	19
239	0x08	8
240	0x22	34
241	0x1d	29
242	0xd9	-39
243	0xc0	-64
244	0x1a	26
245	0x50	80
246	0x65	101
247	0xcf	-49
248	0xa8	-88
249	0xbe	-66
250	0x15	21
251	0xe4	-28
252	0x1b	27
253	0x05	5
254	0x00	0
255	0xa9	-87

tfl.pseudo_qconst15 i1 [336, 1, 1, 56]
0	0x3e	62
1	0x18	24
2	0xdc	-36
3	0x1a	26
4	0xee	-18
5	0x01	1
6	0xed	-19
7	0xc8	-56
8	0xe1	-31
9	0x3b	59
10	0x11	17
11	0xbd	-67
12	0xee	-18
13	0x10	16
14	0xf4	-12
15	0x0d	13
16	0x0d	13
17	0x0d	13
18	0xf4	-12
19	0x3b	59
20	0x93	-109
21	0x29	41
22	0x04	4
23	0x0a	10
24	0x2a	42
25	0x5c	92
26	0x31	49
27	0x0a	10
28	0x52	82
29	0x15	21
30	0xd8	-40
31	0xb9	-71
32	0x02	2
33	0x17	23
34	0x11	17
35	0x63	99
36	0x0a	10
37	0xea	-22
38	0x1d	29
39	0xbd	-67
40	0xf4	-12
41	0x7f	127
42	0x13	19
43	0xcc	-52
44	0x38	56
45	0x18	24
46	0x40	64
47	0xf1	-15
48	0xd9	-39
49	0x1e	30
50	0xf3	-13
51	0xca	-54
52	0xdd	-35
53	0xf8	-8
54	0x26	38
55	0x4d	77
56	0xd0	-48
57	0x4f	79
58	0xa1	-95
59	0x8a	-118
60	0x31	49
61	0x97	-105
62	0x59	89
63	0x02	2
64	0x24	36
65	0xec	-20
66	0xe4	-28
67	0x3c	60
68	0xc2	-62
69	0xae	-82
70	0x25	37
71	0x4f	79
72	0x19	25
73	0x2b	43
74	0xf0	-16
75	0x43	67
76	0xdb	-37
77	0x0a	10
78	0x34	52
79	0xe0	-32
80	0x29	41
81	0xe8	-24
82	0x1c	28
83	0x0c	12
84	0xfa	-6
85	0xe7	-25
86	0x09	9
87	0x00	0
88	0x07	7
89	0xda	-38
90	0xf4	-12
91	0x10	16
92	0xe8	-24
93	0xc4	-60
94	0x9f	-97
95	0xde	-34
96	0xc8	-56
97	0xed	-19
98	0x39	57
99	0x02	2
100	0xfa	-6
101	0xfa	-6
102	0x1e	30
103	0xff	-1
104	0x0e	14
105	0xa6	-90
106	0xfb	-5
107	0xe3	-29
108	0xe2	-30
109	0x01	1
110	0x81	-127
111	0xa8	-88
112	0x88	-120
113	0x47	71
114	0x24	36
115	0xc3	-61
116	0xe1	-31
117	0xda	-38
118	0x28	40
119	0x8b	-117
120	0x23	35
121	0x3f	63
122	0x1e	30
123	0xeb	-21
124	0x0a	10
125	0xed	-19
126	0xe2	-30
127	0xe9	-23
128	0x45	69
129	0x02	2
130	0xff	-1
131	0x23	35
132	0xd1	-47
133	0x99	-103
134	0x2c	44
135	0xfd	-3
136	0xd1	-47
137	0xf3	-13
138	0xc1	-63
139	0x25	37
140	0x2a	42
141	0x61	97
142	0xdb	-37
143	0xdf	-33
144	0xa7	-89
145	0xe1	-31
146	0x81	-127
147	0x3b	59
148	0x38	56
149	0x26	38
150	0xc5	-59
151	0x63	99
152	0xf8	-8
153	0x01	1
154	0x22	34
155	0xe3	-29
156	0xdd	-35
157	0x42	66
158	0x03	3
159	0x2b	43
160	0xc0	-64
161	0x09	9
162	0x17	23
163	0x40	64
164	0x29	41
165	0x24	36
166	0xb3	-77
167	0x1d	29
168	0x0a	10
169	0x60	96
170	0x4a	74
171	0x05	5
172	0xff	-1
173	0x8a	-118
174	0x06	6
175	0xe4	-28
176	0x07	7
177	0xf0	-16
178	0xd5	-43
179	0xce	-50
180	0x1f	31
181	0x14	20
182	0xd1	-47
183	0xed	-19
184	0x16	22
185	0xce	-50
186	0x08	8
187	0xce	-50
188	0xf4	-12
189	0xcc	-52
190	0xea	-22
191	0xf6	-10
192	0x0f	15
193	0xfb	-5
194	0xfd	-3
195	0x2b	43
196	0x0f	15
197	0xd9	-39
198	0xd1	-47
199	0xcc	-52
200	0xfd	-3
201	0x7f	127
202	0x1a	26
203	0xeb	-21
204	0x26	38
205	0xc2	-62
206	0xdd	-35
207	0xc9	-55
208	0xf1	-15
209	0xf6	-10
210	0x08	8
211	0xf0	-16
212	0x35	53
213	0x08	8
214	0xf5	-11
215	0xe5	-27
216	0x4a	74
217	0xf5	-11
218	0x29	41
219	0x18	24
220	0xe5	-27
221	0x10	16
222	0x1d	29
223	0xea	-22
224	0x1d	29
225	0x8b	-117
226	0x04	4
227	0xd7	-41
228	0x59	89
229	0x3f	63
230	0xe6	-26
231	0x0d	13
232	0xcb	-53
233	0x44	68
234	0xc1	-63
235	0x06	6
236	0x45	69
237	0x13	19
238	0xff	-1
239	0x12	18
240	0xd3	-45
241	0xfa	-6
242	0xef	-17
243	0xe5	-27
244	0xf4	-12
245	0xe2	-30
246	0x2f	47
247	0xde	-34
248	0xff	-1
249	0xd7	-41
250	0xbf	-65
251	0x09	9
252	0xdd	-35
253	0x04	4
254	0x48	72
255	0x20	32

tfl.pseudo_qconst17 i1 [56, 1, 1, 336]
0	0xc0	-64
1	0xf8	-8
2	0xfa	-6
3	0xda	-38
4	0xe9	-23
5	0xc8	-56
6	0x14	20
7	0x22	34
8	0x35	53
9	0x01	1
10	0x19	25
11	0x53	83
12	0x57	87
13	0x28	40
14	0xe6	-26
15	0xdd	-35
16	0x1d	29
17	0x67	103
18	0xe1	-31
19	0xec	-20
20	0x0d	13
21	0xdd	-35
22	0x0c	12
23	0x27	39
24	0x22	34
25	0xb4	-76
26	0x35	53
27	0xe8	-24
28	0xdb	-37
29	0xc0	-64
30	0x2b	43
31	0x21	33
32	0xee	-18
33	0x10	16
34	0x01	1
35	0x18	24
36	0x04	4
37	0xa2	-94
38	0xe4	-28
39	0xd7	-41
40	0xc5	-59
41	0x0c	12
42	0xce	-50
43	0x1e	30
44	0x0a	10
45	0x9f	-97
46	0x03	3
47	0xb4	-76
48	0x06	6
49	0xf5	-11
50	0x32	50
51	0x01	1
52	0xe4	-28
53	0xe7	-25
54	0x22	34
55	0xc5	-59
56	0x00	0
57	0xea	-22
58	0x25	37
59	0xa0	-96
60	0xbb	-69
61	0x40	64
62	0x15	21
63	0xe7	-25
64	0xee	-18
65	0xdd	-35
66	0xdc	-36
67	0x22	34
68	0x2b	43
69	0x27	39
70	0xf6	-10
71	0xf6	-10
72	0x37	55
73	0xc9	-55
74	0x25	37
75	0x1c	28
76	0x24	36
77	0x07	7
78	0x38	56
79	0xd8	-40
80	0x81	-127
81	0xf0	-16
82	0xbf	-65
83	0xc9	-55
84	0x07	7
85	0x25	37
86	0xfe	-2
87	0xef	-17
88	0x57	87
89	0x51	81
90	0x20	32
91	0x03	3
92	0xe0	-32
93	0xfa	-6
94	0x2c	44
95	0x00	0
96	0xec	-20
97	0xb8	-72
98	0x87	-121
99	0xf3	-13
100	0xcd	-51
101	0x25	37
102	0x02	2
103	0x43	67
104	0x13	19
105	0x19	25
106	0x2c	44
107	0x2b	43
108	0x2b	43
109	0xf8	-8
110	0x54	84
111	0x41	65
112	0x0a	10
113	0xe4	-28
114	0xc8	-56
115	0x56	86
116	0x28	40
117	0x20	32
118	0x1e	30
119	0x1e	30
120	0x5b	91
121	0xd0	-48
122	0xe9	-23
123	0x3a	58
124	0xd1	-47
125	0x03	3
126	0x50	80
127	0xfc	-4
128	0x38	56
129	0xf2	-14
130	0x1f	31
131	0x16	22
132	0x3c	60
133	0xed	-19
134	0xf4	-12
135	0x13	19
136	0xf9	-7
137	0xb0	-80
138	0xde	-34
139	0x01	1
140	0xe5	-27
141	0x5d	93
142	0x0d	13
143	0x2c	44
144	0x3d	61
145	0x2d	45
146	0x34	52
147	0x08	8
148	0xb8	-72
149	0xaa	-86
150	0x0d	13
151	0x26	38
152	0xc7	-57
153	0x49	73
154	0xfa	-6
155	0xfc	-4
156	0x1d	29
157	0xfa	-6
158	0x1a	26
159	0xeb	-21
160	0xe6	-26
161	0x3d	61
162	0xd4	-44
163	0x1f	31
164	0x2b	43
165	0x0d	13
166	0xeb	-21
167	0xec	-20
168	0xb2	-78
169	0x0e	14
170	0x1b	27
171	0x3e	62
172	0x2c	44
173	0xf1	-15
174	0x30	48
175	0x0d	13
176	0xf2	-14
177	0xae	-82
178	0x1c	28
179	0x32	50
180	0x08	8
181	0x1a	26
182	0xd3	-45
183	0x3b	59
184	0xde	-34
185	0xed	-19
186	0x1e	30
187	0x5d	93
188	0x49	73
189	0x4a	74
190	0xa5	-91
191	0x08	8
192	0x0a	10
193	0xb5	-75
194	0xe5	-27
195	0xca	-54
196	0xe0	-32
197	0xfd	-3
198	0x2a	42
199	0x88	-120
200	0x39	57
201	0xab	-85
202	0x01	1
203	0xfd	-3
204	0x1c	28
205	0x02	2
206	0x25	37
207	0x1b	27
208	0x5f	95
209	0xe9	-23
210	0x1f	31
211	0xe4	-28
212	0xcb	-53
213	0xe4	-28
214	0xfe	-2
215	0xe6	-26
216	0xe6	-26
217	0xc4	-60
218	0x2f	47
219	0x2e	46
220	0x85	-123
221	0xdb	-37
222	0xfd	-3
223	0xd3	-45
224	0x13	19
225	0xac	-84
226	0x68	104
227	0x25	37
228	0x2e	46
229	0xd9	-39
230	0x23	35
231	0xdc	-36
232	0x00	0
233	0x19	25
234	0xfb	-5
235	0xf8	-8
236	0x56	86
237	0x28	40
238	0xee	-18
239	0xe2	-30
240	0x16	22
241	0x8e	-114
242	0xda	-38
243	0xe2	-30
244	0xef	-17
245	0x20	32
246	0xdf	-33
247	0xc1	-63
248	0x0c	12
249	0x34	52
250	0xec	-20
251	0x1f	31
252	0x3b	59
253	0xef	-17
254	0x19	25
255	0x9c	-100

tfl.pseudo_qconst19 i1 [1, 3, 3, 336]
0	0x10	16
1	0xf4	-12
2	0x1e	30
3	0xfe	-2
4	0xd2	-46
5	0x31	49
6	0xd5	-43
7	0xe8	-24
8	0xde	-34
9	0xe8	-24
10	0x29	41
11	0x22	34
12	0xe7	-25
13	0x92	-110
14	0x0c	12
15	0x1c	28
16	0x31	49
17	0xe1	-31
18	0xd8	-40
19	0x22	34
20	0x21	33
21	0xfe	-2
22	0x47	71
23	0xee	-18
24	0xd7	-41
25	0x31	49
26	0x2a	42
27	0xbd	-67
28	0xd4	-44
29	0x1b	27
30	0xae	-82
31	0xe6	-26
32	0x03	3
33	0x5c	92
34	0x0d	13
35	0x16	22
36	0x39	57
37	0xf6	-10
38	0xd4	-44
39	0x08	8
40	0x0d	13
41	0xd2	-46
42	0xcd	-51
43	0x08	8
44	0x23	35
45	0x9d	-99
46	0x0b	11
47	0xf3	-13
48	0x1e	30
49	0x11	17
50	0x1b	27
51	0x17	23
52	0x50	80
53	0x68	104
54	0x75	117
55	0x45	69
56	0x24	36
57	0xf2	-14
58	0x1b	27
59	0xad	-83
60	0xe6	-26
61	0xf9	-7
62	0xec	-20
63	0xaf	-81
64	0x1f	31
65	0x43	67
66	0x3a	58
67	0xb6	-74
68	0x26	38
69	0xda	-38
70	0x43	67
71	0xe9	-23
72	0x22	34
73	0xc6	-58
74	0x27	39
75	0x11	17
76	0xdf	-33
77	0x1b	27
78	0xc4	-60
79	0x1f	31
80	0x04	4
81	0x1e	30
82	0x11	17
83	0xb8	-72
84	0x05	5
85	0x1f	31
86	0x03	3
87	0xec	-20
88	0xcb	-53
89	0x22	34
90	0xdd	-35
91	0x17	23
92	0x16	22
93	0x10	16
94	0xea	-22
95	0x0d	13
96	0x01	1
97	0xf9	-7
98	0x23	35
99	0xe0	-32
100	0x0b	11
101	0xc6	-58
102	0xd3	-45
103	0xf4	-12
104	0xe7	-25
105	0xf0	-16
106	0x7f	127
107	0x1f	31
108	0xf4	-12
109	0xdf	-33
110	0xfb	-5
111	0x1b	27
112	0xca	-54
113	0x2a	42
114	0x26	38
115	0xd2	-46
116	0x2a	42
117	0x17	23
118	0x21	33
119	0x38	56
120	0x1a	26
121	0x1e	30
122	0x47	71
123	0xe6	-26
124	0xd9	-39
125	0x06	6
126	0xce	-50
127	0xfc	-4
128	0xc7	-57
129	0xcb	-53
130	0xe0	-32
131	0x12	18
132	0x1a	26
133	0xce	-50
134	0x56	86
135	0x0b	11
136	0xdd	-35
137	0xd4	-44
138	0x37	55
139	0xd8	-40
140	0xb6	-74
141	0x29	41
142	0x0d	13
143	0x48	72
144	0xcc	-52
145	0x01	1
146	0x0f	15
147	0x31	49
148	0xdc	-36
149	0x52	82
150	0xe9	-23
151	0xef	-17
152	0xfc	-4
153	0xb0	-80
154	0x73	115
155	0xdd	-35
156	0x82	-126
157	0x2a	42
158	0x1c	28
159	0x1f	31
160	0xf6	-10
161	0xeb	-21
162	0x1a	26
163	0xe6	-26
164	0xfc	-4
165	0x00	0
166	0xe6	-26
167	0x81	-127
168	0x46	70
169	0xea	-22
170	0x45	69
171	0x1a	26
172	0x19	25
173	0x21	33
174	0xd9	-39
175	0xda	-38
176	0x09	9
177	0x16	22
178	0x2d	45
179	0xe9	-23
180	0xfa	-6
181	0x21	33
182	0xf7	-9
183	0xf8	-8
184	0xbc	-68
185	0x35	53
186	0x16	22
187	0x81	-127
188	0x11	17
189	0x0b	11
190	0xca	-54
191	0xed	-19
192	0x5c	92
193	0x4a	74
194	0x1a	26
195	0x0c	12
196	0x16	22
197	0x15	21
198	0x74	116
199	0x81	-127
200	0x2f	47
201	0x21	33
202	0x10	16
203	0x3e	62
204	0xdb	-37
205	0x3a	58
206	0xda	-38
207	0x01	1
208	0xef	-17
209	0xd4	-44
210	0xc1	-63
211	0xa1	-95
212	0x02	2
213	0xe4	-28
214	0xd1	-47
215	0xfc	-4
216	0x41	65
217	0x0d	13
218	0xe3	-29
219	0xda	-38
220	0xaf	-81
221	0x83	-125
222	0xdc	-36
223	0x04	4
224	0xa7	-89
225	0x34	52
226	0xe4	-28
227	0x1c	28
228	0x10	16
229	0x37	55
230	0xd1	-47
231	0xb6	-74
232	0x00	0
233	0x26	38
234	0x0a	10
235	0x2b	43
236	0xf8	-8
237	0x19	25
238	0x81	-127
239	0xea	-22
240	0x1e	30
241	0xfe	-2
242	0x62	98
243	0xda	-38
244	0xff	-1
245	0x0f	15
246	0x4d	77
247	0x0f	15
248	0xf2	-14
249	0xed	-19
250	0x1d	29
251	0x36	54
252	0x41	65
253	0xc1	-63
254	0xe6	-26
255	0xf9	-7

tfl.pseudo_qconst21 i1 [336, 1, 1, 56]
0	0xf8	-8
1	0x19	25
2	0x3d	61
3	0x2b	43
4	0xba	-70
5	0xd9	-39
6	0xeb	-21
7	0xfd	-3
8	0x02	2
9	0x7f	127
10	0x0c	12
11	0xf0	-16
12	0x30	48
13	0xca	-54
14	0x38	56
15	0x32	50
16	0xed	-19
17	0xe0	-32
18	0xda	-38
19	0x11	17
20	0x12	18
21	0x2d	45
22	0x07	7
23	0xed	-19
24	0xc8	-56
25	0x0f	15
26	0x04	4
27	0xd1	-47
28	0xeb	-21
29	0xff	-1
30	0xb6	-74
31	0x03	3
32	0x07	7
33	0x21	33
34	0xe5	-27
35	0x12	18
36	0xee	-18
37	0xcc	-52
38	0xcb	-53
39	0x32	50
40	0xb9	-71
41	0x13	19
42	0xcd	-51
43	0xff	-1
44	0x18	24
45	0x33	51
46	0x1f	31
47	0x2a	42
48	0x22	34
49	0x61	97
50	0x1f	31
51	0x49	73
52	0xe3	-29
53	0xef	-17
54	0x52	82
55	0x34	52
56	0x3d	61
57	0x06	6
58	0x15	21
59	0xd9	-39
60	0xcc	-52
61	0xc8	-56
62	0x3f	63
63	0xe9	-23
64	0x29	41
65	0xd9	-39
66	0x19	25
67	0x03	3
68	0xfe	-2
69	0x09	9
70	0xdf	-33
71	0x11	17
72	0xe2	-30
73	0x2d	45
74	0xd9	-39
75	0x81	-127
76	0x21	33
77	0xc5	-59
78	0x38	56
79	0x11	17
80	0xe1	-31
81	0xeb	-21
82	0xde	-34
83	0x3b	59
84	0x0c	12
85	0x25	37
86	0xf6	-10
87	0xd9	-39
88	0x1b	27
89	0x21	33
90	0x4b	75
91	0x00	0
92	0xfc	-4
93	0xac	-84
94	0xef	-17
95	0xf9	-7
96	0x1b	27
97	0x32	50
98	0x16	22
99	0xd2	-46
100	0xff	-1
101	0x11	17
102	0x09	9
103	0xe1	-31
104	0xd4	-44
105	0xf1	-15
106	0x1a	26
107	0x4f	79
108	0xeb	-21
109	0xff	-1
110	0x30	48
111	0x2f	47
112	0xc3	-61
113	0xc8	-56
114	0x3b	59
115	0xa4	-92
116	0xe9	-23
117	0xd9	-39
118	0xdb	-37
119	0xcc	-52
120	0x28	40
121	0xb7	-73
122	0x09	9
123	0x20	32
124	0x03	3
125	0x28	40
126	0x42	66
127	0x56	86
128	0x29	41
129	0x1c	28
130	0xe9	-23
131	0xd9	-39
132	0x09	9
133	0xed	-19
134	0xba	-70
135	0xe8	-24
136	0xf3	-13
137	0x11	17
138	0x25	37
139	0xd9	-39
140	0x98	-104
141	0x65	101
142	0xb4	-76
143	0xd9	-39
144	0x5d	93
145	0xc6	-58
146	0xeb	-21
147	0x0a	10
148	0xdb	-37
149	0x2b	43
150	0xfe	-2
151	0xc8	-56
152	0xc5	-59
153	0x81	-127
154	0x14	20
155	0x27	39
156	0x30	48
157	0xf1	-15
158	0x3c	60
159	0xf2	-14
160	0x43	67
161	0x4c	76
162	0xc3	-61
163	0xc0	-64
164	0x29	41
165	0x0d	13
166	0x3d	61
167	0x9f	-97
168	0x72	114
169	0xde	-34
170	0x02	2
171	0xee	-18
172	0x24	36
173	0x05	5
174	0xe5	-27
175	0x51	81
176	0xb2	-78
177	0xf3	-13
178	0xa0	-96
179	0x24	36
180	0x64	100
181	0xe2	-30
182	0x8b	-117
183	0x1b	27
184	0x46	70
185	0x52	82
186	0x33	51
187	0xf5	-11
188	0x2a	42
189	0x81	-127
190	0x39	57
191	0xbd	-67
192	0x22	34
193	0x02	2
194	0x02	2
195	0x45	69
196	0xc0	-64
197	0x27	39
198	0xe2	-30
199	0x16	22
200	0xdf	-33
201	0xce	-50
202	0x78	120
203	0xf7	-9
204	0x0d	13
205	0x1f	31
206	0x1b	27
207	0x75	117
208	0x11	17
209	0x2b	43
210	0x3c	60
211	0x2e	46
212	0x12	18
213	0xc0	-64
214	0xe2	-30
215	0xda	-38
216	0xd5	-43
217	0x03	3
218	0x9a	-102
219	0xef	-17
220	0x53	83
221	0xe3	-29
222	0x2b	43
223	0x00	0
224	0xc4	-60
225	0x13	19
226	0x44	68
227	0xbb	-69
228	0xa5	-91
229	0x0a	10
230	0xf9	-7
231	0xee	-18
232	0x46	70
233	0xdf	-33
234	0xaf	-81
235	0xcd	-51
236	0xf0	-16
237	0x7f	127
238	0xe1	-31
239	0xd3	-45
240	0x22	34
241	0x1d	29
242	0xd6	-42
243	0x0f	15
244	0x22	34
245	0x15	21
246	0xc7	-57
247	0xf7	-9
248	0xc4	-60
249	0x40	64
250	0xbc	-68
251	0x39	57
252	0xcc	-52
253	0xd4	-44
254	0xcf	-49
255	0x52	82

tfl.pseudo_qconst23 i1 [56, 1, 1, 192]
0	0xed	-19
1	0xf7	-9
2	0xcb	-53
3	0xdf	-33
4	0x40	64
5	0x1a	26
6	0x0a	10
7	0x48	72
8	0x35	53
9	0xe7	-25
10	0x11	17
11	0xcc	-52
12	0xd0	-48
13	0xa8	-88
14	0x20	32
15	0x00	0
16	0xbe	-66
17	0x04	4
18	0x0b	11
19	0xca	-54
20	0xcb	-53
21	0xb3	-77
22	0xdb	-37
23	0x23	35
24	0xca	-54
25	0x0f	15
26	0xe9	-23
27	0xfd	-3
28	0xfe	-2
29	0x18	24
30	0xf0	-16
31	0xf6	-10
32	0xe6	-26
33	0x59	89
34	0x4d	77
35	0xc3	-61
36	0x1c	28
37	0xe0	-32
38	0x1a	26
39	0x0b	11
40	0x12	18
41	0xfd	-3
42	0xc8	-56
43	0x16	22
44	0xc2	-62
45	0x18	24
46	0xef	-17
47	0x19	25
48	0x1c	28
49	0x22	34
50	0xd3	-45
51	0xfa	-6
52	0x2a	42
53	0xe5	-27
54	0xfa	-6
55	0xde	-34
56	0xea	-22
57	0x2d	45
58	0xd0	-48
59	0xe6	-26
60	0xdd	-35
61	0xc7	-57
62	0x0e	14
63	0x20	32
64	0xd6	-42
65	0xf5	-11
66	0xd9	-39
67	0xdf	-33
68	0xc9	-55
69	0xf9	-7
70	0xec	-20
71	0x36	54
72	0x1e	30
73	0x2a	42
74	0xf2	-14
75	0xf7	-9
76	0xc2	-62
77	0x05	5
78	0x26	38
79	0xcf	-49
80	0xd6	-42
81	0x0c	12
82	0x30	48
83	0x1f	31
84	0xee	-18
85	0x21	33
86	0x08	8
87	0xf1	-15
88	0xb3	-77
89	0x01	1
90	0xf3	-13
91	0x26	38
92	0x10	16
93	0xd1	-47
94	0xfd	-3
95	0x09	9
96	0xda	-38
97	0xe2	-30
98	0xfc	-4
99	0xf5	-11
100	0x2d	45
101	0xfa	-6
102	0x35	53
103	0xac	-84
104	0x98	-104
105	0x05	5
106	0xec	-20
107	0xf0	-16
108	0xeb	-21
109	0xe1	-31
110	0xb9	-71
111	0xfd	-3
112	0xe2	-30
113	0xfa	-6
114	0xd4	-44
115	0x39	57
116	0x7f	127
117	0xe2	-30
118	0xef	-17
119	0x1a	26
120	0xf6	-10
121	0x10	16
122	0xfc	-4
123	0xcb	-53
124	0xde	-34
125	0x12	18
126	0x10	16
127	0x7b	123
128	0x4d	77
129	0x09	9
130	0xf3	-13
131	0xc7	-57
132	0x08	8
133	0xde	-34
134	0xf6	-10
135	0x07	7
136	0xde	-34
137	0x1e	30
138	0xe9	-23
139	0xdc	-36
140	0x08	8
141	0xef	-17
142	0xd8	-40
143	0xe1	-31
144	0x0f	15
145	0xd9	-39
146	0x1c	28
147	0xc9	-55
148	0x8e	-114
149	0xe2	-30
150	0xea	-22
151	0xb0	-80
152	0xed	-19
153	0x10	16
154	0x27	39
155	0xf5	-11
156	0x40	64
157	0xf7	-9
158	0xda	-38
159	0xf8	-8
160	0x57	87
161	0x26	38
162	0xeb	-21
163	0xa6	-90
164	0x3e	62
165	0x06	6
166	0xd4	-44
167	0x2a	42
168	0xc7	-57
169	0x1b	27
170	0xf4	-12
171	0x1a	26
172	0xf4	-12
173	0xf5	-11
174	0x3d	61
175	0xf9	-7
176	0xe1	-31
177	0xeb	-21
178	0xf2	-14
179	0xd5	-43
180	0xfd	-3
181	0xc8	-56
182	0x2c	44
183	0x1e	30
184	0xdd	-35
185	0x19	25
186	0xf4	-12
187	0x24	36
188	0xe0	-32
189	0xc3	-61
190	0x0c	12
191	0x04	4
192	0x15	21
193	0xec	-20
194	0x1d	29
195	0xbe	-66
196	0xe3	-29
197	0xb8	-72
198	0x26	38
199	0xf6	-10
200	0xba	-70
201	0x5b	91
202	0xe3	-29
203	0x25	37
204	0xf4	-12
205	0xc8	-56
206	0xda	-38
207	0xaf	-81
208	0x1b	27
209	0xca	-54
210	0x7e	126
211	0x1e	30
212	0xd6	-42
213	0x05	5
214	0x10	16
215	0xb8	-72
216	0x09	9
217	0x14	20
218	0x4f	79
219	0xfd	-3
220	0xc0	-64
221	0x12	18
222	0x2d	45
223	0x1f	31
224	0xdf	-33
225	0x1c	28
226	0x24	36
227	0x10	16
228	0xbd	-67
229	0x0d	13
230	0xdf	-33
231	0xc1	-63
232	0x34	52
233	0xd9	-39
234	0xee	-18
235	0x3f	63
236	0xfa	-6
237	0xf3	-13
238	0x25	37
239	0x2a	42
240	0x50	80
241	0xfa	-6
242	0xdf	-33
243	0x31	49
244	0x18	24
245	0x35	53
246	0xb4	-76
247	0x4a	74
248	0x0a	10
249	0xe9	-23
250	0x22	34
251	0x07	7
252	0x0c	12
253	0xfd	-3
254	0x3c	60
255	0xea	-22

tfl.pseudo_qconst25 i1 [1, 3, 3, 192]
0	0x36	54
1	0x2c	44
2	0x2a	42
3	0xcc	-52
4	0x46	70
5	0x21	33
6	0x34	52
7	0xc9	-55
8	0xc9	-55
9	0xcc	-52
10	0x2b	43
11	0xdd	-35
12	0xdb	-37
13	0x1f	31
14	0x2e	46
15	0xd2	-46
16	0x2d	45
17	0x36	54
18	0x30	48
19	0x34	52
20	0x30	48
21	0x23	35
22	0x1c	28
23	0x2c	44
24	0xce	-50
25	0xac	-84
26	0x20	32
27	0x24	36
28	0xd4	-44
29	0xaa	-86
30	0xd4	-44
31	0x31	49
32	0xd3	-45
33	0xc8	-56
34	0xd1	-47
35	0xd8	-40
36	0x28	40
37	0x2f	47
38	0x33	51
39	0xba	-70
40	0x36	54
41	0x2f	47
42	0x63	99
43	0x21	33
44	0xca	-54
45	0xd7	-41
46	0x28	40
47	0x2f	47
48	0x36	54
49	0xc4	-60
50	0x2f	47
51	0x23	35
52	0x31	49
53	0x22	34
54	0xd2	-46
55	0xbc	-68
56	0xcc	-52
57	0xd7	-41
58	0x32	50
59	0xd2	-46
60	0x37	55
61	0x2c	44
62	0xdf	-33
63	0x2a	42
64	0x3a	58
65	0xd1	-47
66	0x33	51
67	0xcf	-49
68	0xbf	-65
69	0x2e	46
70	0x63	99
71	0xd0	-48
72	0x35	53
73	0x29	41
74	0x44	68
75	0x2f	47
76	0x2d	45
77	0xd3	-45
78	0xda	-38
79	0xe3	-29
80	0x28	40
81	0xbc	-68
82	0xc2	-62
83	0x32	50
84	0xe2	-30
85	0x3c	60
86	0x25	37
87	0x3a	58
88	0x2a	42
89	0x2e	46
90	0xe0	-32
91	0xcb	-53
92	0xdf	-33
93	0xd5	-43
94	0x33	51
95	0xca	-54
96	0xc1	-63
97	0xac	-84
98	0x2e	46
99	0x53	83
100	0x2d	45
101	0x30	48
102	0x2b	43
103	0xd2	-46
104	0x25	37
105	0xcc	-52
106	0x2c	44
107	0xd2	-46
108	0xc2	-62
109	0x50	80
110	0x2f	47
111	0xb7	-73
112	0x2b	43
113	0xc0	-64
114	0xd6	-42
115	0x22	34
116	0xae	-82
117	0x26	38
118	0xdd	-35
119	0x36	54
120	0xc7	-57
121	0x2b	43
122	0xcf	-49
123	0xcb	-53
124	0x36	54
125	0x23	35
126	0x26	38
127	0xd1	-47
128	0x2f	47
129	0x29	41
130	0x2b	43
131	0x29	41
132	0xd1	-47
133	0x35	53
134	0x5c	92
135	0xbb	-69
136	0xd7	-41
137	0xd2	-46
138	0x35	53
139	0xd5	-43
140	0x3e	62
141	0x29	41
142	0x2f	47
143	0xd6	-42
144	0x2a	42
145	0xd2	-46
146	0x19	25
147	0x4f	79
148	0xd1	-47
149	0x26	38
150	0x2c	44
151	0xdc	-36
152	0x24	36
153	0x4d	77
154	0x30	48
155	0xd7	-41
156	0x28	40
157	0x2f	47
158	0xeb	-21
159	0xdb	-37
160	0x30	48
161	0x50	80
162	0x2f	47
163	0xdc	-36
164	0xd2	-46
165	0xd5	-43
166	0x2c	44
167	0x23	35
168	0xcd	-51
169	0x36	54
170	0x2f	47
171	0x23	35
172	0x30	48
173	0x39	57
174	0x27	39
175	0x20	32
176	0xda	-38
177	0xca	-54
178	0x2b	43
179	0x2d	45
180	0xc0	-64
181	0x37	55
182	0x34	52
183	0x27	39
184	0x39	57
185	0xd1	-47
186	0x26	38
187	0xe7	-25
188	0xda	-38
189	0xd9	-39
190	0x2a	42
191	0x4a	74
192	0x5b	91
193	0x4e	78
194	0x49	73
195	0xb2	-78
196	0x58	88
197	0x40	64
198	0x4e	78
199	0xae	-82
200	0xae	-82
201	0xb2	-78
202	0x4e	78
203	0x55	85
204	0xb1	-79
205	0x40	64
206	0x54	84
207	0xb7	-73
208	0x4a	74
209	0x4c	76
210	0x48	72
211	0x4a	74
212	0x4e	78
213	0x46	70
214	0x37	55
215	0x4f	79
216	0xa7	-89
217	0x8b	-117
218	0x3f	63
219	0x48	72
220	0xb3	-77
221	0xe1	-31
222	0xb2	-78
223	0x43	67
224	0xb9	-71
225	0xa9	-87
226	0xb7	-73
227	0xb5	-75
228	0x4a	74
229	0x53	83
230	0x4f	79
231	0x96	-106
232	0x56	86
233	0x4c	76
234	0xf9	-7
235	0x40	64
236	0xa9	-87
237	0xb0	-80
238	0x7f	127
239	0x52	82
240	0x50	80
241	0xa2	-94
242	0x49	73
243	0x40	64
244	0x52	82
245	0x3a	58
246	0xb6	-74
247	0xa7	-89
248	0x9f	-97
249	0xab	-85
250	0x4e	78
251	0xa6	-90
252	0x4c	76
253	0x45	69
254	0xba	-70
255	0x4a	74

tfl.pseudo_qconst27 i1 [192, 1, 1, 32]
0	0x7c	124
1	0xff	-1
2	0x40	64
3	0x7d	125
4	0x73	115
5	0x31	49
6	0x1d	29
7	0x4e	78
8	0x10	16
9	0x07	7
10	0x12	18
11	0xe9	-23
12	0x3e	62
13	0x2e	46
14	0xb9	-71
15	0x04	4
16	0xcf	-49
17	0x81	-127
18	0xee	-18
19	0x19	25
20	0x51	81
21	0xe4	-28
22	0xee	-18
23	0xf2	-14
24	0x1c	28
25	0x16	22
26	0xb3	-77
27	0x22	34
28	0x23	35
29	0xc9	-55
30	0xcb	-53
31	0x08	8
32	0xee	-18
33	0x8c	-116
34	0xc3	-61
35	0x10	16
36	0x0c	12
37	0x41	65
38	0x00	0
39	0x81	-127
40	0x11	17
41	0xd7	-41
42	0x1a	26
43	0xc0	-64
44	0x46	70
45	0x18	24
46	0x3c	60
47	0x08	8
48	0xcb	-53
49	0x04	4
50	0xc5	-59
51	0xd1	-47
52	0x3a	58
53	0x36	54
54	0x1b	27
55	0xcf	-49
56	0x0b	11
57	0x05	5
58	0x08	8
59	0x02	2
60	0xf0	-16
61	0xc9	-55
62	0x4b	75
63	0x11	17
64	0xb8	-72
65	0xe5	-27
66	0x22	34
67	0x39	57
68	0xbc	-68
69	0x8c	-116
70	0xd2	-46
71	0x9e	-98
72	0xd1	-47
73	0x0c	12
74	0xe1	-31
75	0xd2	-46
76	0xee	-18
77	0x19	25
78	0x01	1
79	0xb8	-72
80	0x13	19
81	0x29	41
82	0x8c	-116
83	0xca	-54
84	0x1e	30
85	0x2b	43
86	0xfd	-3
87	0xe4	-28
88	0x2b	43
89	0xfa	-6
90	0xea	-22
91	0xd1	-47
92	0x08	8
93	0xd6	-42
94	0x81	-127
95	0x05	5
96	0xf2	-14
97	0x31	49
98	0x62	98
99	0xf9	-7
100	0x07	7
101	0xdd	-35
102	0xaf	-81
103	0x92	-110
104	0x44	68
105	0x01	1
106	0xfd	-3
107	0xb7	-73
108	0xb9	-71
109	0xdf	-33
110	0x23	35
111	0xba	-70
112	0xfe	-2
113	0x40	64
114	0x31	49
115	0x7f	127
116	0xfe	-2
117	0xfd	-3
118	0x4b	75
119	0x55	85
120	0x1f	31
121	0x0d	13
122	0x22	34
123	0xb5	-75
124	0xd7	-41
125	0x88	-120
126	0xcd	-51
127	0xd9	-39
128	0xf5	-11
129	0x35	53
130	0x07	7
131	0xe3	-29
132	0x6d	109
133	0xff	-1
134	0xbe	-66
135	0xe4	-28
136	0xb1	-79
137	0xaf	-81
138	0xe8	-24
139	0x81	-127
140	0x93	-109
141	0xc9	-55
142	0xb9	-71
143	0xff	-1
144	0xf3	-13
145	0xf8	-8
146	0x18	24
147	0x3a	58
148	0x40	64
149	0xca	-54
150	0x44	68
151	0x09	9
152	0xe5	-27
153	0xc6	-58
154	0xc0	-64
155	0x09	9
156	0x09	9
157	0xd7	-41
158	0xe5	-27
159	0x46	70
160	0xeb	-21
161	0xe5	-27
162	0x3c	60
163	0xdd	-35
164	0xb5	-75
165	0x48	72
166	0xfe	-2
167	0x17	23
168	0x79	121
169	0xda	-38
170	0x42	66
171	0xf4	-12
172	0x15	21
173	0xa7	-89
174	0x33	51
175	0xd8	-40
176	0xd9	-39
177	0xe7	-25
178	0xde	-34
179	0x08	8
180	0xfa	-6
181	0x41	65
182	0xcd	-51
183	0x08	8
184	0xd9	-39
185	0x32	50
186	0xef	-17
187	0xd0	-48
188	0xd4	-44
189	0x1d	29
190	0x81	-127
191	0xe8	-24
192	0x27	39
193	0xb0	-80
194	0x21	33
195	0xbe	-66
196	0xf5	-11
197	0xd4	-44
198	0xdc	-36
199	0xd2	-46
200	0xfc	-4
201	0xe7	-25
202	0x2b	43
203	0xfb	-5
204	0xc2	-62
205	0x21	33
206	0x15	21
207	0x7d	125
208	0xd3	-45
209	0xae	-82
210	0x43	67
211	0xe1	-31
212	0x1a	26
213	0x6d	109
214	0x62	98
215	0x0b	11
216	0x04	4
217	0xee	-18
218	0x22	34
219	0xce	-50
220	0x7f	127
221	0x10	16
222	0xe1	-31
223	0xea	-22
224	0x43	67
225	0xe8	-24
226	0xe7	-25
227	0xd9	-39
228	0x39	57
229	0x16	22
230	0x07	7
231	0x16	22
232	0x23	35
233	0xec	-20
234	0x2a	42
235	0x3b	59
236	0xc6	-58
237	0x81	-127
238	0x43	67
239	0xfa	-6
240	0x22	34
241	0xf0	-16
242	0x0c	12
243	0x21	33
244	0x64	100
245	0xff	-1
246	0xd1	-47
247	0xe1	-31
248	0xbd	-67
249	0x2f	47
250	0xa5	-91
251	0xdc	-36
252	0xa6	-90
253	0x20	32
254	0xdd	-35
255	0x4b	75

tfl.pseudo_qconst29 i1 [32, 1, 1, 192]
0	0xf8	-8
1	0x12	18
2	0x14	20
3	0x45	69
4	0xa5	-91
5	0x21	33
6	0x04	4
7	0x2c	44
8	0xf1	-15
9	0xec	-20
10	0x49	73
11	0x24	36
12	0xe8	-24
13	0x2d	45
14	0xfc	-4
15	0x02	2
16	0x24	36
17	0xc2	-62
18	0x19	25
19	0x04	4
20	0x2f	47
21	0x01	1
22	0xc9	-55
23	0xf6	-10
24	0x3b	59
25	0x13	19
26	0x1a	26
27	0x58	88
28	0xfa	-6
29	0x42	66
30	0xd6	-42
31	0x05	5
32	0x41	65
33	0x3a	58
34	0xc0	-64
35	0x1a	26
36	0xce	-50
37	0xc6	-58
38	0x0b	11
39	0x3c	60
40	0xcf	-49
41	0x21	33
42	0xd5	-43
43	0xed	-19
44	0x11	17
45	0x2c	44
46	0xe6	-26
47	0xf8	-8
48	0xe5	-27
49	0xce	-50
50	0x25	37
51	0xda	-38
52	0x25	37
53	0xdd	-35
54	0xf0	-16
55	0xca	-54
56	0xee	-18
57	0x20	32
58	0xe3	-29
59	0xda	-38
60	0xf1	-15
61	0xe6	-26
62	0x03	3
63	0x34	52
64	0xa6	-90
65	0xfb	-5
66	0xe6	-26
67	0xe5	-27
68	0x86	-122
69	0x69	105
70	0x16	22
71	0xd1	-47
72	0x0f	15
73	0xcf	-49
74	0xec	-20
75	0x33	51
76	0xc0	-64
77	0xff	-1
78	0xd8	-40
79	0xb5	-75
80	0xb2	-78
81	0xf3	-13
82	0x27	39
83	0x08	8
84	0xf8	-8
85	0x23	35
86	0xd7	-41
87	0x23	35
88	0xf6	-10
89	0x46	70
90	0xfa	-6
91	0xc0	-64
92	0xf8	-8
93	0xcf	-49
94	0xd0	-48
95	0xe5	-27
96	0xf7	-9
97	0xf3	-13
98	0x42	66
99	0xf7	-9
100	0xec	-20
101	0xca	-54
102	0x23	35
103	0x2d	45
104	0xfd	-3
105	0x08	8
106	0xd3	-45
107	0x5d	93
108	0x43	67
109	0xd1	-47
110	0x02	2
111	0xaf	-81
112	0x7f	127
113	0xea	-22
114	0x11	17
115	0x0b	11
116	0x49	73
117	0xec	-20
118	0x35	53
119	0xbd	-67
120	0xf5	-11
121	0xd4	-44
122	0x6b	107
123	0xa7	-89
124	0x13	19
125	0xd6	-42
126	0x0a	10
127	0x07	7
128	0x10	16
129	0x05	5
130	0x29	41
131	0xd5	-43
132	0x9a	-102
133	0x06	6
134	0x55	85
135	0xf5	-11
136	0xd7	-41
137	0x4d	77
138	0xcb	-53
139	0x6c	108
140	0x28	40
141	0x39	57
142	0x35	53
143	0x07	7
144	0x25	37
145	0x0c	12
146	0x23	35
147	0xff	-1
148	0x20	32
149	0x49	73
150	0xeb	-21
151	0xfd	-3
152	0xfa	-6
153	0xea	-22
154	0x03	3
155	0xdf	-33
156	0xe8	-24
157	0xf6	-10
158	0x39	57
159	0x12	18
160	0xfa	-6
161	0x10	16
162	0x2c	44
163	0xd1	-47
164	0x13	19
165	0xd4	-44
166	0xfc	-4
167	0xda	-38
168	0x32	50
169	0xf6	-10
170	0x0d	13
171	0x46	70
172	0xe7	-25
173	0xe1	-31
174	0xdb	-37
175	0x1a	26
176	0xf7	-9
177	0xea	-22
178	0xdf	-33
179	0xe6	-26
180	0x04	4
181	0x1b	27
182	0xb7	-73
183	0xc5	-59
184	0x3e	62
185	0xcf	-49
186	0x40	64
187	0x1d	29
188	0x19	25
189	0xbd	-67
190	0x33	51
191	0x04	4
192	0x08	8
193	0x09	9
194	0xe1	-31
195	0xf9	-7
196	0x01	1
197	0xd4	-44
198	0xee	-18
199	0x05	5
200	0x0c	12
201	0xf3	-13
202	0xe7	-25
203	0x01	1
204	0xfd	-3
205	0xce	-50
206	0xf2	-14
207	0xe8	-24
208	0xef	-17
209	0xf2	-14
210	0xb4	-76
211	0xd4	-44
212	0x1c	28
213	0xd6	-42
214	0xf4	-12
215	0xe9	-23
216	0xe0	-32
217	0xe0	-32
218	0x02	2
219	0xf2	-14
220	0x0f	15
221	0x24	36
222	0x27	39
223	0xfb	-5
224	0x06	6
225	0xfd	-3
226	0xe3	-29
227	0xc5	-59
228	0x7f	127
229	0xf1	-15
230	0x03	3
231	0x0a	10
232	0x3a	58
233	0x05	5
234	0xe3	-29
235	0xe5	-27
236	0x09	9
237	0x03	3
238	0xf5	-11
239	0x1d	29
240	0x16	22
241	0x00	0
242	0x36	54
243	0x14	20
244	0xdf	-33
245	0x02	2
246	0x07	7
247	0x00	0
248	0xd7	-41
249	0xf8	-8
250	0xc3	-61
251	0x24	36
252	0x2c	44
253	0xf6	-10
254	0x14	20
255	0xef	-17

tfl.pseudo_qconst31 i1 [1, 3, 3, 192]
0	0xab	-85
1	0x04	4
2	0xd6	-42
3	0xd3	-45
4	0x42	66
5	0x34	52
6	0x07	7
7	0xe4	-28
8	0x1e	30
9	0x32	50
10	0xeb	-21
11	0x05	5
12	0x20	32
13	0x03	3
14	0x15	21
15	0x0e	14
16	0xe6	-26
17	0xcb	-53
18	0xbc	-68
19	0xad	-83
20	0x39	57
21	0xfb	-5
22	0x18	24
23	0xef	-17
24	0xd3	-45
25	0xf6	-10
26	0xf3	-13
27	0x10	16
28	0xf6	-10
29	0x0b	11
30	0x02	2
31	0x13	19
32	0x81	-127
33	0x02	2
34	0x00	0
35	0xe8	-24
36	0xda	-38
37	0xfb	-5
38	0x10	16
39	0x57	87
40	0x0c	12
41	0x0e	14
42	0x1c	28
43	0x28	40
44	0xb9	-71
45	0xf3	-13
46	0xed	-19
47	0xce	-50
48	0x1f	31
49	0xdf	-33
50	0x16	22
51	0x0e	14
52	0x06	6
53	0xe5	-27
54	0x19	25
55	0x18	24
56	0xfa	-6
57	0x10	16
58	0xb1	-79
59	0xe7	-25
60	0x09	9
61	0xfb	-5
62	0x00	0
63	0x01	1
64	0x0b	11
65	0xf0	-16
66	0xe3	-29
67	0x08	8
68	0x09	9
69	0x1c	28
70	0x02	2
71	0xe9	-23
72	0x03	3
73	0xc2	-62
74	0xec	-20
75	0x12	18
76	0x1c	28
77	0x1f	31
78	0x23	35
79	0xf3	-13
80	0xf9	-7
81	0x03	3
82	0x05	5
83	0x49	73
84	0x02	2
85	0x0e	14
86	0x02	2
87	0x25	37
88	0x14	20
89	0x16	22
90	0xe4	-28
91	0x2f	47
92	0xf3	-13
93	0x02	2
94	0xe3	-29
95	0xf9	-7
96	0xf4	-12
97	0x0a	10
98	0xdf	-33
99	0x02	2
100	0xc8	-56
101	0x02	2
102	0x01	1
103	0x18	24
104	0x20	32
105	0xfe	-2
106	0x32	50
107	0x81	-127
108	0xff	-1
109	0x20	32
110	0xd5	-43
111	0xf6	-10
112	0xfb	-5
113	0x8d	-115
114	0xfd	-3
115	0xcf	-49
116	0x53	83
117	0xbd	-67
118	0xe4	-28
119	0x17	23
120	0x40	64
121	0x03	3
122	0xc9	-55
123	0x06	6
124	0x0e	14
125	0x2a	42
126	0x58	88
127	0x03	3
128	0xf9	-7
129	0xfe	-2
130	0xfd	-3
131	0x12	18
132	0x87	-121
133	0x4b	75
134	0xfa	-6
135	0x48	72
136	0x21	33
137	0x4f	79
138	0x37	55
139	0xf5	-11
140	0x17	23
141	0x23	35
142	0xe5	-27
143	0x1c	28
144	0x2e	46
145	0xba	-70
146	0x71	113
147	0x0b	11
148	0x09	9
149	0x59	89
150	0xc4	-60
151	0x14	20
152	0x20	32
153	0xfa	-6
154	0xed	-19
155	0xfc	-4
156	0x0c	12
157	0x03	3
158	0xa8	-88
159	0x01	1
160	0x28	40
161	0x0d	13
162	0x0e	14
163	0xf0	-16
164	0x16	22
165	0xe0	-32
166	0xfa	-6
167	0x03	3
168	0xe7	-25
169	0xda	-38
170	0xdb	-37
171	0xbe	-66
172	0xd6	-42
173	0x02	2
174	0x06	6
175	0x84	-124
176	0xb6	-74
177	0x01	1
178	0x25	37
179	0x27	39
180	0xc2	-62
181	0x02	2
182	0x15	21
183	0xa8	-88
184	0xd1	-47
185	0x3d	61
186	0x21	33
187	0x15	21
188	0x03	3
189	0x2e	46
190	0x30	48
191	0x5f	95
192	0xbd	-67
193	0x28	40
194	0xc7	-57
195	0x7f	127
196	0x7f	127
197	0x7d	125
198	0xe7	-25
199	0xea	-22
200	0xf7	-9
201	0x01	1
202	0xff	-1
203	0xd2	-46
204	0xba	-70
205	0x2e	46
206	0x19	25
207	0x5e	94
208	0xf6	-10
209	0xff	-1
210	0xde	-34
211	0xab	-85
212	0xc2	-62
213	0x81	-127
214	0xea	-22
215	0x02	2
216	0x90	-112
217	0xf7	-9
218	0x75	117
219	0x2d	45
220	0xd7	-41
221	0xf0	-16
222	0xab	-85
223	0xf4	-12
224	0xbf	-65
225	0xd0	-48
226	0x27	39
227	0xe5	-27
228	0x81	-127
229	0x16	22
230	0x4d	77
231	0x7f	127
232	0x81	-127
233	0x0f	15
234	0x0a	10
235	0x5d	93
236	0x7f	127
237	0xfb	-5
238	0x7f	127
239	0xe5	-27
240	0x3b	59
241	0xd3	-45
242	0x1e	30
243	0x66	102
244	0x81	-127
245	0xdf	-33
246	0x02	2
247	0x4a	74
248	0xf0	-16
249	0xae	-82
250	0x81	-127
251	0xb1	-79
252	0xae	-82
253	0x15	21
254	0x3c	60
255	0x7f	127
