Neural_network/pytorch_tflite_convert/model/output/onnx_model_dynamic_range_quant.tflite (tflite, 106872 bytes, 10 tensors)

arith.constant f4 [16]
00000000: 6bbd 943d 23db 363e eb47 263d ff03 253d
00000010: ad2c e0ba 2539 dbbd f821 fb3d 4690 18bd
00000020: 8e39 febd d0cf 11be a28c 68be 3790 adbd
00000030: 230e 193e af04 b0bb a684 febd a803 b8bd
0.07262691 0.17857032 0.04059593 0.040287014 -0.0017103158 -0.10704259 0.122623384 -0.037246965
-0.124133214 -0.1423943 -0.22709897 -0.084747724 0.14946799 -0.005371652 -0.124276444 -0.089850724

arith.constant1 f4 [16, 3, 3, 3]
00000000: a8b8 483c 7efe 0cbe dab9 15be 2393 52be
00000010: 0dd1 233e b68a 33be e331 74bc a834 2e3d
00000020: e961 283e 524c de3d 1cb1 203b 0189 603b
00000030: cda1 0bbe 99ff e2bd 9442 ab3d bc3c e0bd
00000040: f386 cf3c 10cc a03d 01ff 26be f7c7 063e
00000050: 373b 293e fbd0 96bd b01f bc3d ca48 95bd
00000060: 69cf 243e 3735 393e e912 1b3e da4c fbbd
00000070: de17 f33d c29b 963c 38df c9bb 0b6c d2bc
00000080: 85d2 8abd e2a7 263e c653 c63d 92fb 2fbd
00000090: be1c a03d 0a1e 81bd 912b 94bd aa58 0dbe
000000a0: 3f44 133e f61d 41be d199 083e 723e 5b3d
000000b0: edb6 0c3e 8cd0 833d 16cb 94bd 9c65 283d
000000c0: 84b9 a5bc 984e 65bd cb28 d4bd 0ab2 64be
000000d0: 6235 e9bd b765 00be da80 2b3d 46b6 fe3d
000000e0: 512b ecbc 8972 303e a0e9 273d e051 5abd
000000f0: 7792 763d 3e3d 403e 77c0 e73d 7912 0a3e
00000100: 6990 913c b46f 55be ce88 a4bc 4f02 35be
00000110: a5bb e0bd d8e1 76bc 011c f7bd 645f 3fbd
00000120: 6065 953d 1979 f13d 5e2f 39bd 1482 e6bd
00000130: 1787 b0bd c35a 25bd 033c 883d 40a7 0e3e
00000140: d1ba 86bd 2e63 223e 2e44 0dbd 8399 e9bd
00000150: a2fb 23bd 86ba 9c3a fc99 2fbe 76f5 3e3e
00000160: a721 abbc de69 efbd f4b6 233e aa8b 19be
00000170: cce9 48be 5fa4 223e 5992 2fbe ffbf 53be
00000180: 4a6a b8bd 8cb4 28bd 1db0 b33b 4e53 3d3e
00000190: bdd6 28bd fbe3 233d d8e4 753d 23e9 1bbd
000001a0: 7b11 9abd 5cba 543e 7ed2 e9bd 13e1 29be
000001b0: 2064 14be d487 2a3e 78df bc3d 5b8c 94bc
000001c0: de04 173e 2172 e3bc 296d b0bd 557d 4fbe
000001d0: 4497 ea3d 72ae 213e 8157 e9bb a17e 173e
000001e0: d3b8 43bd abac 0d3e 0156 bdbd eb92 2b3e
000001f0: f036 ec3d 881e 283d 5a72 df3d 8897 3ebe
00000200: bc6a 19be b359 c93d bb66 c23d 225e f5bd
00000210: 8872 95bd 5499 06be ff65 063d f0a6 c43d
00000220: 8997 9c3d 4cab 0cbe d348 3dbe 8268 b1bd
00000230: d367 05be f13e 0ebe e7c4 09bd 1fbc 183c
00000240: 5514 313e ca39 f8bd f89a 893b b27b 1a3b
00000250: 42ab 553e 7d12 883c 6e07 093e 8e08 2f3e
00000260: b85a b03d 8c1b 443c 02f9 81bd 5d5d 9fbc
00000270: 4dbe 533d a06c 913d f20e 0fbe fa8a d5bd
00000280: 83c2 1bbd 84fe 043e e5ba b63d 9301 f7bd
00000290: bd8a 673c 08d8 86bd 33f5 8c3d d149 ed3d
000002a0: 2b60 093c 699d 5bbe 9462 313e 058f 12be
000002b0: b1be cbbc f1ec 583e 7a93 01be d4ee 92bb
000002c0: c312 abbc cdcd 22bd 93c5 0e3d d18b 95bd
000002d0: 47b2 84be da89 3bbd db40 55bd e6b8 b83d
000002e0: 4862 5abe 9e2b da3d 7f6f 013e c9e1 0d3e
000002f0: 2bac 7cbd eb3b 043d a3f6 e1bd 03ed 3b3e
00000300: 5516 0d3e 3f80 08bd aead 8aba 1580 28be
00000310: b821 323d 9b91 153e bd3b 03be aa24 b03d
00000320: 5929 003b a176 afbd 48b5 5b3d b7cc 0abe
00000330: effe e2bd 2721 463d 893c 9abd 64f3 e13d
00000340: a759 473e 92b6 1b3e 17ad 243c b3c9 543d
00000350: fb0b cebd f524 ffbd 5907 5a3e fe6c 0bbe
00000360: ac6f 0a3e 60ef 0e3c 6e0e 26bd 3bd4 d1bc
00000370: 98de 80bc 988a d73d 6e44 50bd 4fa1 01be
00000380: 4724 19be c3a1 323d 4745 0abe 715a ad3d
00000390: eb6a a43d 817e 26bd ddae e73d 56d2 1fbe
000003a0: 1933 c8bd 2b74 e1bd 4773 3e3e 9a88 093e
000003b0: a08d 4b3d 8b27 343e f162 fe3c 5706 d73b
000003c0: 62eb e43d 8a85 14be 9026 c13a 9b61 03be
000003d0: 8207 4c3c 3a56 fe3c 556b dd3d a46f e4bd
000003e0: 0afa 22bc 1992 243e c62a 3c3c ab86 273d
000003f0: 3245 52be 1ecc c4bd 5085 d5bd c238 b6bc
0.012251057 -0.13768956 -0.14621678 -0.2056394 0.15997715 -0.17533383 -0.014904472 0.042530686
0.164436 0.10854401 0.0024519628 0.0034261348 -0.13635941 -0.11083908 0.08362308 -0.10949084
0.025332903 0.07851422 -0.16308214 0.13162218 0.16526495 -0.073640786 0.091857314 -0.07289274
0.16094746 0.18086706 0.15143932 -0.12270518 0.11869787 0.018384818 -0.006160643 -0.025686285
-0.06778435 0.1627498 0.09683947 -0.042964526 0.07817982 -0.063045576 -0.07234872 -0.13803354
0.14381503 -0.18859085 0.13339926 0.05352635 0.13741656 0.064362615 -0.07265298 0.041112527
-0.020230062 -0.055983156 -0.10359343 -0.22333542 -0.11387135 -0.12538801 0.04187093 0.1243711
-0.028829249 0.17231192 0.040994287 -0.05330074 0.060198274 0.18773362 0.11316007 0.1348361
0.017769055 -0.20843393 -0.020084765 -0.17676662 -0.1097329 -0.015068494 -0.12065888 -0.04672183
0.07294726 0.11790676 -0.04521119 -0.11255279 -0.08619516 -0.04036976 0.06652071 0.13930988
-0.06578601 0.15858147 -0.03448885 -0.11406233 -0.040034898 0.0011957444 -0.17148584 0.18648323
-0.02089007 -0.116901144 0.1598776 -0.14994684 -0.19620436 0.15883015 -0.17145671 -0.2067871
-0.09004648 -0.041187808 0.005483641 0.1848881 -0.041220415 0.04001234 0.060032696 -0.038064133
-0.075228654 0.20774215 -0.11417101 -0.16589765 -0.1449132 0.16653377 0.09222311 -0.018133333
0.1474795 -0.027764382 -0.08614571 -0.20262654 0.11454633 0.15789202 -0.007121027 0.14794399
-0.047783684 0.13835399 -0.092449196 0.16755264 0.11533916 0.041044742 0.10910483 -0.18612492
-0.14982122 0.09831562 0.094922505 -0.11980845 -0.07297236 -0.13144428 0.032812115 0.09602153
0.076460905 -0.1373722 -0.18484811 -0.086625114 -0.13027887 -0.13891198 -0.033635046 0.009322195
0.17292912 -0.121203974 0.004199382 0.0023572263 0.20866111 0.016610378 0.1338174 0.17093107
0.08611053 0.011969458 -0.063463226 -0.019453699 0.051695157 0.07100797 -0.13970545 -0.10426898
-0.038027298 0.12987715 0.08922366 -0.12060847 0.014132199 -0.065841734 0.068827055 0.11586345
0.008384745 -0.21446766 0.17322761 -0.1431237 -0.024871202 0.21184136 -0.12653914 -0.004484037
-0.02088297 -0.03974705 0.03485639 -0.073020585 -0.25917265 -0.045785762 -0.052063804 0.090196416
-0.21326554 0.106528506 0.12640189 0.13855661 -0.06168763 0.032283705 -0.1103337 0.18352132
0.1377805 -0.03332543 -0.0010580325 -0.1645511 0.043489188 0.14606325 -0.12815757 0.08600743
0.0019555895 -0.085675485 0.05363968 -0.13554655 -0.11083781 0.04837146 -0.075310774 0.11032751
0.19467793 0.15206364 0.010051033 0.051950168 -0.10060879 -0.12458221 0.21291865 -0.13615796
0.13519162 0.008724064 -0.040541105 -0.025613895 -0.015731141 0.105244815 -0.05084651 -0.1265919
-0.14955245 0.0436113 -0.1350299 0.08464516 0.080282055 -0.040647987 0.113126494 -0.1560758
-0.09775371 -0.110084854 0.18598662 0.13431016 0.04969561 0.1759321 0.031053038 0.006562035
0.11177708 -0.14504066 0.0014736224 -0.12830202 0.012452962 0.031046975 0.108114876 -0.11154106
-0.009947309 0.16071357 0.011484807 0.040899914 -0.20534208 -0.09609245 -0.10425818 -0.022243861

arith.constant2 f4 [128]
00000000: 42c6 663a baac babc 6443 85bc 436e d33c
00000010: 4924 c1bc 45a9 09bd 4ef6 873c 1681 943d
00000020: 4648 c1bc 45b1 cc3c 20c1 8fbb cb58 a53b
00000030: fb59 69bc 06e4 c43c 04bb 08bd 902b 71bd
00000040: bfac 9abc dd99 913d 49ae 1cbd 20c9 c03c
00000050: 6459 afbc de35 82bc 3552 943d 4e3d 2fbd
00000060: 0498 e03c 2f80 9c3d 7417 b6bc e774 9cbc
00000070: b991 b93c d546 8fbb 28dc bcba 1d22 5bbc
00000080: ca9e af3b cb0e 963c cc80 2ebd 7ea3 ddb8
00000090: 9575 873d acc8 923d b4af 0a3d 7029 4fbc
000000a0: 22b3 ac3d fe3e 1a3c 5d3a 9a3a bab3 0b3c
000000b0: 806b 1dbd bf96 e1bc 43f1 10bd 51a0 623c
000000c0: b61b 543c caf1 923d f9e5 8c3c d120 3dbd
000000d0: 5648 6a3d 5e29 f7bc 3db0 ebbc 445c ec3c
000000e0: c37c 373c 7283 ddba 596c 0e3c b26d bdbc
000000f0: 214f b3bc cdc0 963d d37a 4f3c ae6d 823d
00000100: 92f4 b3bc 3349 0ebd 473f 363c 460e 96bb
00000110: 497e 9f3d bb35 983d 8631 67bc 8a31 07bc
00000120: f4bc 25bd 12ae 68bc fa1b 863b e649 a3bc
00000130: d8a0 b03d a027 6abc d73c b4bc 24f7 1dbd
00000140: 16f6 2b3d 68b4 873b 4f5e 52bd 5569 2d3c
00000150: 6a67 86bd c8ec 943d dd80 72bc 744c 0b3d
00000160: 607e fdbc e4db 953d 95f5 983d c447 1ebc
00000170: 5987 9f3d a833 b83c 1da9 31bc 08d5 833d
00000180: 31a2 30bc d8bd c0bc 69e4 aa3d 3b28 833d
00000190: 3fd4 37bd 05f7 42bc fb8f e8bc 5ff2 9e3d
000001a0: 3fcb 553d 8a12 2bbd 7417 23bd 0f8e a23d
000001b0: 92c5 74bd 9878 693d d248 823d e82b 02bd
000001c0: a320 d6bc b9bd 813c c3cc 31bc 67ef 013c
000001d0: df0d cd3b 3b0b 4f3d f3d9 123d 0973 493c
000001e0: 2e21 d13c eebb 25bd d06b cb3b eb51 4bbc
000001f0: 5b6c a63d 9001 2fbd ddbc c3bc 48db 92bc
0.00088033464 -0.02278744 -0.016267486 0.025809413 -0.023576872 -0.033608694 0.01659694 0.07251184
-0.023594033 0.024986872 -0.004387036 0.0050459853 -0.014242644 0.024034511 -0.033381477 -0.058879435
-0.0188812 0.07109425 -0.03825215 0.023533404 -0.02140493 -0.015894827 0.07242242 -0.042783074
0.027416237 0.076416366 -0.02222798 -0.019098712 0.022652494 -0.0043724575 -0.0014408873 -0.013374832
0.0053595053 0.0183176 -0.0426033 -0.00010568554 0.06614224 0.071671814 0.03385897 -0.012644157
0.08432604 0.009414433 0.0011766661 0.008526737 -0.038432598 -0.027537702 -0.035386335 0.013832168
0.01294606 0.07175024 0.017199503 -0.046173874 0.05719789 -0.030171093 -0.02877056 0.02885259
0.011199179 -0.0016900136 0.008692824 -0.023123596 -0.021888318 0.073609926 0.012663561 0.06368576
-0.021967206 -0.034737777 0.011123485 -0.0045793382 0.07787759 0.07432123 -0.014110928 -0.008251557
-0.040463403 -0.014201658 0.0040926905 -0.019932698 0.086244285 -0.014291674 -0.022001667 -0.03856577
0.041982733 0.004141379 -0.05135947 0.010584195 -0.065626934 0.07271725 -0.014801231 0.03400846
-0.03094405 0.073173314 0.07468716 -0.009660665 0.077894874 0.02248557 -0.010843542 0.06437117
-0.010780857 -0.023528025 0.08344347 0.06404158 -0.044880148 -0.011899714 -0.028388968 0.07761072
0.052195784 -0.041765727 -0.03981729 0.07937252 -0.05975873 0.056999773 0.063615456 -0.031780154
-0.02613861 0.015837537 -0.010852042 0.007930613 0.006257757 0.05054782 0.035852384 0.012295493
0.025528517 -0.040462427 0.0062079206 -0.0124096675 0.08126136 -0.0427261 -0.023893768 -0.017926827

arith.constant3 f4 [64]
00000000: cd32 a8bc ced6 c5bc 7740 bebc 9983 c0bb
00000010: 5ebc 7b3d 5ecf 55bd dc84 8a3d 5d93 0abd
00000020: fdca 3f3c 55fb 62bd aa2f 153c 16c7 71bd
00000030: 0712 8abd b58b f9bc 2767 3c3d f9c7 9fbc
00000040: c216 babc ee08 943c df54 113d 42a3 f23c
00000050: 94e5 c0bc 91a6 9ebd 2c8d 423d c87c a1bc
00000060: 88ea 503b e9e2 c33c 5b56 67bd 1829 603d
00000070: 4662 a7bc bb52 073d 7a36 963b c2ee b33c
00000080: eb7a 4bbd c0be 30bd 025b 4ebd 41bd 34bd
00000090: bf50 463d 8422 563d 985b 9bbd 0782 38bc
000000a0: f67c 33bd 4c11 fcbc a5be bcbc f817 9db8
000000b0: ab15 8c3c 672d 9e3d 21a0 923d 6caf a63b
000000c0: eb9e 583d b27f f43c 21ce 14bd cae2 85bd
000000d0: 6c9b 893d a20c 1a3c 2894 f3bb 8f42 1f3d
000000e0: c45b d4bc dde2 953c 0d6b 8ebd 5a95 4b3d
000000f0: ef5d 4d3d 40f8 81bd 5ff7 bd3c be7f 253c
-0.020532036 -0.024150278 -0.023224099 -0.0058750627 0.061458938 -0.052199714 0.06763622 -0.033831943
0.011706111 -0.05541547 0.009105602 -0.059027754 -0.0674172 -0.030462125 0.04599681 -0.019504534
-0.02271593 0.018070664 0.03548133 0.029618863 -0.023546971 -0.07746614 0.047497913 -0.01971282
0.0031878073 0.02391191 -0.05647884 0.05472669 -0.020432603 0.033037882 0.004584131 0.021964435
-0.04967777 -0.043150663 -0.05037976 -0.0441258 0.04841685 0.05227901 -0.075858295 -0.01126147
-0.043820344 -0.030769967 -0.023040125 -7.490808e-05 0.017100176 0.077235036 0.071594484 0.00508683
0.05288593 0.029846046 -0.036329392 -0.06537397 0.067190975 0.009402426 -0.007433433 0.038881835
-0.025922664 0.018296653 -0.06954012 0.04970298 0.05013841 -0.06346178 0.023189245 0.010101257

arith.constant4 f4 [32]
00000000: 67ae acbb 3ab8 3b3c 8ceb 0abd b411 873d
00000010: 8b4d 783d 1e38 85bd 369f a43d 9260 21bd
00000020: fc68 26bd 30b4 613b a874 5c3d 3bb9 c8bc
00000030: 6710 25bb 3009 413d b7af 43bd eda8 e23c
00000040: 5e00 533c 51d6 2abd 15e5 9bbc ea76 49bb
00000050: d7e5 85bd 04e6 a7bd c7e1 febc 44d9 97bd
00000060: e1df e9bb fdac b5bd 4097 cabd ec53 5fbd
00000070: e86c 83bc 2e01 9dbd 14fc 82bd 2b50 e0bc
-0.005269814 0.011457497 -0.03391604 0.065951735 0.060620826 -0.06504844 0.080381796 -0.039398737
-0.040627465 0.0034439676 0.05382219 -0.024502387 -0.0025186779 0.047127903 -0.047774997 0.02766844
0.0128785055 -0.041708294 -0.019030133 -0.0030741044 -0.06537979 -0.08198169 -0.031113518 -0.07414487
-0.007137284 -0.088708855 -0.0989213 -0.054523394 -0.016043141 -0.07666241 -0.06395736 -0.027381977

arith.constant6 f4 [2]
00000000: acab 913d ad65 aebd
0.07112822 -0.08515487

arith.constant7 f4 [2, 1, 1, 128]
00000000: 0460 f9bd 833c a5bd 32eb a3bd 6dcc edbd
00000010: 0159 9b3d 9478 303d a9e2 6dbd 239f 3d3e
00000020: d7ec d3bd 4444 01bd 38ea 943d faf5 1a3d
00000030: 1f61 9fb9 b4ed f2bd e0c2 343d a187 20bd
00000040: db4c 883e 3be2 423e 90d7 00be b9d1 e8bc
00000050: 3f95 d53c f8b4 50bd 87a3 1a3e 1f79 74bd
00000060: 851a 243e 86ec 233e dc48 a13d 59ba c2bd
00000070: 692d 85bd 3ac5 883d e1ae c5bd 9898 08be
00000080: 556f e2bb 1cec 0fbe c90f 51bd f644 09be
00000090: 92f0 043e 30d8 343e e524 20be e56c f9bd
000000a0: df92 493e 6140 22be 17ad bfbd 6c96 22be
000000b0: 9622 7d3d 215b cbbd 82c6 46bd 893d 06be
000000c0: 690e c8bd 0708 043e 2e9b a3bc a173 c4bd
000000d0: 101e 2f3e a287 ffbd 25fb 34be 65b6 f4bd
000000e0: af49 08be 5c0a b6bd 5236 3dbe 0da8 fdbd
000000f0: 13c6 31be 2dd6 403e 1661 21be 10fd 2a3e
00000100: 2c17 3dbc 0fc3 003b 0bde 13be 6c81 0dbe
00000110: fe89 443e e329 3b3e 69f8 ebbd f9fa 48bd
00000120: 2cef 20be ba4f 11bd 3639 14bc 182e 683d
00000130: d789 553e 77fb 16be 2bf0 3abd 8469 e8bd
00000140: 1355 213e a664 08be 8315 713c 5e08 393e
00000150: 765b 0d3d c8b2 073e 50aa 8e3d 9e7e 343e
00000160: 7dd2 703d 8fc1 233e 2dae 8b3d de4e e3bd
00000170: 5464 3e3e 031d c4bd 0e39 f9bd 6e14 1f3e
00000180: d545 fcbd 6ac6 cfbd a917 423e 7097 4f3e
00000190: b8ea 953d 1968 e8bd 8142 323c 9ce7 3f3e
000001a0: 93f9 643e 719b 0abe 864b 273d 0148 473e
000001b0: 71ea 65bd da5a 093e d9f7 023e f2c2 a8bd
000001c0: 1e2b 99bd fdb1 f3bd 0660 c0bd 3ecf 09be
000001d0: 920c dabd 3772 5c3e ef7d e13d 5922 e3bd
000001e0: 8594 08be 0e93 143c 13ec f1bd 6dce 2e3d
000001f0: fe6e 303e 7609 60bd 1a48 f5bc 94cc f2bd
00000200: 6090 8f3d 0558 1e3e e727 163e d7fb 3f3d
00000210: b20e f53b 7980 e33c bb5c 59bd 3871 0ebe
00000220: f695 1b3e 870e 0f3e b4cd 6f3d af5b a1bd
00000230: bc64 a5bd bac7 4c3d 5ac9 a1bd 4835 50bd
00000240: c80c 99be cebe 41be 28fe 153e 3289 033e
00000250: f73b cabc 2a92 073e c571 04be 8e69 053e
00000260: 41be 26be d73a 4abe 96f1 60bd fb0a 063e
00000270: bf06 063e 052e 683d 8762 eb3d e736 033e
00000280: aaa8 41bc d3b0 5a3d 4c07 8bbd 7d06 123e
00000290: be99 0fbe f268 40be 3aaa 16bb 6e7f 3b3d
000002a0: e529 adbd e8b0 bc3d 9d18 a53d a5dc c73d
000002b0: 2037 083a 3d90 2b3e 243c 56bd bac7 083e
000002c0: 8634 843d 1fcd 2dbe 8993 0a3e 3c39 673d
000002d0: 55e9 bebd 14db 143e 5b09 9d3d d2c7 723d
000002e0: 8d2b b83d 0e0d 913d 470b 543e fd7a b03d
000002f0: 38c3 a63c 89d6 e2bd 9e40 ed3d b2ba 05be
00000300: d3a9 74bd 5835 40bc d797 e13b a744 883d
00000310: 7896 4fbe 6975 32be 8fcd bb3d b297 fc3d
00000320: dcf0 c23d 9ac0 ea3d e2e3 a9bc 5459 f6bc
00000330: b4e3 afbd b6b3 5b3c 863c 163e e971 b03d
00000340: dac5 fdbd 5eeb bc3d cc11 6c3c 22f6 35be
00000350: 7f80 72bc c6f0 4cbe 91fe 383c 8d5d 03be
00000360: b1a6 9bbd ca2f 22be 2bcd 42be 4a8b 123e
00000370: b242 f5bd a2ba dc3d 427e 0d3e 58fb 34be
00000380: 3343 033d b5a3 bc3d 0c52 d8bd e1be 43be
00000390: 9f2f 933c 8f54 883d 7648 8fbc cc18 e4bd
000003a0: 1ff5 d0bd 5c44 843d fc5c 843d 0771 cbbd
000003b0: 2cee bdbc d75d 27be 461c 2cbe 4155 bc3d
000003c0: 5496 af3d 6871 8b3d dad6 0b3e c458 793d
000003d0: 1148 f73d 4ec7 54be ab13 20be 09ee 963d
000003e0: 82af c63d 91fd 233e 9349 ca3d 3162 7e3d
000003f0: d6a6 51be e482 d73d 5772 78bd 7990 a73d
-0.12176517 -0.08068182 -0.08003844 -0.11611257 0.075853355 0.043083742 -0.058077488 0.18517737
-0.10347908 -0.031559244 0.07271236 0.037832238 -0.00030399204 -0.118617445 0.04413116 -0.039191846
0.26621136 0.19031613 -0.1258223 -0.028420316 0.026072143 -0.050953835 0.15101443 -0.059685823
0.16025741 0.16008195 0.07875225 -0.09508199 -0.06502802 0.06678243 -0.09652496 -0.1333946
-0.0069102445 -0.14054912 -0.051040445 -0.13405213 0.12982395 0.17660594 -0.15639074 -0.12178973
0.19684933 -0.15844871 -0.09359186 -0.15877694 0.06180056 -0.09929491 -0.048529156 -0.13109411
-0.097683735 0.12893687 -0.019971456 -0.09592367 0.17101312 -0.12477042 -0.17673929 -0.119488515
-0.13309358 -0.08888695 -0.18477753 -0.12385569 -0.17360716 0.18831702 -0.15759692 0.16698098
-0.011541169 0.0019647514 -0.14440171 -0.13818902 0.19193265 0.18277697 -0.1152199 -0.04906747
-0.15716237 -0.035476424 -0.009046843 0.056684583 0.20853363 -0.14744364 -0.0456392 -0.113482505
0.1575511 -0.13319644 0.014714601 0.18069598 0.034511052 0.13251793 0.06966078 0.17626426
0.058794487 0.15991805 0.06820331 -0.11099027 0.1859296 -0.09575846 -0.121690854 0.15535137
-0.12318007 -0.10145266 0.18954338 0.20272613 0.0732016 -0.1134798 0.010880114 0.18740696
0.2236083 -0.13535859 0.04084351 0.19461061 -0.056131784 0.13413563 0.12789859 -0.08240308
-0.07478927 -0.11899183 -0.09393315 -0.13457963 -0.10646929 0.21527945 0.11010348 -0.11090536
-0.13337906 0.009068264 -0.11812606 0.04267733 0.1722984 -0.054696523 -0.029941607 -0.118554264
0.07009959 0.15463264 0.14663659 0.046871033 0.0074785585 0.027771221 -0.05306695 -0.13910377
0.15193924 0.13970385 0.058545783 -0.078788154 -0.08075854 0.04999516 -0.07899733 -0.050832063
-0.29892564 -0.18920442 0.14647734 0.12845305 -0.024686797 0.13239351 -0.12934025 0.13028547
-0.16283514 -0.19749008 -0.054917894 0.13090126 0.13088511 0.056684513 0.11493402 0.12813912
-0.011819998 0.05339129 -0.06788501 0.14260288 -0.14023492 -0.18790033 -0.0022989647 0.045775823
-0.084552564 0.0921343 0.08061335 0.097588815 0.00051962025 0.16754241 -0.05230345 0.1335744
0.064553306 -0.16972779 0.13532843 0.056451067 -0.09321848 0.14536697 0.076678 0.059272595
0.08992682 0.07082568 0.20707427 0.08617208 0.02035676 -0.110760756 0.115845904 -0.130595
-0.05973227 -0.011731468 0.006884556 0.066537194 -0.20272243 -0.17427601 0.091700666 0.12333621
0.095185965 0.11462517 -0.020738546 -0.030071892 -0.08588353 0.013409546 0.14671525 0.08615477
-0.12391253 0.0922458 0.01440854 -0.17769673 -0.014801144 -0.20013723 0.011291162 -0.12828656
-0.07600153 -0.15838543 -0.19023578 0.14310947 -0.11975612 0.10777785 0.13817695 -0.17674005
0.032046508 0.09210912 -0.10562524 -0.19115783 0.017967043 0.06656753 -0.017490607 -0.11137542
-0.10203003 0.06458351 0.06463048 -0.09933668 -0.023184858 -0.16344391 -0.1680766 0.091959484
0.08573595 0.0680874 0.13656178 0.06087567 0.120742925 -0.20779154 -0.15632503 0.0736962
0.09701444 0.16014697 0.098773144 0.06210536 -0.20473799 0.10523012 -0.060655918 0.08181853

tfl.pseudo_qconst i1 [128, 3, 3, 64]
00000000: 1020 0206 3415 0ffe e90f 0900 1a10 080b
00000010: 0b1f a8ff 0f1d 2b1a 2316 1afc 1c20 0827
00000020: 072d 1901 03ff 0509 150a 120c 00f0 04e3
00000030: 1109 0402 3730 0bfb 0006 fef6 151c 10f7
00000040: 0d0f 19fd 3712 14eb fdec 0ef4 0922 03ec
00000050: 2009 bef5 f5fe f426 2ffb 2808 120e 1710
00000060: ef2f 2a23 f5e4 18fc f5fa f328 e508 fc0c
00000070: f7ed 1526 1321 0402 070c f5f2 f4fa 0ee9
00000080: 20fd 02fb 3615 f3fc def8 f8eb 000a ec07
00000090: 0b01 aef6 f4f1 051a 2ff6 20ee ff39 f20a
000000a0: db33 2709 0502 100a 0803 002f 0101 05e0
000000b0: effd 0d1b 2d17 0f05 fd25 09dc f4f5 10fa
000000c0: 1b0e 0e08 1b09 060e e606 ee03 1d16 fe12
000000d0: 0012 c709 0b04 2d1c 001e 1305 3401 fc26
000000e0: 0225 0303 f100 1828 0b07 f919 f9f7 1ae5
000000f0: 192e 160e 2740 19fe 1411 f0e1 0c14 0601
16 32 2 6 52 21 15 -2
-23 15 9 0 26 16 8 11
11 31 -88 -1 15 29 43 26
35 22 26 -4 28 32 8 39
7 45 25 1 3 -1 5 9
21 10 18 12 0 -16 4 -29
17 9 4 2 55 48 11 -5
0 6 -2 -10 21 28 16 -9
13 15 25 -3 55 18 20 -21
-3 -20 14 -12 9 34 3 -20
32 9 -66 -11 -11 -2 -12 38
47 -5 40 8 18 14 23 16
-17 47 42 35 -11 -28 24 -4
-11 -6 -13 40 -27 8 -4 12
-9 -19 21 38 19 33 4 2
7 12 -11 -14 -12 -6 14 -23
32 -3 2 -5 54 21 -13 -4
-34 -8 -8 -21 0 10 -20 7
11 1 -82 -10 -12 -15 5 26
47 -10 32 -18 -1 57 -14 10
-37 51 39 9 5 2 16 10
8 3 0 47 1 1 5 -32
-17 -3 13 27 45 23 15 5
-3 37 9 -36 -12 -11 16 -6
27 14 14 8 27 9 6 14
-26 6 -18 3 29 22 -2 18
0 18 -57 9 11 4 45 28
0 30 19 5 52 1 -4 38
2 37 3 3 -15 0 24 40
11 7 -7 25 -7 -9 26 -27
25 46 22 14 39 64 25 -2
20 17 -16 -31 12 20 6 1

tfl.pseudo_qconst1 i1 [64, 3, 3, 32]
00000000: d8f7 eb63 ea1b d615 09f4 0ee4 0c1e e401
00000010: e909 2803 1405 061a 1c33 0102 1b02 14fe
00000020: fffd 176d f4f9 e9fa 0124 2df6 0817 f711
00000030: fd18 1819 0df5 1c35 0b27 01fa 1e08 1a3e
00000040: 08eb 0771 fd0c 00e3 dd2c 0aff fafd 00db
00000050: 071d 200c fa1a 1f34 df05 1709 fbe3 e829
00000060: 0021 1583 e20f ebeb d5fe 1d17 f4f4 c704
00000070: 1101 1218 fdfd 1e01 f929 fdf7 1620 fbf5
00000080: fc08 0ea6 cc05 eb05 d2f0 2224 04f5 d0dd
00000090: f2fb 192b f92f 512f 1b30 24e9 10fd e810
000000a0: e31f 33ac bdfe d0e4 f520 21f8 eaf8 e1cc
000000b0: 010c 13f8 f802 1235 fb16 0b15 020c fe38
000000c0: 0304 0093 060f 141b fbda 24f7 0512 131b
000000d0: fef3 f6f5 29f9 0f10 150d 0028 2023 fd2a
000000e0: 220d 1d81 0104 fa12 f9fc 4904 fe14 0eeb
000000f0: 2029 250b f41b 362c 232f fb03 f7fc f927
-40 -9 -21 99 -22 27 -42 21
9 -12 14 -28 12 30 -28 1
-23 9 40 3 20 5 6 26
28 51 1 2 27 2 20 -2
-1 -3 23 109 -12 -7 -23 -6
1 36 45 -10 8 23 -9 17
-3 24 24 25 13 -11 28 53
11 39 1 -6 30 8 26 62
8 -21 7 113 -3 12 0 -29
-35 44 10 -1 -6 -3 0 -37
7 29 32 12 -6 26 31 52
-33 5 23 9 -5 -29 -24 41
0 33 21 -125 -30 15 -21 -21
-43 -2 29 23 -12 -12 -57 4
17 1 18 24 -3 -3 30 1
-7 41 -3 -9 22 32 -5 -11
-4 8 14 -90 -52 5 -21 5
-46 -16 34 36 4 -11 -48 -35
-14 -5 25 43 -7 47 81 47
27 48 36 -23 16 -3 -24 16
-29 31 51 -84 -67 -2 -48 -28
-11 32 33 -8 -22 -8 -31 -52
1 12 19 -8 -8 2 18 53
-5 22 11 21 2 12 -2 56
3 4 0 -109 6 15 20 27
-5 -38 36 -9 5 18 19 27
-2 -13 -10 -11 41 -7 15 16
21 13 0 40 32 35 -3 42
34 13 29 -127 1 4 -6 18
-7 -4 73 4 -2 20 14 -21
32 41 37 11 -12 27 54 44
35 47 -5 3 -9 -4 -7 39

tfl.pseudo_qconst2 i1 [32, 3, 3, 16]
00000000: d92a 1ae8 0a2b e52b fa1a e5cc 0e09 0305
00000010: 01e0 1ccc 0741 0327 f823 1dfc fe23 580f
00000020: 12ea 25f5 282e f3ff d608 f3f6 e415 3f19
00000030: 0a10 ffef 2753 dc10 fcdd dac4 f52a 2747
00000040: cdf6 f8e3 200d 0822 e209 2605 0810 7331
00000050: dfff 14f1 173b feff 12ff 26e8 12f5 3839
00000060: bb22 0e19 d52b 0e16 b822 c80d ff0f 1e3e
00000070: e02f e71e de22 e7e4 e549 d903 070b 7f1a
00000080: cd25 e5d0 1b08 130b eb24 e9ed 0de0 4f06
00000090: dade dd0f e406 1d11 f91b 0059 f6f0 3e1d
000000a0: e810 0611 0be8 1cff 1d1b f316 e2ec 2d04
000000b0: e3e7 0c33 01e4 ffff 1210 f826 ee04 1dcc
000000c0: e3e6 d53a fffc 1be8 f82c e32d f827 452f
000000d0: f3eb 0542 0204 fa14 fe1e 0f3d ff26 1bf2
000000e0: d80e 1b0e f718 0511 1816 ff06 de2b fde7
000000f0: f419 e722 102a f0fa 0f27 f521 f522 7d24
-39 42 26 -24 10 43 -27 43
-6 26 -27 -52 14 9 3 5
1 -32 28 -52 7 65 3 39
-8 35 29 -4 -2 35 88 15
18 -22 37 -11 40 46 -13 -1
-42 8 -13 -10 -28 21 63 25
10 16 -1 -17 39 83 -36 16
-4 -35 -38 -60 -11 42 39 71
-51 -10 -8 -29 32 13 8 34
-30 9 38 5 8 16 115 49
-33 -1 20 -15 23 59 -2 -1
18 -1 38 -24 18 -11 56 57
-69 34 14 25 -43 43 14 22
-72 34 -56 13 -1 15 30 62
-32 47 -25 30 -34 34 -25 -28
-27 73 -39 3 7 11 127 26
-51 37 -27 -48 27 8 19 11
-21 36 -23 -19 13 -32 79 6
-38 -34 -35 15 -28 6 29 17
-7 27 0 89 -10 -16 62 29
-24 16 6 17 11 -24 28 -1
29 27 -13 22 -30 -20 45 4
-29 -25 12 51 1 -28 -1 -1
18 16 -8 38 -18 4 29 -52
-29 -26 -43 58 -1 -4 27 -24
-8 44 -29 45 -8 39 69 47
-13 -21 5 66 2 4 -6 20
-2 30 15 61 -1 38 27 -14
-40 14 27 14 -9 24 5 17
24 22 -1 6 -34 43 -3 -25
-12 25 -25 34 16 42 -16 -6
15 39 -11 33 -11 34 125 36
