Neural_network/pytorch_tflite_convert/model/output/onnx_model_float16.tflite (tflite, 200308 bytes, 9 tensors)

arith.constant f2 [16]
000000 a6 2c b7 31 32 29 28 29 01 97 da ae d9 2f c5 a8
       0.07263 0.1786 0.0406 0.04028 -0.00171 -0.10706 0.1226 -0.03726
000010 f2 af 8e b0 44 b3 6d ad c8 30 80 9d f4 af c0 ad
       -0.12415 -0.1423 -0.227 -0.0848 0.1494 -0.00537 -0.12427 -0.08984

arith.constant1 f2 [16, 3, 3, 3]
000000 46 22 68 b0 ae b0 95 b2 1f 31 9c b1 a2 a3 72 29
       0.01225 -0.1377 -0.1462 -0.2057 0.16 -0.1753 -0.01491 0.04254
000010 43 31 f2 2e 06 19 04 1b 5d b0 18 af 5a 2d 02 af
       0.1644 0.1085 0.002453 0.003426 -0.1364 -0.11084 0.0836 -0.1095
000020 7c 26 06 2d 38 b1 36 30 4a 31 b7 ac e1 2d aa ac
       0.02533 0.0785 -0.1631 0.1316 0.1653 -0.07367 0.09186 -0.0729
000030 26 31 ca 31 d9 30 da af 99 2f b5 24 4f 9e 93 a6
       0.1609 0.1809 0.1515 -0.1227 0.1187 0.01839 -0.00616 -0.02568
000040 57 ac 35 31 33 2e 80 a9 01 2d 09 ac a1 ac 6b b0
       -0.0678 0.1627 0.09686 -0.04297 0.0782 -0.06305 -0.0723 -0.1381
000050 9a 30 09 b2 45 30 da 2a 66 30 1f 2c a6 ac 43 29
       0.1438 -0.1886 0.1334 0.05353 0.1375 0.0644 -0.07263 0.0411
000060 2e a5 2a ab a1 ae 26 b3 4a af 03 b0 5c 29 f6 2f
       -0.02023 -0.05597 -0.1036 -0.2234 -0.1139 -0.1254 0.04187 0.1244
000070 61 a7 84 31 3f 29 d3 aa b5 2b 02 32 3e 2f 51 30
       -0.02882 0.1724 0.041 -0.0533 0.0602 0.1877 0.11316 0.1349
000080 8d 24 ab b2 24 a5 a8 b1 06 af b7 a3 b9 af fb a9
       0.01778 -0.2084 -0.02008 -0.1768 -0.10974 -0.01507 -0.12067 -0.04672
000090 ab 2c 8c 2f c9 a9 34 af 84 ad 2b a9 42 2c 75 30
       0.07294 0.1179 -0.0452 -0.11255 -0.0862 -0.04037 0.0665 0.1393
0000a0 36 ac 13 31 6a a8 4d af 20 a9 e6 14 7d b1 f8 31
       -0.0658 0.1586 -0.0345 -0.1141 -0.04004 0.001196 -0.1715 0.1865
0000b0 59 a5 7b af 1e 31 cc b0 47 b2 15 31 7d b1 9e b2
       -0.02089 -0.1169 0.1599 -0.1499 -0.1962 0.1588 -0.1715 -0.2068
0000c0 c3 ad 46 a9 9e 1d eb 31 47 a9 1f 29 af 2b df a8
       -0.09 -0.0412 0.005486 0.1849 -0.04123 0.04 0.06003 -0.03806
0000d0 d1 ac a6 32 4f af 4f b1 a3 b0 54 31 e7 2d a4 a4
       -0.07526 0.2078 -0.1142 -0.1659 -0.1449 0.1665 0.0922 -0.01813
0000e0 b8 30 1c a7 83 ad 7c b2 55 2f 0d 31 4b 9f bc 30
       0.1475 -0.02777 -0.0861 -0.2026 0.11456 0.1578 -0.007122 0.148
0000f0 1e aa 6d 30 eb ad 5d 31 62 2f 41 29 fc 2e f5 b1
       -0.0478 0.1383 -0.09247 0.1676 0.11536 0.04105 0.10913 -0.1862
000100 cb b0 4b 2e 13 2e ab af ac ac 35 b0 33 28 25 2e
       -0.1498 0.0983 0.0949 -0.1198 -0.073 -0.1315 0.0328 0.096
000110 e5 2c 65 b0 ea b1 8b ad 2b b0 72 b0 4e a8 c6 20
       0.0765 -0.1373 -0.1848 -0.0866 -0.1302 -0.1389 -0.03363 0.00932
000120 89 31 c2 af 4d 1c d4 18 ad 32 41 24 48 30 78 31
       0.173 -0.1212 0.0042 0.002357 0.2086 0.01662 0.1338 0.1709
000130 83 2d 21 22 10 ac fb a4 9e 2a 8b 2c 78 b0 ac ae
       0.0861 0.01197 -0.0635 -0.01945 0.0517 0.071 -0.1396 -0.10425
000140 de a8 28 30 b6 2d b8 af 3c 23 37 ac 68 2c 6a 2f
       -0.03802 0.1299 0.08923 -0.1206 0.01413 -0.06586 0.06885 0.11584
000150 4b 20 dd b2 8b 31 94 b0 5e a6 c7 32 0d b0 97 9c
       0.008385 -0.2145 0.1732 -0.1431 -0.02487 0.2118 -0.1266 -0.004482
000160 59 a5 16 a9 76 28 ac ac 26 b4 dc a9 aa aa c6 2d
       -0.02089 -0.03973 0.03485 -0.073 -0.2593 -0.04578 -0.05206 0.0902
000170 d3 b2 d1 2e 0b 30 6f 30 e5 ab 22 28 10 af df 31
       -0.2133 0.1065 0.1263 0.1385 -0.06168 0.0323 -0.11035 0.1835
000180 69 30 44 a8 55 94 44 b1 91 29 ad 30 1a b0 81 2d
       0.1378 -0.03333 -0.001058 -0.1646 0.0435 0.1461 -0.1282 0.086
000190 01 18 7c ad de 2a 56 b0 18 af 31 2a d2 ac 10 2f
       0.001955 -0.0857 0.05365 -0.1355 -0.11084 0.04837 -0.0753 0.11035
0001a0 3b 32 de 30 25 21 a6 2a 70 ae f9 af d0 32 5b b0
       0.1947 0.1521 0.01005 0.05194 -0.1006 -0.1246 0.2129 -0.1361
0001b0 53 30 77 20 30 a9 8f a6 07 a4 bc 2e 82 aa 0d b0
       0.1351 0.00872 -0.04053 -0.02562 -0.01573 0.1052 -0.05084 -0.1266
0001c0 c9 b0 95 29 52 b0 6b 2d 23 2d 34 a9 3d 2f ff b0
       -0.1495 0.0436 -0.135 0.08466 0.08026 -0.04065 0.1131 -0.1561
0001d0 42 ae 0c af f4 31 4c 30 5c 2a a1 31 f3 27 b8 1e
       -0.0978 -0.1101 0.186 0.1343 0.04968 0.1759 0.03105 0.00656
0001e0 27 2f a4 b0 09 16 1b b0 60 22 f3 27 eb 2e 23 af
       0.11176 -0.145 0.001473 -0.1283 0.01245 0.03105 0.1081 -0.1115
0001f0 18 a1 25 31 e1 21 3c 29 92 b2 26 ae ac ae b2 a5
       -0.00995 0.1608 0.01148 0.0409 -0.2053 -0.09607 -0.10425 -0.02225

arith.constant2 f2 [32, 3, 3, 16]
000000 a4 ad 16 2e 79 2b f8 aa fa 25 3c 2e f6 ab 51 2e
       -0.08813 0.0951 0.05838 -0.05444 0.02335 0.0974 -0.0622 0.0987
000010 41 a3 a9 2b fb ab 98 af 0b 28 26 25 ee 1f 6f 22
       -0.01417 0.05984 -0.06235 -0.11865 0.0316 0.02011 0.007744 0.012566
000020 13 18 b4 ac 26 2c 8f af 58 24 be 30 94 1e c6 2d
       0.00199 -0.0735 0.0648 -0.1181 0.01697 0.1482 0.006424 0.0902
000030 9b a4 27 2d 43 2c 5d a0 75 9c 11 2d 6f 32 7c 28
       -0.01799 0.0805 0.0666 -0.00852 -0.004353 0.07916 0.201 0.03503
000040 69 29 93 aa 7d 2d 4b a6 d9 2d be 2e e0 a7 b4 95
       0.04227 -0.05136 0.08575 -0.02458 0.0914 0.10535 -0.03076 -0.001392
000050 19 ae 73 24 8f a7 1f a6 2b ac 42 2a a4 30 39 2b
       -0.0953 0.01738 -0.02953 -0.02391 -0.0651 0.0489 0.145 0.05643
000060 ad 25 cc 28 7d 99 e3 a8 ab 2d 19 32 40 ad ce 28
       0.02217 0.03748 -0.00268 -0.03818 0.08856 0.1906 -0.08203 0.03754
000070 39 a1 0e ad 88 ad 60 b0 a9 a6 1b 2e bf 2d 2a 31
       -0.0102 -0.079 -0.0864 -0.1367 -0.02602 0.0954 0.0898 0.1614
000080 7c af db a5 d8 a4 33 ac ad 2c c7 27 9f 24 f8 2c
       -0.11694 -0.02287 -0.01892 -0.0656 0.07306 0.03038 0.01805 0.07764
000090 72 ac 32 25 89 2d 8a 21 86 24 ac 28 34 34 2e 2f
       -0.06946 0.0203 0.0865 0.01082 0.01767 0.0365 0.2627 0.1122
0000a0 d9 ac 14 95 cd 29 55 a8 a9 2a 57 30 f4 9b bc 98
       -0.07574 -0.00124 0.04532 -0.03384 0.05203 0.1356 -0.003883 -0.002312
0000b0 2e 29 ef 99 9e 2d 2b ab 5f 29 6f a6 1a 30 2e 30
       0.04047 -0.002897 0.08777 -0.056 0.04196 -0.02513 0.1282 0.1306
0000c0 05 b1 07 2d 17 28 5f 2b 4a ae 42 2e 05 28 5d 2a
       -0.1569 0.07855 0.03195 0.0576 -0.09827 0.0978 0.0314 0.0497
0000d0 43 b1 08 2d 17 b0 c1 27 90 99 7e 28 6e 2c 89 30
       -0.1644 0.0786 -0.1278 0.03029 -0.002716 0.0351 0.0692 0.1417
0000e0 ac ac d2 2e 4f ab 54 2c f5 ac 00 2d 3a ab 1e ac
       -0.073 0.10657 -0.0571 0.0676 -0.07745 0.0781 -0.05646 -0.06433
0000f0 d7 ab 5e 31 c1 ad eb 1e 2e 24 54 26 a6 34 a8 2b
       -0.06125 0.1677 -0.0899 0.006756 0.01633 0.02472 0.2905 0.0598
000100 71 af 77 2d e3 ab fc ae c3 2b ca 24 70 29 45 26
       -0.1163 0.0854 -0.0616 -0.10913 0.06064 0.0187 0.04248 0.02449
000110 1d aa 53 2d b3 aa ac a9 c6 27 b6 ac c6 31 34 23
       -0.04776 0.0832 -0.05234 -0.0443 0.03036 -0.0736 0.1804 0.01407
000120 b6 ae 27 ae 4e ae 47 29 f1 ac 1e 24 1d 2d 11 2a
       -0.10486 -0.0961 -0.0985 0.04123 -0.0772 0.01608 0.0799 0.0474
000130 39 a5 c1 2c 1f 81 f5 33 01 a7 a4 a9 93 31 18 2d
       -0.0204 0.0743 -1.71e-05 0.2487 -0.02736 -0.04407 0.1742 0.0796
000140 51 ac c3 29 8d 24 2c 2a 04 28 4a ac eb 2c 47 9a
       -0.06744 0.045 0.01778 0.04822 0.03137 -0.067 0.07684 -0.003065
000150 39 2d d1 2c a5 a8 b8 2b 5f ad 28 ab 0e 30 b8 21
       0.0816 0.07526 -0.0363 0.0603 -0.0839 -0.0559 0.1267 0.01117
000160 1d ad 7c ac 1d 28 8e 30 79 16 ec ac 22 99 6f 98
       -0.0799 -0.07007 0.03214 0.1423 0.00158 -0.0769 -0.002506 -0.002165
000170 65 2a 99 29 eb a5 c4 2e 6b aa e5 21 1c 2d aa b0
       0.04996 0.04373 -0.02312 0.1057 -0.05014 0.01151 0.07983 -0.1458
000180 28 ad a7 ac 9f af 35 31 c9 96 39 a1 d8 2c 55 ac
       -0.08057 -0.0727 -0.1191 0.1627 -0.001657 -0.0102 0.0757 -0.0677
000190 e6 a5 d2 2f 20 ad 10 30 e7 a5 fd 2e 2c 32 32 30
       -0.02304 0.1222 -0.0801 0.127 -0.02306 0.1092 0.1929 0.1311
0001a0 b2 a8 87 ab fe 22 eb 31 68 1e 02 21 a3 a4 1b 2b
       -0.03668 -0.0588 0.01366 0.1849 0.006256 0.00978 -0.01811 0.0555
0001b0 59 9e 54 2d 46 29 75 31 46 96 cf 2e d0 2c 1d a9
       -0.0062 0.08325 0.0412 0.1705 -0.001532 0.1064 0.0752 -0.03995
0001c0 3b af e6 28 c0 2c f5 28 6d a6 4f 2c 93 23 30 2a
       -0.113 0.03827 0.0742 0.03873 -0.0251 0.0673 0.01479 0.04834
0001d0 3f 2c e0 2b b1 9a 28 24 23 ae 98 2f f7 a0 8a ac
       0.06635 0.06152 -0.003267 0.01624 -0.0959 0.11865 -0.0097 -0.0709
0001e0 5f a8 6e 2c 75 ac 0a 2e b6 29 94 2f 9c a9 08 a4
       -0.03415 0.0692 -0.06964 0.09436 0.04462 0.1184 -0.04382 -0.01575
0001f0 84 29 02 2f e5 a7 fb 2d 85 a7 fe 2d 91 35 5a 2e
       0.0431 0.1095 -0.03084 0.09344 -0.02937 0.0936 0.348 0.09924

arith.constant3 f2 [64, 3, 3, 32]
000000 22 ad 88 a4 46 a9 4d 32 79 a9 d6 2a 4a ad 50 29
       -0.0802 -0.0177 -0.0412 0.1969 -0.04276 0.0534 -0.08264 0.0415
000010 c2 24 e7 a5 58 27 06 ab 26 26 ab 2b 34 ab 56 18
       0.01859 -0.02306 0.02869 -0.05487 0.02402 0.0599 -0.05627 0.002117
000020 f5 a9 d1 24 1d 2d 94 1e 2f 29 36 21 64 22 9f 2a
       -0.04654 0.01881 0.0799 0.006424 0.0405 0.01018 0.01248 0.05173
000030 2b 2b 82 2e 9c 19 a7 1c be 2a 6d 1a 0b 29 a5 9a
       0.056 0.1017 0.002739 0.004543 0.05267 0.003138 0.0394 -0.003244
000040 e9 98 cf 9d b8 29 e8 32 25 a6 0a a3 f3 a9 b1 a1
       -0.002398 -0.005672 0.04468 0.2158 -0.024 -0.01375 -0.04648 -0.011116
000050 45 15 91 2c bf 2d e3 a4 03 24 f9 29 86 a4 68 28
       0.0012865 0.07135 0.0898 -0.01909 0.01567 0.04666 -0.01767 0.03442
000060 7c 9e 35 2a ff 29 45 2a bd 26 73 a5 33 2b b5 2e
       -0.006332 0.0485 0.04684 0.04898 0.02632 -0.02129 0.05624 0.1048
000070 d5 25 f5 2c ee 18 79 a2 a9 2b 30 24 b8 2a e7 2f
       0.02278 0.07745 0.002407 -0.01264 0.05984 0.01636 0.0525 0.1235
000080 0c 24 63 a9 1f 23 2b 33 4b 9d df 25 80 0e 74 ab
       0.01581 -0.04208 0.01391 0.224 -0.00517 0.02293 0.0003967 -0.05823
000090 6f ac 92 2d d5 24 d2 95 71 a2 24 9d 4b 90 b7 ac
       -0.0693 0.08704 0.01888 -0.001421 -0.01258 -0.00502 -0.000524 -0.07367
0000a0 8a 23 67 2b 02 2c 31 26 fb a1 a7 2a da 2b 97 2e
       0.014725 0.05783 0.0626 0.02419 -0.01168 0.05197 0.06134 0.10297
0000b0 2d ac 82 21 f5 29 b4 24 8c a1 4d ab 35 aa 31 2d
       -0.06525 0.01076 0.04654 0.01837 -0.01083 -0.05704 -0.0485 0.0811
0000c0 91 93 3a 2c 3f 29 eb b3 9c ab 62 27 66 a9 5c a9
       -0.0009236 0.06604 0.041 -0.2474 -0.05945 0.02884 -0.04218 -0.04187
0000d0 81 ad 86 9a 63 2b bc 29 0f a6 2b a6 34 af e6 1f
       -0.086 -0.003185 0.0577 0.0448 -0.02367 -0.0241 -0.11255 0.007713
0000e0 43 28 71 16 80 28 fd 29 2b 9d 4b 9e a2 2b 02 18
       0.0333 0.001573 0.03516 0.04678 -0.005047 -0.006145 0.05963 0.001957
0000f0 b2 a2 41 2d 8b 9d ce a4 b4 29 1e 2c 89 a1 b4 a5
       -0.01308 0.0821 -0.005413 -0.01877 0.04456 0.06433 -0.01081 -0.02228
000100 20 9f c0 23 e2 26 b7 b1 a8 ae f8 20 5f a9 a5 20
       -0.006958 0.01514 0.02689 -0.1786 -0.104 0.009705 -0.04196 0.00907
000110 ca ad f3 a7 5d 2c 9c 2c 29 1f be a5 1d ae 80 ac
       -0.09045 -0.03105 0.0682 0.072 0.006992 -0.02243 -0.0955 -0.0703
000120 4c a7 de a0 4b 2a 69 2d a0 a2 f8 2d 25 31 fc 2d
       -0.0285 -0.00951 0.04916 0.08453 -0.01294 0.09326 0.1608 0.0935
000130 e6 2a 1e 2e 93 2c ba a9 1a 28 91 9d 28 aa 02 28
       0.0539 0.0956 0.0715 -0.04474 0.03204 -0.005436 -0.0481 0.0313
000140 5e ab c1 2b 74 2e 5e b1 42 b0 8c 9b 15 ae 3b ab
       -0.05756 0.06058 0.1008 -0.1677 -0.133 -0.003685 -0.09503 -0.0565
000150 5c a5 11 2c 29 2c b2 a3 89 a9 0a a4 dc ab 9d ae
       -0.02094 0.06354 0.065 -0.01503 -0.04324 -0.01578 -0.0614 -0.10333
000160 a5 19 1f 26 df 28 2f a4 bd a3 8a 1a ac 28 bd 2e
       0.002756 0.02391 0.03806 -0.01634 -0.015114 0.003193 0.0365 0.1053
000170 a9 a0 a5 29 98 25 70 29 ea 1c 14 26 d5 9a 25 2f
       -0.0091 0.0441 0.02185 0.04248 0.0048 0.02374 -0.003336 0.11163
000180 8c 1d 43 1f 5b 8e e7 b2 ba 21 6b 27 29 29 cc 2a
       0.005417 0.00709 -0.000388 -0.2157 0.011185 0.02898 0.0403 0.0531
000190 13 a1 e4 ac 9b 2c cb a4 61 21 89 28 d5 28 f1 2a
       -0.00991 -0.0764 0.07196 -0.01872 0.010506 0.03543 0.03775 0.05423
0001a0 8c 9b 9d a6 2d a5 61 a5 34 2d 21 a3 90 27 2e 28
       -0.003685 -0.02583 -0.02022 -0.02101 0.0813 -0.01392 0.02954 0.03265
0001b0 5b 29 90 26 5d 11 0b 2d 13 2c 75 2c e0 9d 66 2d
       0.04184 0.02563 0.0006547 0.0788 0.06366 0.06964 -0.005737 0.08435
0001c0 43 2c 95 26 48 2b 09 b4 ab 19 65 1f f6 a1 76 28
       0.0666 0.02571 0.0569 -0.2522 0.002768 0.00722 -0.01164 0.03485
0001d0 4e a3 5c 9f 9e 30 5b 1f fd 9a 30 29 e1 26 39 a9
       -0.01427 -0.007187 0.1443 0.007183 -0.003412 0.04053 0.02687 -0.0408
0001e0 03 2c 32 2d b8 2c be 25 16 a6 dd 2a e9 2e 9b 2d
       0.0627 0.0812 0.0737 0.02243 -0.02377 0.05362 0.108 0.0876
0001f0 6e 2c ef 2d 7d a1 47 1d c9 a4 71 a0 26 a3 03 2d
       0.0692 0.0927 -0.01072 0.005154 -0.01869 -0.008675 -0.01396 0.0783

arith.constant4 f2 [128, 3, 3, 64]
000000 a4 28 aa 2c 4f 1c 97 22 b1 2f 2c 2a 64 28 5c 9b
       0.03625 0.0729 0.004208 0.01287 0.1202 0.04822 0.0343 -0.003593
000010 df aa 6c 28 3d 25 e0 82 ad 2b d7 28 7d 24 97 26
       -0.05368 0.03455 0.02046 -4.387e-05 0.05997 0.0378 0.01753 0.02574
000020 8c 26 99 2c 87 b2 48 99 85 28 3c 2c 53 2e b2 2b
       0.02557 0.07184 -0.204 -0.002579 0.0353 0.06616 0.0988 0.06012
000030 35 2d 5e 2a a9 2b ea a0 1c 2c bb 2c 83 24 bf 2d
       0.08136 0.04974 0.05984 -0.0096 0.0642 0.0739 0.01762 0.0898
000040 4c 24 ad 2e 6d 2b e7 1a 8b 1e fa 99 6b 21 66 25
       0.01678 0.1043 0.058 0.00337 0.00639 -0.002918 0.01058 0.02109
000050 52 2a d1 25 3e 29 2a 27 e1 85 de a8 a5 20 54 ac
       0.04938 0.02272 0.04095 0.02798 -8.97e-05 -0.03802 0.00907 -0.0676
000060 28 29 6e 25 35 21 27 1c 0f 30 0b 2f 38 26 00 a2
       0.04028 0.02121 0.01017 0.004055 0.1268 0.11005 0.02429 -0.01172
000070 22 91 f8 22 ce 9d 27 a6 3b 2a 34 2c 99 28 70 a5
       -0.0006266 0.01361 -0.00567 -0.02403 0.04868 0.0657 0.03592 -0.02124
000080 89 27 5e 28 58 2b c2 9e 0f 30 6c 29 ed 29 58 aa
       0.02943 0.03412 0.05737 -0.0066 0.1268 0.04236 0.0463 -0.04956
000090 1b a0 f6 a9 08 28 15 a7 93 25 07 2d 53 1f d9 a9
       -0.00802 -0.04657 0.0315 -0.02766 0.02177 0.07855 0.007153 -0.0457
0000a0 b5 2c 78 25 dc b0 a3 a6 5d a6 ba 9b 5c a7 90 2d
       0.07355 0.02136 -0.1519 -0.02592 -0.02486 -0.003773 -0.02875 0.0869
0000b0 ee 2e ed a1 f3 2d fe 24 3e 29 30 28 bf 2a aa 28
       0.1083 -0.01157 0.09296 0.0195 0.04095 0.0327 0.0527 0.03644
0000c0 05 a9 03 2f 47 2e 3d 2d 64 a6 28 ac 25 2b af a0
       -0.0392 0.10956 0.0981 0.08185 -0.02496 -0.06494 0.05582 -0.00915
0000d0 3a a6 c7 a2 da a7 dc 2d d6 ab 91 24 3d a0 33 27
       -0.02432 -0.01324 -0.03067 0.09155 -0.06122 0.01784 -0.00828 0.02812
0000e0 36 a5 7e a9 2b 2a 91 2d 9a 29 ed 2c 4d 21 d3 1c
       -0.02036 -0.0429 0.0482 0.087 0.04376 0.07697 0.01035 0.00471
0000f0 65 24 eb 26 66 a6 29 a8 06 a7 bc a2 01 28 a7 aa
       0.01717 0.02702 -0.025 -0.0325 -0.02744 -0.01315 0.03128 -0.05197
000100 c5 2c 01 9f 7f 1c e4 a1 06 30 29 2a e1 a7 c9 a0
       0.0745 -0.00684 0.00439 -0.011505 0.1257 0.04813 -0.03078 -0.009346
000110 00 ad 95 a4 96 a4 13 aa 7a 89 e6 25 ea a9 be 23
       -0.0781 -0.0179 -0.01791 -0.04745 -0.0001671 0.02304 -0.0462 0.01512
000120 a0 26 70 15 19 b2 07 a6 1f a7 63 a8 ac 21 cf 2b
       0.02588 0.0013275 -0.1906 -0.02354 -0.02782 -0.03427 0.01108 0.061
000130 f7 2e e2 a5 b9 2c 64 a9 3c 98 39 30 0b a8 fc 25
       0.1088 -0.02298 0.0738 -0.0421 -0.002068 0.132 -0.0316 0.02338
000140 6f ad 7a 2f ca 2d 8d 25 3a 22 84 1c d6 28 00 26
       -0.0849 0.1168 0.09045 0.02168 0.01216 0.00441 0.03778 0.02344
000150 8e 24 67 1e 5c 0e e2 2e 42 1a 5d 1a 01 22 b0 ac
       0.01779 0.006252 0.0003881 0.10754 0.003056 0.003107 0.01173 -0.07324
000160 26 a9 af 9f 73 27 e0 2b af 2e d6 2a 81 28 3b 22
       -0.04022 -0.007504 0.0291 0.06152 0.10443 0.0534 0.0352 0.01217
000170 0b a0 7e 2d 56 25 53 ad 50 a7 47 a6 dc 28 9b a3
       -0.0079 0.0858 0.02084 -0.0832 -0.02856 -0.02452 0.03796 -0.014854
000180 e8 2b 43 28 27 28 c3 24 00 2c 8a 25 9c 22 21 28
       0.06177 0.0333 0.03244 0.0186 0.0625 0.02164 0.01291 0.03226
000190 ae ab 5a 23 62 a9 0f 1f 58 2c 6f 2a f7 9c 71 29
       -0.06 0.01436 -0.04205 0.006893 0.0679 0.05026 -0.00485 0.0425
0001a0 fa 91 6a 29 2e b0 42 25 ae 26 d4 20 a5 2e 2e 2c
       -0.0007296 0.0423 -0.1306 0.02054 0.0261 0.00943 0.1038 0.0653
0001b0 bf 0b 63 2c 86 29 52 22 9d 2f b6 17 cf a0 a4 2d
       0.0002364 0.06854 0.04315 0.012344 0.11896 0.001883 -0.00939 0.08813
0001c0 0a 1d 80 2d 0a 20 a0 1f 4b a8 9a 8d 2b 2b df 2d
       0.00492 0.08594 0.00789 0.007446 -0.03354 -0.000342 0.056 0.09174
0001d0 7b 26 1a 24 ed a3 3f 2b 2a a4 6a a5 8d 2b 0a ac
       0.02531 0.01602 -0.01548 0.0566 -0.01627 -0.02115 0.059 -0.0631
0001e0 80 2b ca 2e 84 2a 45 28 d5 2d c1 30 57 2b b9 9c
       0.0586 0.1061 0.0509 0.03336 0.0911 0.1486 0.05734 -0.004612
0001f0 f3 29 01 29 ce a8 88 ac 18 27 e6 29 03 23 0f 16
       0.04648 0.0391 -0.03754 -0.0708 0.02771 0.04608 0.013695 0.001479

arith.constant5 f2 [2, 1, 1, 128]
000000 cb af 2a ad 1f ad 6e af db 2c 84 29 6f ab ed 31
       -0.12177 -0.0807 -0.08 -0.1161 0.07587 0.0431 -0.05807 0.1852
000010 9f ae 0a a8 a7 2c d8 28 fb 8c 97 af a6 29 04 a9
       -0.10345 -0.03156 0.0727 0.03784 -0.000304 -0.1186 0.04413 -0.03918
000020 42 34 17 32 07 b0 47 a7 ad 26 86 aa d5 30 a4 ab
       0.266 0.1903 -0.1259 -0.02843 0.02608 -0.05096 0.151 -0.0597
000030 21 31 1f 31 0a 2d 16 ae 29 ac 46 2c 2d ae 45 b0
       0.1603 0.16 0.07874 -0.0951 -0.065 0.0668 -0.0965 -0.1334
000040 13 9f 7f b0 88 aa 4a b0 28 30 a7 31 01 b1 cb af
       -0.00691 -0.1405 -0.05103 -0.134 0.1299 0.1766 -0.1564 -0.12177
000050 4d 32 12 b1 fd ad 15 b1 e9 2b 5b ae 36 aa 32 b0
       0.1969 -0.1584 -0.09357 -0.1588 0.0618 -0.0993 -0.04852 -0.1311
000060 40 ae 20 30 1d a5 24 ae 79 31 fc af a8 b1 a6 af
       -0.09766 0.1289 -0.01997 -0.09595 0.171 -0.12476 -0.1768 -0.1195
000070 42 b0 b0 ad ea b1 ed af 8e b1 07 32 0b b1 58 31
       -0.133 -0.08887 -0.1848 -0.12384 -0.1736 0.1884 -0.1576 0.167
000080 e9 a1 06 18 9f b0 6c b0 24 32 d9 31 60 af 48 aa
       -0.01154 0.001965 -0.1444 -0.1382 0.1919 0.1827 -0.11523 -0.04907
000090 07 b1 8a a8 a2 a0 41 2b ac 32 b8 b0 d8 a9 43 af
       -0.1571 -0.03546 -0.00905 0.05667 0.2085 -0.1475 -0.04565 -0.11346
0000a0 0b 31 43 b0 89 23 c8 31 6b 28 3e 30 75 2c a4 31
       0.1576 -0.1332 0.01472 0.1807 0.03452 0.1326 0.06964 0.1763
0000b0 87 2b 1e 31 5d 2c 1a af f3 31 21 ae ca af f9 30
       0.0588 0.1599 0.0682 -0.11096 0.1859 -0.09576 -0.1217 0.1554
0000c0 e2 af 7e ae 11 32 7d 32 af 2c 43 af 92 21 ff 31
       -0.12317 -0.10144 0.1896 0.2028 0.0732 -0.11346 0.01088 0.1874
0000d0 28 33 55 b0 3a 29 3a 32 2f ab 4b 30 18 30 46 ad
       0.2236 -0.1354 0.04083 0.1946 -0.05612 0.1342 0.1279 -0.0824
0000e0 c9 ac 9e af 03 ae 4e b0 d0 ae e4 32 0c 2f 19 af
       -0.07477 -0.119 -0.09393 -0.1345 -0.10645 0.2153 0.1101 -0.1109
0000f0 45 b0 a5 20 8f af 76 29 83 31 00 ab aa a7 96 af
       -0.1334 0.00907 -0.1181 0.04266 0.1722 -0.0547 -0.02994 -0.1185
000100 7d 2c f3 30 b1 30 00 2a a8 1f 1c 27 cb aa 74 b0
       0.0701 0.1547 0.1466 0.04688 0.007477 0.02777 -0.05307 -0.1392
000110 dd 30 78 30 7e 2b 0b ad 2b ad 66 2a 0e ad 82 aa
       0.152 0.1396 0.05853 -0.0788 -0.08075 0.05 -0.079 -0.05084
000120 c8 b4 0e b2 b0 30 1c 30 52 a6 3d 30 24 b0 2b 30
       -0.2988 -0.1892 0.1465 0.1284 -0.02469 0.1324 -0.1294 0.1302
000130 36 b1 52 b2 08 ab 30 30 30 30 41 2b 5b 2f 1a 30
       -0.1628 -0.1975 -0.05493 0.1309 0.1309 0.05667 0.1149 0.1282
000140 0d a2 d6 2a 58 ac 90 30 7d b0 03 b2 b5 98 dc 29
       -0.01182 0.0534 -0.0679 0.1426 -0.1403 -0.1879 -0.002298 0.04578
000150 69 ad e6 2d 29 2d 3f 2e 42 10 5d 31 b2 aa 46 30
       -0.08453 0.09216 0.0806 0.0976 0.0005198 0.1676 -0.0523 0.1335
000160 22 2c 6e b1 55 30 3a 2b f7 ad a7 30 e8 2c 96 2b
       0.0646 -0.1697 0.1354 0.05646 -0.0932 0.1454 0.07666 0.05927
000170 c1 2d 88 2c a0 32 84 2d 36 25 17 af 6a 2f 2e b0
       0.0899 0.0708 0.207 0.0862 0.02036 -0.1108 0.11584 -0.1306
000180 a5 ab 02 a2 0d 1f 42 2c 7d b2 94 b1 de 2d e5 2f
       -0.05972 -0.011734 0.006886 0.0665 -0.2028 -0.1743 0.0917 0.12335
000190 18 2e 56 2f 4f a5 b3 a7 7f ad de 22 b2 30 84 2d
       0.0952 0.1146 -0.02074 -0.03008 -0.0859 0.01341 0.1467 0.0862
0001a0 ee af e7 2d 61 23 b0 b1 94 a3 68 b2 c8 21 1b b0
       -0.1239 0.0922 0.01441 -0.1777 -0.0148 -0.2002 0.01129 -0.1283
0001b0 dd ac 11 b1 16 b2 94 30 aa af e6 2e 6c 30 a8 b1
       -0.076 -0.1583 -0.1902 0.1431 -0.11975 0.1078 0.1382 -0.1768
0001c0 1a 28 e5 2d c3 ae 1e b2 99 24 43 2c 7a a4 21 af
       0.03204 0.0921 -0.10565 -0.1912 0.01796 0.0666 -0.01749 -0.1114
0001d0 88 ae 22 2c 23 2c 5c ae ef a5 3b b1 61 b1 e3 2d
       -0.10205 0.0646 0.06464 -0.09937 -0.02318 -0.1635 -0.1681 0.092
0001e0 7d 2d 5c 2c 5f 30 cb 2b ba 2f a6 b2 01 b1 b7 2c
       0.08575 0.0681 0.1366 0.06088 0.1207 -0.2078 -0.1564 0.07367
0001f0 35 2e 20 31 52 2e f3 2b 8d b2 bc 2e c4 ab 3d 2d
       0.097 0.1602 0.09875 0.0621 -0.2047 0.1052 -0.06067 0.08185

arith.constant8 f2 [32]
000000 65 9d de 21 57 a8 39 2c c2 2b 2a ac 25 2d 0b a9
       -0.00527 0.01146 -0.0339 0.066 0.0606 -0.06506 0.0804 -0.0394
000010 33 a9 0e 1b e4 2a 46 a6 29 99 08 2a 1d aa 15 27
       -0.04062 0.003445 0.05383 -0.0245 -0.00252 0.04712 -0.04776 0.02766
000020 98 22 57 a9 df a4 4c 9a 2f ac 3f ad f7 a7 bf ac
       0.01288 -0.04172 -0.01903 -0.003075 -0.06537 -0.082 -0.03111 -0.07416
000030 4f 9f ad ad 55 ae fb aa 1b a4 e8 ac 18 ac 03 a7
       -0.007137 -0.0887 -0.09894 -0.05453 -0.01604 -0.07666 -0.06396 -0.02739

arith.constant9 f2 [64]
000000 42 a5 2f a6 f2 a5 04 9e de 2b ae aa 54 2c 55 a8
       -0.02054 -0.02415 -0.02322 -0.005875 0.06146 -0.0522 0.0676 -0.03384
000010 fe 21 18 ab a9 20 8e ab 51 ac cc a7 e3 29 fe a4
       0.0117 -0.05542 0.0091 -0.05902 -0.06744 -0.03046 0.046 -0.0195
000020 d1 a5 a0 24 8b 28 95 27 07 a6 f5 ac 14 2a 0c a5
       -0.02272 0.01807 0.0355 0.02962 -0.02354 -0.07745 0.0475 -0.01971
000030 87 1a 1f 26 3b ab 01 2b 3b a5 3b 28 b2 1c 9f 25
       0.003187 0.02391 -0.0565 0.05472 -0.02043 0.03305 0.004585 0.02196
000040 5c aa 86 a9 73 aa a6 a9 33 2a b1 2a db ac c4 a1
       -0.04968 -0.04315 -0.05038 -0.04413 0.04843 0.05228 -0.07587 -0.01126
000050 9c a9 e1 a7 e6 a5 e9 84 61 24 f1 2c 95 2c 35 1d
       -0.04382 -0.03078 -0.02304 -7.49e-05 0.0171 0.0772 0.0716 0.005085
000060 c5 2a a4 27 a6 a8 2f ac 4d 2c d0 20 9d 9f fa 28
       0.0529 0.02985 -0.03632 -0.06537 0.0672 0.0094 -0.007435 0.03888
000070 a3 a6 af 24 73 ac 5d 2a 6b 2a 10 ac f0 25 2c 21
       -0.02592 0.0183 -0.0695 0.0497 0.05014 -0.0635 0.0232 0.0101

arith.constant10 f2 [128]
000000 36 13 d5 a5 2a a4 9b 26 09 a6 4d a8 40 24 a4 2c
       0.0008802 -0.02278 -0.01627 0.0258 -0.02357 -0.0336 0.0166 0.0725
000010 0a a6 66 26 7e 9c 2b 1d 4b a3 27 26 46 a8 89 ab
       -0.02359 0.025 -0.004387 0.005047 -0.014244 0.02403 -0.0334 -0.05887
000020 d5 a4 8d 2c e5 a8 06 26 7b a5 12 a4 a3 2c 7a a9
       -0.01888 0.0711 -0.03824 0.02353 -0.02141 -0.0159 0.07245 -0.0428
000030 05 27 e4 2c b1 a5 e4 a4 cd 25 7a 9c e7 95 d9 a2
       0.02742 0.0764 -0.02223 -0.0191 0.02266 -0.00437 -0.001441 -0.013374
000040 7d 1d b0 24 74 a9 ed 86 3c 2c 96 2c 55 28 79 a2
       0.00536 0.01831 -0.0426 -0.0001057 0.06616 0.07166 0.03384 -0.01264
000050 66 2d d2 20 d2 14 5e 20 eb a8 0d a7 88 a8 15 23
       0.08435 0.009415 0.001177 0.00853 -0.03842 -0.02754 -0.0354 0.01383
000060 a1 22 98 2c 67 24 e9 a9 52 2b b9 a7 5e a7 63 27
       0.01295 0.0718 0.0172 -0.04617 0.0572 -0.03017 -0.02878 0.02885
000070 bc 21 ec 96 73 20 eb a5 9a a5 b6 2c 7c 22 13 2c
       0.0112 -0.00169 0.00869 -0.02312 -0.02188 0.0736 0.012665 0.06366
000080 a0 a5 72 a8 b2 21 b0 9c fc 2c c2 2c 3a a3 3a a0
       -0.02197 -0.03473 0.01112 -0.004578 0.0779 0.07434 -0.014114 -0.008255
000090 2e a9 45 a3 31 1c 1a a5 85 2d 51 a3 a2 a5 f0 a8
       -0.04047 -0.0142 0.004093 -0.01993 0.08624 -0.01429 -0.022 -0.03857
0000a0 60 29 3e 1c 93 aa 6b 21 33 ac a7 2c 94 a3 5a 28
       0.042 0.004143 -0.05136 0.01058 -0.0656 0.0727 -0.0148 0.034
0000b0 ec a7 af 2c c8 2c f2 a0 fc 2c c2 25 8d a1 1f 2c
       -0.03094 0.0732 0.0747 -0.00966 0.0779 0.02249 -0.01084 0.0644
0000c0 85 a1 06 a6 57 2d 19 2c bf a9 18 a2 44 a7 f8 2c
       -0.01078 -0.02353 0.08344 0.064 -0.0449 -0.0119 -0.02838 0.07764
0000d0 ae 2a 59 a9 19 a9 14 2d a6 ab 4c 2b 12 2c 11 a8
       0.0522 -0.04178 -0.03983 0.07935 -0.05975 0.057 0.0636 -0.03177
0000e0 b1 a6 0e 24 8e a1 0f 20 68 1e 78 2a 97 28 4c 22
       -0.02614 0.01584 -0.01085 0.00793 0.006256 0.05054 0.03586 0.0123
0000f0 89 26 2e a9 5b 1e 5b a2 33 2d 78 a9 1e a6 97 a4
       0.02553 -0.04047 0.006207 -0.01241 0.08124 -0.04272 -0.0239 -0.01793
