Neural_network/pytorch_tflite_convert/model/output/onnx_model_float32.tflite (tflite, 394488 bytes, 10 tensors)

arith.constant f4 [128]
0.00088033464 -0.02278744 -0.016267486 0.025809413 -0.023576872 -0.033608694 0.01659694 0.07251184
-0.023594033 0.024986872 -0.004387036 0.0050459853 -0.014242644 0.024034511 -0.033381477 -0.058879435
-0.0188812 0.07109425 -0.03825215 0.023533404 -0.02140493 -0.015894827 0.07242242 -0.042783074
0.027416237 0.076416366 -0.02222798 -0.019098712 0.022652494 -0.0043724575 -0.0014408873 -0.013374832
0.0053595053 0.0183176 -0.0426033 -0.00010568554 0.06614224 0.071671814 0.03385897 -0.012644157
0.08432604 0.009414433 0.0011766661 0.008526737 -0.038432598 -0.027537702 -0.035386335 0.013832168
0.01294606 0.07175024 0.017199503 -0.046173874 0.05719789 -0.030171093 -0.02877056 0.02885259
0.011199179 -0.0016900136 0.008692824 -0.023123596 -0.021888318 0.073609926 0.012663561 0.06368576
-0.021967206 -0.034737777 0.011123485 -0.0045793382 0.07787759 0.07432123 -0.014110928 -0.008251557
-0.040463403 -0.014201658 0.0040926905 -0.019932698 0.086244285 -0.014291674 -0.022001667 -0.03856577
0.041982733 0.004141379 -0.05135947 0.010584195 -0.065626934 0.07271725 -0.014801231 0.03400846
-0.03094405 0.073173314 0.07468716 -0.009660665 0.077894874 0.02248557 -0.010843542 0.06437117
-0.010780857 -0.023528025 0.08344347 0.06404158 -0.044880148 -0.011899714 -0.028388968 0.07761072
0.052195784 -0.041765727 -0.03981729 0.07937252 -0.05975873 0.056999773 0.063615456 -0.031780154
-0.02613861 0.015837537 -0.010852042 0.007930613 0.006257757 0.05054782 0.035852384 0.012295493
0.025528517 -0.040462427 0.0062079206 -0.0124096675 0.08126136 -0.0427261 -0.023893768 -0.017926827
00000000: 42c6 663a baac babc 6443 85bc 436e d33c
00000010: 4924 c1bc 45a9 09bd 4ef6 873c 1681 943d
00000020: 4648 c1bc 45b1 cc3c 20c1 8fbb cb58 a53b
00000030: fb59 69bc 06e4 c43c 04bb 08bd 902b 71bd
00000040: bfac 9abc dd99 913d 49ae 1cbd 20c9 c03c
00000050: 6459 afbc de35 82bc 3552 943d 4e3d 2fbd
00000060: 0498 e03c 2f80 9c3d 7417 b6bc e774 9cbc
00000070: b991 b93c d546 8fbb 28dc bcba 1d22 5bbc
00000080: ca9e af3b cb0e 963c cc80 2ebd 7ea3 ddb8
00000090: 9575 873d acc8 923d b4af 0a3d 7029 4fbc
000000a0: 22b3 ac3d fe3e 1a3c 5d3a 9a3a bab3 0b3c
000000b0: 806b 1dbd bf96 e1bc 43f1 10bd 51a0 623c
000000c0: b61b 543c caf1 923d f9e5 8c3c d120 3dbd
000000d0: 5648 6a3d 5e29 f7bc 3db0 ebbc 445c ec3c
000000e0: c37c 373c 7283 ddba 596c 0e3c b26d bdbc
000000f0: 214f b3bc cdc0 963d d37a 4f3c ae6d 823d
00000100: 92f4 b3bc 3349 0ebd 473f 363c 460e 96bb
00000110: 497e 9f3d bb35 983d 8631 67bc 8a31 07bc
00000120: f4bc 25bd 12ae 68bc fa1b 863b e649 a3bc
00000130: d8a0 b03d a027 6abc d73c b4bc 24f7 1dbd
00000140: 16f6 2b3d 68b4 873b 4f5e 52bd 5569 2d3c
00000150: 6a67 86bd c8ec 943d dd80 72bc 744c 0b3d
00000160: 607e fdbc e4db 953d 95f5 983d c447 1ebc
00000170: 5987 9f3d a833 b83c 1da9 31bc 08d5 833d
00000180: 31a2 30bc d8bd c0bc 69e4 aa3d 3b28 833d
00000190: 3fd4 37bd 05f7 42bc fb8f e8bc 5ff2 9e3d
000001a0: 3fcb 553d 8a12 2bbd 7417 23bd 0f8e a23d
000001b0: 92c5 74bd 9878 693d d248 823d e82b 02bd
000001c0: a320 d6bc b9bd 813c c3cc 31bc 67ef 013c
000001d0: df0d cd3b 3b0b 4f3d f3d9 123d 0973 493c
000001e0: 2e21 d13c eebb 25bd d06b cb3b eb51 4bbc
000001f0: 5b6c a63d 9001 2fbd ddbc c3bc 48db 92bc

arith.constant1 f4 [64]
-0.020532036 -0.024150278 -0.023224099 -0.0058750627 0.061458938 -0.052199714 0.06763622 -0.033831943
0.011706111 -0.05541547 0.009105602 -0.059027754 -0.0674172 -0.030462125 0.04599681 -0.019504534
-0.02271593 0.018070664 0.03548133 0.029618863 -0.023546971 -0.07746614 0.047497913 -0.01971282
0.0031878073 0.02391191 -0.05647884 0.05472669 -0.020432603 0.033037882 0.004584131 0.021964435
-0.04967777 -0.043150663 -0.05037976 -0.0441258 0.04841685 0.05227901 -0.075858295 -0.01126147
-0.043820344 -0.030769967 -0.023040125 -7.490808e-05 0.017100176 0.077235036 0.071594484 0.00508683
0.05288593 0.029846046 -0.036329392 -0.06537397 0.067190975 0.009402426 -0.007433433 0.038881835
-0.025922664 0.018296653 -0.06954012 0.04970298 0.05013841 -0.06346178 0.023189245 0.010101257
00000000: cd32 a8bc ced6 c5bc 7740 bebc 9983 c0bb
00000010: 5ebc 7b3d 5ecf 55bd dc84 8a3d 5d93 0abd
00000020: fdca 3f3c 55fb 62bd aa2f 153c 16c7 71bd
00000030: 0712 8abd b58b f9bc 2767 3c3d f9c7 9fbc
00000040: c216 babc ee08 943c df54 113d 42a3 f23c
00000050: 94e5 c0bc 91a6 9ebd 2c8d 423d c87c a1bc
00000060: 88ea 503b e9e2 c33c 5b56 67bd 1829 603d
00000070: 4662 a7bc bb52 073d 7a36 963b c2ee b33c
00000080: eb7a 4bbd c0be 30bd 025b 4ebd 41bd 34bd
00000090: bf50 463d 8422 563d 985b 9bbd 0782 38bc
000000a0: f67c 33bd 4c11 fcbc a5be bcbc f817 9db8
000000b0: ab15 8c3c 672d 9e3d 21a0 923d 6caf a63b
000000c0: eb9e 583d b27f f43c 21ce 14bd cae2 85bd
000000d0: 6c9b 893d a20c 1a3c 2894 f3bb 8f42 1f3d
000000e0: c45b d4bc dde2 953c 0d6b 8ebd 5a95 4b3d
000000f0: ef5d 4d3d 40f8 81bd 5ff7 bd3c be7f 253c

arith.constant2 f4 [32]
-0.005269814 0.011457497 -0.03391604 0.065951735 0.060620826 -0.06504844 0.080381796 -0.039398737
-0.040627465 0.0034439676 0.05382219 -0.024502387 -0.0025186779 0.047127903 -0.047774997 0.02766844
0.0128785055 -0.041708294 -0.019030133 -0.0030741044 -0.06537979 -0.08198169 -0.031113518 -0.07414487
-0.007137284 -0.088708855 -0.0989213 -0.054523394 -0.016043141 -0.07666241 -0.06395736 -0.027381977
00000000: 67ae acbb 3ab8 3b3c 8ceb 0abd b411 873d
00000010: 8b4d 783d 1e38 85bd 369f a43d 9260 21bd
00000020: fc68 26bd 30b4 613b a874 5c3d 3bb9 c8bc
00000030: 6710 25bb 3009 413d b7af 43bd eda8 e23c
00000040: 5e00 533c 51d6 2abd 15e5 9bbc ea76 49bb
00000050: d7e5 85bd 04e6 a7bd c7e1 febc 44d9 97bd
00000060: e1df e9bb fdac b5bd 4097 cabd ec53 5fbd
00000070: e86c 83bc 2e01 9dbd 14fc 82bd 2b50 e0bc

arith.constant4 f4 [2]
0.07112822 -0.08515487
00000000: acab 913d ad65 aebd

arith.constant5 f4 [2, 1, 1, 128]
-0.12176517 -0.08068182 -0.08003844 -0.11611257 0.075853355 0.043083742 -0.058077488 0.18517737
-0.10347908 -0.031559244 0.07271236 0.037832238 -0.00030399204 -0.118617445 0.04413116 -0.039191846
0.26621136 0.19031613 -0.1258223 -0.028420316 0.026072143 -0.050953835 0.15101443 -0.059685823
0.16025741 0.16008195 0.07875225 -0.09508199 -0.06502802 0.06678243 -0.09652496 -0.1333946
-0.0069102445 -0.14054912 -0.051040445 -0.13405213 0.12982395 0.17660594 -0.15639074 -0.12178973
0.19684933 -0.15844871 -0.09359186 -0.15877694 0.06180056 -0.09929491 -0.048529156 -0.13109411
-0.097683735 0.12893687 -0.019971456 -0.09592367 0.17101312 -0.12477042 -0.17673929 -0.119488515
-0.13309358 -0.08888695 -0.18477753 -0.12385569 -0.17360716 0.18831702 -0.15759692 0.16698098
-0.011541169 0.0019647514 -0.14440171 -0.13818902 0.19193265 0.18277697 -0.1152199 -0.04906747
-0.15716237 -0.035476424 -0.009046843 0.056684583 0.20853363 -0.14744364 -0.0456392 -0.113482505
0.1575511 -0.13319644 0.014714601 0.18069598 0.034511052 0.13251793 0.06966078 0.17626426
0.058794487 0.15991805 0.06820331 -0.11099027 0.1859296 -0.09575846 -0.121690854 0.15535137
-0.12318007 -0.10145266 0.18954338 0.20272613 0.0732016 -0.1134798 0.010880114 0.18740696
0.2236083 -0.13535859 0.04084351 0.19461061 -0.056131784 0.13413563 0.12789859 -0.08240308
-0.07478927 -0.11899183 -0.09393315 -0.13457963 -0.10646929 0.21527945 0.11010348 -0.11090536
-0.13337906 0.009068264 -0.11812606 0.04267733 0.1722984 -0.054696523 -0.029941607 -0.118554264
0.07009959 0.15463264 0.14663659 0.046871033 0.0074785585 0.027771221 -0.05306695 -0.13910377
0.15193924 0.13970385 0.058545783 -0.078788154 -0.08075854 0.04999516 -0.07899733 -0.050832063
-0.29892564 -0.18920442 0.14647734 0.12845305 -0.024686797 0.13239351 -0.12934025 0.13028547
-0.16283514 -0.19749008 -0.054917894 0.13090126 0.13088511 0.056684513 0.11493402 0.12813912
-0.011819998 0.05339129 -0.06788501 0.14260288 -0.14023492 -0.18790033 -0.0022989647 0.045775823
-0.084552564 0.0921343 0.08061335 0.097588815 0.00051962025 0.16754241 -0.05230345 0.1335744
0.064553306 -0.16972779 0.13532843 0.056451067 -0.09321848 0.14536697 0.076678 0.059272595
0.08992682 0.07082568 0.20707427 0.08617208 0.02035676 -0.110760756 0.115845904 -0.130595
-0.05973227 -0.011731468 0.006884556 0.066537194 -0.20272243 -0.17427601 0.091700666 0.12333621
0.095185965 0.11462517 -0.020738546 -0.030071892 -0.08588353 0.013409546 0.14671525 0.08615477
-0.12391253 0.0922458 0.01440854 -0.17769673 -0.014801144 -0.20013723 0.011291162 -0.12828656
-0.07600153 -0.15838543 -0.19023578 0.14310947 -0.11975612 0.10777785 0.13817695 -0.17674005
0.032046508 0.09210912 -0.10562524 -0.19115783 0.017967043 0.06656753 -0.017490607 -0.11137542
-0.10203003 0.06458351 0.06463048 -0.09933668 -0.023184858 -0.16344391 -0.1680766 0.091959484
0.08573595 0.0680874 0.13656178 0.06087567 0.120742925 -0.20779154 -0.15632503 0.0736962
0.09701444 0.16014697 0.098773144 0.06210536 -0.20473799 0.10523012 -0.060655918 0.08181853
00000000: 0460 f9bd 833c a5bd 32eb a3bd 6dcc edbd
00000010: 0159 9b3d 9478 303d a9e2 6dbd 239f 3d3e
00000020: d7ec d3bd 4444 01bd 38ea 943d faf5 1a3d
00000030: 1f61 9fb9 b4ed f2bd e0c2 343d a187 20bd
00000040: db4c 883e 3be2 423e 90d7 00be b9d1 e8bc
00000050: 3f95 d53c f8b4 50bd 87a3 1a3e 1f79 74bd
00000060: 851a 243e 86ec 233e dc48 a13d 59ba c2bd
00000070: 692d 85bd 3ac5 883d e1ae c5bd 9898 08be
00000080: 556f e2bb 1cec 0fbe c90f 51bd f644 09be
00000090: 92f0 043e 30d8 343e e524 20be e56c f9bd
000000a0: df92 493e 6140 22be 17ad bfbd 6c96 22be
000000b0: 9622 7d3d 215b cbbd 82c6 46bd 893d 06be
000000c0: 690e c8bd 0708 043e 2e9b a3bc a173 c4bd
000000d0: 101e 2f3e a287 ffbd 25fb 34be 65b6 f4bd
000000e0: af49 08be 5c0a b6bd 5236 3dbe 0da8 fdbd
000000f0: 13c6 31be 2dd6 403e 1661 21be 10fd 2a3e
00000100: 2c17 3dbc 0fc3 003b 0bde 13be 6c81 0dbe
00000110: fe89 443e e329 3b3e 69f8 ebbd f9fa 48bd
00000120: 2cef 20be ba4f 11bd 3639 14bc 182e 683d
00000130: d789 553e 77fb 16be 2bf0 3abd 8469 e8bd
00000140: 1355 213e a664 08be 8315 713c 5e08 393e
00000150: 765b 0d3d c8b2 073e 50aa 8e3d 9e7e 343e
00000160: 7dd2 703d 8fc1 233e 2dae 8b3d de4e e3bd
00000170: 5464 3e3e 031d c4bd 0e39 f9bd 6e14 1f3e
00000180: d545 fcbd 6ac6 cfbd a917 423e 7097 4f3e
00000190: b8ea 953d 1968 e8bd 8142 323c 9ce7 3f3e
000001a0: 93f9 643e 719b 0abe 864b 273d 0148 473e
000001b0: 71ea 65bd da5a 093e d9f7 023e f2c2 a8bd
000001c0: 1e2b 99bd fdb1 f3bd 0660 c0bd 3ecf 09be
000001d0: 920c dabd 3772 5c3e ef7d e13d 5922 e3bd
000001e0: 8594 08be 0e93 143c 13ec f1bd 6dce 2e3d
000001f0: fe6e 303e 7609 60bd 1a48 f5bc 94cc f2bd
00000200: 6090 8f3d 0558 1e3e e727 163e d7fb 3f3d
00000210: b20e f53b 7980 e33c bb5c 59bd 3871 0ebe
00000220: f695 1b3e 870e 0f3e b4cd 6f3d af5b a1bd
00000230: bc64 a5bd bac7 4c3d 5ac9 a1bd 4835 50bd
00000240: c80c 99be cebe 41be 28fe 153e 3289 033e
00000250: f73b cabc 2a92 073e c571 04be 8e69 053e
00000260: 41be 26be d73a 4abe 96f1 60bd fb0a 063e
00000270: bf06 063e 052e 683d 8762 eb3d e736 033e
00000280: aaa8 41bc d3b0 5a3d 4c07 8bbd 7d06 123e
00000290: be99 0fbe f268 40be 3aaa 16bb 6e7f 3b3d
000002a0: e529 adbd e8b0 bc3d 9d18 a53d a5dc c73d
000002b0: 2037 083a 3d90 2b3e 243c 56bd bac7 083e
000002c0: 8634 843d 1fcd 2dbe 8993 0a3e 3c39 673d
000002d0: 55e9 bebd 14db 143e 5b09 9d3d d2c7 723d
000002e0: 8d2b b83d 0e0d 913d 470b 543e fd7a b03d
000002f0: 38c3 a63c 89d6 e2bd 9e40 ed3d b2ba 05be
00000300: d3a9 74bd 5835 40bc d797 e13b a744 883d
00000310: 7896 4fbe 6975 32be 8fcd bb3d b297 fc3d
00000320: dcf0 c23d 9ac0 ea3d e2e3 a9bc 5459 f6bc
00000330: b4e3 afbd b6b3 5b3c 863c 163e e971 b03d
00000340: dac5 fdbd 5eeb bc3d cc11 6c3c 22f6 35be
00000350: 7f80 72bc c6f0 4cbe 91fe 383c 8d5d 03be
00000360: b1a6 9bbd ca2f 22be 2bcd 42be 4a8b 123e
00000370: b242 f5bd a2ba dc3d 427e 0d3e 58fb 34be
00000380: 3343 033d b5a3 bc3d 0c52 d8bd e1be 43be
00000390: 9f2f 933c 8f54 883d 7648 8fbc cc18 e4bd
000003a0: 1ff5 d0bd 5c44 843d fc5c 843d 0771 cbbd
000003b0: 2cee bdbc d75d 27be 461c 2cbe 4155 bc3d
000003c0: 5496 af3d 6871 8b3d dad6 0b3e c458 793d
000003d0: 1148 f73d 4ec7 54be ab13 20be 09ee 963d
000003e0: 82af c63d 91fd 233e 9349 ca3d 3162 7e3d
000003f0: d6a6 51be e482 d73d 5772 78bd 7990 a73d

arith.constant6 f4 [128, 3, 3, 64]
0.03626494 0.07284596 0.0042088563 0.01287145 0.120200634 0.048226893 0.03430693 -0.0035934257
-0.05368612 0.03454367 0.020464715 -4.3857715e-05 0.059960775 0.03782501 0.017534763 0.025735779
0.025577972 0.07182917 -0.20400581 -0.0025793198 0.035309788 0.066145875 0.098804936 0.060116097
0.08136481 0.04972904 0.059845664 -0.00959574 0.06420449 0.07394249 0.017617887 0.08978517
0.016790846 0.10427989 0.058012277 0.0033703297 0.006391216 -0.0029179333 0.010581559 0.021091528
0.049390096 0.022724861 0.040947285 0.027984971 -8.9701425e-05 -0.038033035 0.009075154 -0.067649044
0.040292036 0.021209039 0.010169898 0.004054394 0.12684613 0.110069476 0.024297727 -0.011721344
-0.0006267145 0.013609336 -0.0056675314 -0.024025535 0.048688855 0.06567473 0.03592145 -0.021240858
0.029433776 0.034124102 0.05736727 -0.00659999 0.12680574 0.04235976 0.04628968 -0.049545363
-0.008018265 -0.04657045 0.03150668 -0.027670378 0.021781802 0.07853414 0.007151228 -0.045684263
0.073546275 0.02136268 -0.15180376 -0.025926061 -0.024856726 -0.003772676 -0.028743615 0.08688689
0.10829545 -0.0115724215 0.09292648 0.019505564 0.04096427 0.032710437 0.052691925 0.03642389
-0.039227657 0.10957623 0.098074384 0.08182128 -0.024962233 -0.06495774 0.055819318 -0.009144917
-0.02431783 -0.013234896 -0.030664312 0.09152542 -0.06122767 0.017830312 -0.008277032 0.028124241
-0.020357039 -0.042892613 0.0481981 0.08698173 0.043762047 0.076964125 0.010356338 0.0047130464
0.017171785 0.02702876 -0.024995962 -0.032493707 -0.027436102 -0.013151523 0.031267315 -0.05198551
0.074508026 -0.006838514 0.004392321 -0.011508834 0.1257629 0.048132356 -0.030784292 -0.0093437405
-0.07812284 -0.017895214 -0.017910792 -0.047460698 -0.00016713983 0.023035396 -0.046207137 0.015118716
0.02588537 0.001327223 -0.19054249 -0.023543194 -0.027813492 -0.034266934 0.011075939 0.06100237
0.10880511 -0.022986304 0.07376703 -0.042118527 -0.0020669093 0.1320029 -0.031576037 0.023372296
-0.08490806 0.116808616 0.09042365 0.02168749 0.012158825 0.0044114366 0.037766337 0.023441097
0.017796932 0.006250384 0.0003881193 0.10751426 0.0030560067 0.0031066837 0.011724205 -0.073224224
-0.040207703 -0.007504267 0.029104074 0.06152999 0.10445366 0.053413726 0.035200257 0.012169126
-0.007898254 0.08582156 0.020847721 -0.08319465 -0.028567705 -0.024520038 0.037954584 -0.014855408
0.06175465 0.033304587 0.032434177 0.018607495 0.06252615 0.021631327 0.012912451 0.03226535
-0.06000033 0.014358857 -0.042047493 0.0068916334 0.06789813 0.050251618 -0.0048468127 0.042512756
-0.00072936655 0.042303897 -0.13066263 0.020544058 0.026095979 0.009428353 0.1038444 0.06532474
0.00023644604 0.06854409 0.04314187 0.012343327 0.11898157 0.0018824181 -0.009393449 0.08811244
0.004921266 0.085966304 0.007889591 0.0074475333 -0.0335277 -0.00034192947 0.05601501 0.091716714
0.025310677 0.016016215 -0.015477848 0.056613095 -0.016266782 -0.021150706 0.05898827 -0.063111536
0.058580015 0.10607047 0.05089698 0.03336149 0.091137916 0.14851327 0.05733015 -0.004611007
0.046488684 0.03909987 -0.037545275 -0.07081459 0.027715415 0.046077106 0.01369441 0.0014795187
00000000: 8c8a 143d 4330 953d 72ea 893b c6e2 523c
00000010: c02b f63d 9089 453d 6c85 0c3d ae7f 6bbb
00000020: fae5 5bbd aa7d 0d3d 9ea5 a73c ddf3 37b8
00000030: 6e99 753d 66ee 1a3d 10a5 8f3c d7d3 d23c
00000040: e588 d13c 2c1b 933d e6e6 50be ce09 29bb
00000050: ffa0 103d 7d77 873d 3e5a ca3d 4c3c 763d
00000060: 98a2 a63d aeb0 4b3d ba20 753d 7337 1dbc
00000070: a57d 833d 296f 973d 6353 903c 4ae1 b73d
00000080: f58c 893c b290 d53d 489e 6d3d c0e0 5c3b
00000090: 686d d13b cc3a 3fbb 465e 2d3c 24c8 ac3c
000000a0: 454d 4a3d 7d29 ba3c 57b8 273d bd40 e53c
000000b0: 161e bcb8 87c8 1bbd f4af 143c 958b 8abd
000000c0: 4309 253d 94be ad3c a59f 263c b9da 843b
000000d0: f4e3 013e 1b6c e13d 070c c73c e10a 40bc
000000e0: 194a 24ba b1f9 5e3c b3b6 b9bb 33d1 c4bc
000000f0: f76d 473d 7980 863d 5f22 133d 4f01 aebc
00000100: 1a1f f13c b7c5 0b3d f1f9 6a3d bb44 d8bb
00000110: 5dd9 013e 6d81 2d3d 3f9a 3d3d 14f0 4abd
00000120: 0a5f 03bc a8c0 3ebd 260d 013d fdac e2bc
00000130: c06f b23c 82d6 a03d d954 ea3b 6c1f 3bbd
00000140: 6e9f 963d c900 af3c 7272 1bbe e462 d4bc
00000150: 55a0 cbbc 003f 77bb bb77 ebbc c1f1 b13d
00000160: 01ca dd3d 419a 3dbc 3d50 be3d 22ca 9f3c
00000170: 26ca 273d 61fb 053d 7dd3 573d 3831 153d
00000180: 2ead 20bd 8169 e03d 39db c83d ea91 a73d
00000190: 997d ccbc 9008 85bd cca2 643d 90d4 15bc
000001a0: 3036 c7bc 2dd7 58bc b933 fbbc ae71 bb3d
000001b0: dec9 7abd e010 923c 639c 07bc cf64 e63c
000001c0: cec3 a6bc 2ab0 2fbd 5f6b 453d 7a23 b23d
000001d0: d53f 333d 5e9f 9d3d a1ad 293c e66f 9a3b
000001e0: d8ab 8c3c 6b6b dd3c 55c4 ccbc 1f18 05bd
000001f0: adc1 e0bc 7c79 57bc 2812 003d c2ee 54bd
00000200: aa97 983d 9d15 e0bb 76ed 8f3b 8c8f 3cbc
00000210: fdc7 003e 6f26 453d 572f fcbc 7d16 19bc
00000220: defe 9fbd fc98 92bc a7b9 92bc 2666 42bd
00000230: 4242 2fb9 bab4 bc3c b243 3dbd 7eb4 773c
00000240: 8e0d d43c 37f6 ad3a 921d 43be a8dd c0bc
00000250: 1fd9 e3bc 7c5b 0cbd db77 353c 9fdd 793d
00000260: 37d5 de3d c64d bcbc 2b13 973d 7a84 2cbd
00000270: fc74 07bb c52b 073e e055 01bd 4277 bf3c
00000280: 47e4 adbd 5b39 ef3d 0930 b93d f7a9 b13c
00000290: cf35 473c d08d 903b e0b0 1a3d 8b07 c03c
000002a0: dfca 913c 05d0 cc3b 7e7c cb39 7030 dc3d
000002b0: 4947 483b 8199 4b3b e116 403c 95f6 95bd
000002c0: d5b0 24bd 5be6 f5bb ab6b ee3c df06 7c3d
000002d0: cdeb d53d 5ac8 5a3d 252e 103d 0461 473c
000002e0: ae67 01bc 37c3 af3d d7c8 aa3c f561 aabd
000002f0: d206 eabc 3fde c8bc 4476 1b3d 1964 73bc
00000300: 72f2 7c3d 646a 083d b3d9 043d bf6e 983c
00000310: b60d 803d 2e34 b13c bf8e 533c ac28 043d
00000320: e8c2 75bd 6941 6b3c fe39 2cbd 36d3 e13b
00000330: 2d0e 8b3d a4d4 4d3d 03d2 9ebb db21 2e3d
00000340: f632 3fba da46 2d3d 6dcc 05be 034c a83c
00000350: 3cc7 d53c 6179 1a3c 5fac d43d fac8 853d
00000360: 80ee 7739 d860 8c3d 88b5 303d aa3b 4a3c
00000370: 9cac f33d 78bb f63a fbe6 19bc 4c74 b43d
00000380: 9242 a13b 1a0f b03d 5843 013c 700a f43b
00000390: 5754 09bd ff44 b3b9 ff6f 653d f9d5 bb3d
000003a0: 5658 cf3c 7034 833c cd96 7dbc 22e3 673d
000003b0: ea41 85bc 3f44 adbc af9d 713d 9f40 81bd
000003c0: 99f1 6f3d 793b d93d 5a79 503d 0fa6 083d
000003d0: 84a6 ba3d dd13 183e 05d3 6a3d ee17 97bb
000003e0: eb6a 3e3d 2f27 203d 13c9 19bd 3d07 91bd
000003f0: 700b e33c 59bb 3c3d 855e 603c 69ec c13a

arith.constant7 f4 [64, 3, 3, 32]
-0.080225945 -0.01770026 -0.041196436 0.19695649 -0.042757764 0.053415067 -0.08264756 0.041508887
0.01859196 -0.023048846 0.028693106 -0.054873146 0.024018329 0.05991877 -0.05628205 0.002117184
-0.0465423 0.0188175 0.07986833 0.0064232694 0.040491045 0.010178289 0.012478778 0.051716495
0.056013267 0.10170506 0.0027392514 0.004543235 0.052681595 0.0031376502 0.039387383 -0.0032453137
-0.0023967447 -0.005671177 0.04468855 0.21586478 -0.023996957 -0.013746432 -0.046474647 -0.011115971
0.0012869465 0.071362086 0.08976139 -0.019087825 0.015676606 0.046656784 -0.01766872 0.034438375
-0.006331895 0.048505213 0.046850394 0.04896882 0.026324451 -0.021278903 0.05625426 0.104806125
0.022786237 0.07744207 0.0024062572 -0.012639341 0.05985589 0.016356628 0.052504063 0.12349617
0.01581537 -0.042097364 0.0139085725 0.22397758 -0.0051673735 0.022936227 0.00039674365 -0.05822559
-0.06924966 0.08706119 0.018876074 -0.0014211321 -0.012584677 -0.005020405 -0.0005238856 -0.073692285
0.014723165 0.057815872 0.06263229 0.024183692 -0.011679659 0.05196893 0.061346386 0.102990866
-0.065226495 0.010760048 0.046551004 0.018374696 -0.010832944 -0.05703121 -0.048490934 0.081125416
-0.00092367094 0.066016294 0.04099645 -0.24738836 -0.059439354 0.028846124 -0.04218034 -0.04186699
-0.08599115 -0.0031846473 0.057705093 0.044791803 -0.023661809 -0.024098583 -0.11252251 0.007714814
0.033281423 0.0015726191 0.035143565 0.04677423 -0.005047962 -0.006144868 0.059616104 0.0019562577
-0.013078015 0.082112245 -0.0054114554 -0.018773973 0.044557545 0.06430742 -0.010811686 -0.022274802
-0.006956709 0.015139975 0.026889743 -0.17854246 -0.104027435 0.009707079 -0.041966747 0.009072017
-0.090427816 -0.031046651 0.06820653 0.07200212 0.006990466 -0.022432368 -0.09550091 -0.07032983
-0.028496712 -0.009507281 0.049176034 0.08455302 -0.012940164 0.09326068 0.1607855 0.0935139
0.053889602 0.09557858 0.07148337 -0.044738807 0.032036204 -0.0054365313 -0.048102193 0.03130468
-0.057547748 0.060568005 0.10081594 -0.16775273 -0.13302462 -0.0036854108 -0.095011495 -0.056501053
-0.020931032 0.06354299 0.064981624 -0.015029414 -0.0432344 -0.01577602 -0.061412647 -0.103306316
0.0027568897 0.023910042 0.03806844 -0.01634548 -0.015115143 0.0031922495 0.036492687 0.10530016
-0.009104853 0.044104155 0.02185756 0.0424783 0.0047993963 0.023746524 -0.0033357672 0.11165791
0.0054161283 0.0070932214 -0.00038787373 -0.21575333 0.011182944 0.02898157 0.04032379 0.053086486
-0.009913413 -0.076417215 0.071956016 -0.01872687 0.010503438 0.03542842 0.037746888 0.054232743
-0.0036852171 -0.025829554 -0.020211373 -0.021007251 0.08129796 -0.013925669 0.029541781 0.03264167
0.041839506 0.025629915 0.0006549004 0.07876631 0.06366133 0.0696314 -0.0057379343 0.08437366
0.06661112 0.025704931 0.056883138 -0.25219864 0.002768193 0.0072194985 -0.011639394 0.034836374
-0.014268152 -0.00718658 0.14428878 0.007184819 -0.0034119939 0.040524524 0.02687241 -0.04079561
0.06268317 0.081176914 0.07373072 0.022423515 -0.023766834 0.05362014 0.107986234 0.087578416
0.069230795 0.09268732 -0.010716668 0.0051519657 -0.018696371 -0.008678058 -0.013963708 0.0782886
00000000: 804d a4bd 2300 91bc 98bd 28bd f6ae 493e
00000010: c422 2fbd c2c9 5a3d 2043 a9bd 3905 2a3d
00000020: 2b4e 983c efd0 bcbc ce0d eb3c aac2 60bd
00000030: 16c2 c43c 626d 753d 0288 66bd 74c0 0a3b
00000040: 24a3 3ebd 2827 9a3c 0292 a33d 4a7a d23b
00000050: f0d9 253d d7c2 263c ca73 4c3c add4 533d
00000060: 2b6e 653d be4a d03d 0385 333b 6bdf 943b
00000070: a8c8 573d 09a1 4d3b aa54 213d 54af 54bb
00000080: b412 1dbb 48d5 b9bb 570b 373d a80b 5d3e
00000090: 4495 c4bc b738 61bc 335c 3ebd c31f 36bc
000000a0: c2ae a83a 4926 923d d2d4 b73d 125e 9cbc
000000b0: 3a6c 803c 2f1b 3f3d febd 90bc 410f 0d3d
000000c0: c97b cfbb 67ad 463d 33e6 3f3d 8893 483d
000000d0: 60a6 d73c 1851 aebc de6a 663d 98a4 d63d
000000e0: 34aa ba3c f399 9e3d 4cb2 1d3b 3d15 4fbc
000000f0: 732b 753d 56fe 853c 800e 573d 8feb fc3d
00000100: 3c8f 813c 496e 2cbd c8e0 633c 615a 653e
00000110: 1253 a9bb c1e4 bb3c 0802 d039 f57d 6ebd
00000120: c4d2 8dbd 234d b23d ffa1 9a3c 4845 baba
00000130: f62f 4ebc 3682 a4bb 5e55 09ba fbeb 96bd
00000140: 6e39 713c 56d0 6c3d 5c45 803d e11c c63c
00000150: 0a5c 3fbc 5fdd 543d 5946 7b3d e0ec d23d
00000160: 7895 85bd ea4a 303c 44ac 3e3d 8886 963c
00000170: a97c 31bc 8f99 69bd 6e9e 46bd 1525 a63d
00000180: 8222 72ba 8d33 873d e5eb 273d 6053 7dbe
00000190: ae76 73bd b54e ec3c 4bc5 2cbd b97c 2bbd
000001a0: 211c b0bd 84b5 50bb 2d5c 6c3d 9c77 373d
000001b0: 69d6 c1bc 646a c5bc 3472 e6bd 8dcc fc3b
000001c0: 1a52 083d 5720 ce3a b3f2 0f3d 5696 3f3d
000001d0: 6069 a5bb e45a c9bb 0430 743d 8f34 003b
000001e0: 2c45 56bc 772a a83d 9452 b1bb e0cb 99bc
000001f0: f981 363d 9cb3 833d 7f23 31bc a579 b6bc
00000200: 1bf5 e3bb a80d 783c e147 dc3c d6d3 36be
00000210: 560c d5bd 710a 1f3c 53e5 2bbd cca2 143c
00000220: 3832 b9bd 8c55 febc ddaf 8b3d d975 933d
00000230: 4710 e53b 16c4 b7bc fb95 c3bd 1609 90bd
00000240: f071 e9bc 6dc4 1bbc cf6c 493d 222a ad3d
00000250: fb02 54bc 75ff be3d f4a4 243e 3784 bf3d
00000260: 58bb 5c3d b4be c33d e065 923d 0a40 37bd
00000270: 6538 033d ee24 b2bb ce06 45bd 5639 003d
00000280: 30b7 6bbd 2816 783d 9678 ce3d 5fc7 2bbe
00000290: 9b37 08be ef86 71bb 6395 c2bd a66d 67bd
000002a0: 8e77 abbc d422 823d 1615 853d ee3d 76bc
000002b0: 8e16 31bd b63c 81bc d48b 7bbd 4392 d3bd
000002c0: efac 343b fede c33c a7ed 1b3d f5e6 85bc
000002d0: 81a5 77bc 0f35 513b 5b79 153d 9ca7 d73d
000002e0: 852c 15bc 8fa6 343d a00e b33c bafd 2d3d
000002f0: 4144 9d3b 1288 c23c e39c 5abb e7ac e43d
00000300: c779 b13b 416e e83b 885b cbb9 71ee 5cbe
00000310: ab38 373c c26a ed3c 8f2a 253d 3771 593d
00000320: de6b 22bc a180 9cbd ad5d 933d 1869 99bc
00000330: 9d16 2c3c 641d 113d 7b9c 1a3d 2723 5e3d
00000340: af83 71bb 8098 d3bc 5292 a5bc 6617 acbc
00000350: 8b7f a63d 7d28 64bc 9b01 f23c 46b3 053d
00000360: e75f 2b3d d4f5 d13c 9fad 2b3a 3b50 a13d
00000370: df60 823d e89a 8e3d 4805 bcbb 19cc ac3d
00000380: 696b 883d 2693 d23c 4bfe 683d 2e20 81be
00000390: 926a 353b 8b91 ec3b 28b3 3ebc 96b0 0e3d
000003a0: f8c4 69bc 677d ebbb 70c0 133e a16e eb3b
000003b0: c29b 5fbb 0bfd 253d 8723 dc3c 4c19 27bd
000003c0: 0960 803d 1540 a63d 2200 973d 85b1 b73c
000003d0: aab2 c2bc cba0 5b3d e327 dd3d 505c b33d
000003e0: e0c8 8d3d dad2 bd3d f794 2fbc d2d1 a83b
000003f0: 2229 99bc 6a2e 0ebc 09c8 64bc c655 a03d

arith.constant8 f4 [32, 3, 3, 16]
-0.08811243 0.095062956 0.05839041 -0.054445595 0.02335225 0.09741688 -0.06218816 0.09867657
-0.014168624 0.05985776 -0.06236212 -0.118640974 0.031597644 0.020117877 0.0077424943 0.012564282
0.0019898333 -0.07346432 0.064820945 -0.118091345 0.01696156 0.14822799 0.006423648 0.090224616
-0.01798785 0.080476046 0.06656408 -0.008520782 -0.004352956 0.07918903 0.20108077 0.035025723
0.042261105 -0.051351063 0.085731216 -0.024584709 0.09139098 0.10534212 -0.030768307 -0.0013920292
-0.095303066 0.017373446 -0.029523285 -0.023909846 -0.06514483 0.048896622 0.14500323 0.056428313
0.022171339 0.0374866 -0.0026789608 -0.038164623 0.08857257 0.19055317 -0.08205366 0.037547
-0.010199967 -0.07896715 -0.086419 -0.13675918 -0.026015725 0.09541521 0.089811504 0.1613521
-0.11697062 -0.02286592 -0.018914089 -0.06559304 0.0730889 0.030377535 0.018052543 0.07763469
-0.069464974 0.020291664 0.0864962 0.010817939 0.017663153 0.03650158 0.26266825 0.112202026
-0.07571616 -0.0012393637 0.045326296 -0.03384116 0.052045837 0.13557248 -0.0038836123 -0.0023111044
0.040462617 -0.0028974474 0.08779692 -0.055990383 0.041951183 -0.025131918 0.12813638 0.13057719
-0.15686548 0.07853765 0.031944964 0.05759769 -0.09829429 0.09776105 0.03139447 0.049707033
-0.16439605 0.078634694 -0.12784402 0.03029211 -0.0027164186 0.035084203 0.06923915 0.14174935
-0.07296791 0.10656438 -0.057107348 0.0676117 -0.07745735 0.07814447 -0.056465752 -0.064322166
-0.061240967 0.16771151 -0.08987744 0.0067562577 0.01632395 0.024723493 0.29062635 0.059801698
-0.11628606 0.085418105 -0.06160727 -0.109149724 0.060650237 0.01870598 0.042474423 0.024486046
-0.04776315 0.08319785 -0.052334074 -0.044319768 0.030358566 -0.073583 0.18045737 0.01407003
-0.10486587 -0.09614562 -0.09848078 0.041235827 -0.077221036 0.01608904 0.079907864 0.047392618
-0.020399787 0.07425036 -1.7098093e-05 0.2486579 -0.027356975 -0.044055577 0.17416587 0.079616785
-0.0674389 0.045003783 0.017779868 0.04822807 0.031384148 -0.06702018 0.07684785 -0.0030648094
0.081592046 0.07528513 -0.036289696 0.06030389 -0.08391794 -0.055919 0.12671983 0.011165972
-0.07990598 -0.07006299 0.032129485 0.1422763 0.0015802843 -0.076900624 -0.0025055807 -0.0021640821
0.049942728 0.043745138 -0.023111826 0.10568297 -0.050131988 0.011512026 0.07984411 -0.14579591
-0.08059138 -0.07270498 -0.11906793 0.16276094 -0.001656853 -0.010200698 0.075673796 -0.067669995
-0.02303912 0.12218596 -0.080068186 0.12689267 -0.023053827 0.109204605 0.19291325 0.13105865
-0.03669101 -0.05882014 0.013654057 0.18487698 0.0062564285 0.009778052 -0.01811592 0.055504154
-0.0061996365 0.08322763 0.041188985 0.17055501 -0.0015311994 0.106412254 0.07521702 -0.0399352
-0.11300592 0.03828266 0.074214146 0.03873627 -0.025101248 0.06734803 0.01479201 0.048341703
0.06631737 0.06153012 -0.0032671615 0.016233426 -0.09590175 0.118644245 -0.0096998 -0.070944786
-0.034163274 0.06918877 -0.06962988 0.09435498 0.044616003 0.11840412 -0.043828182 -0.01574879
0.043089457 0.10948163 -0.030831795 0.09343385 -0.029367536 0.09361705 0.34794104 0.09926282
00000000: 4a74 b4bd 5eb0 c23d c82a 6f3d 5802 5fbd
00000010: 384d bf3c 8082 c73d 03b9 7ebd f116 ca3d
00000020: 8423 68bc 692d 753d 6c6f 7fbd 0afa f2bd
00000030: 886c 013d 3fce a43c c0b4 fd3b 6bda 4d3c
00000040: dd67 023b 7674 96bd d8c0 843d e0d9 f1bd
00000050: f8f2 8a3c 14c9 173e 777d d23b afc7 b83d
00000060: 415b 93bc a0d0 a43d c052 883d c09a 0bbc
00000070: 3ea3 8ebb dc2d a23d 1ee8 4d3e 2277 0f3d
00000080: fb19 2d3d 7e55 52bd d993 af3d df65 c9bc
00000090: 322b bb3d 9cbd d73d d10d fcbc c074 b6ba
000000a0: 412e c3bd c252 8e3c d1da f1bc 95de c3bc
000000b0: a76a 85bd d347 483d ba7b 143e 6021 673d
000000c0: aba0 b53c 8d8b 193d 8191 2fbb 8252 1cbd
000000d0: 8965 b53d 5f20 433e c00b a8bd e2ca 193d
000000e0: c31d 27bc 87b9 a1bd 72fc b0bd 990a 0cbe
000000f0: ee1e d5bc 0d69 c33d 18ef b73d 7c39 253e
00000100: 4b8e efbd 4f51 bbbc b8f1 9abc a555 86bd
00000110: a2af 953d 4fda f83c ede2 933c f0fe 9e3d
00000120: a743 8ebd b43a a63c eb24 b13d ba3d 313c
00000130: 51b2 903c ae82 153d 747c 863e 2dca e53d
00000140: 1311 9bbd 2572 a2ba 11a8 393d 079d 0abd
00000150: 042e 553d 83d3 0a3e 3484 7ebb e675 17bb
00000160: 21bc 253d 1ae3 3dbb dfce b33d 2c56 65bd
00000170: 01d5 2b3d 74e1 cdbc 2f36 033e 07b6 053e
00000180: 58a1 20be 59d8 a03d b9d8 023d 8eeb 6b3d
00000190: 844e c9bd f236 c83d 7d97 003d 9a99 4b3d
000001a0: 7057 28be 3a0b a13d 8be9 02be 2927 f83c
000001b0: f105 32bb 74b4 0f3d 41cd 8d3d be26 113e
000001c0: 3370 95bd 6d3e da3d 65e9 69bd 0178 8a3d
000001d0: f6a1 9ebd 350a a03d a248 67bd 57bb 83bd
000001e0: cfd7 7abd 91bc 2b3e aa11 b8bd 9963 dd3b
000001f0: ceb9 853c ec88 ca3c facc 943e a0f2 743d
00000200: 6327 eebd b0ef ae3d e857 7cbd e489 dfbd
00000210: 626c 783d 493d 993c a9f9 2d3d f696 c83c
00000220: 4ba3 43bd a263 aa3d 415c 56bd a588 35bd
00000230: 87b2 f83c afb2 96bd d1c9 383e fc85 663c
00000240: ebc3 d6bd ffe7 c4bd 4bb0 c9bd e6e6 283d
00000250: 1026 9ebd 2acd 833c bca6 a33d c31e 423d
00000260: 741d a7bc 9310 983d e06d 8fb7 2da0 7e3e
00000270: bc1b e0bc 9f73 34bd 8a58 323e 200e a33d
00000280: 681d 8abd e355 383d 16a7 913c cc8a 453d
00000290: aa8c 003d e041 89bd 6862 9d3d f8da 48bb
000002a0: bb19 a73d 172f 9a3d 81a4 14bd 3601 773d
000002b0: 2bdd abbd 520b 65bd d8c2 013e 7bf1 363c
000002c0: bfa5 a3bd 2f7d 8fbd 359a 033d e1b0 113e
000002d0: 8b21 cf3a 137e 9dbd ab34 24bb 46d3 0dbb
000002e0: bf90 4c3d 1a2e 333d 0355 bdbc 5070 d83d
000002f0: 3357 4dbd f09c 3c3c 4f85 a33d 864b 15be
00000300: 180d a5bd 59e6 94bd e3d9 f3bd ceaa 263e
00000310: c32a d9ba d420 27bc ddfa 9a3d 9196 8abd
00000320: 89bc bcbc a23c fa3d cafa a3bd 27f0 013e
00000330: 61db bcbc aaa6 df3d 0d8b 453e 3d34 063e
00000340: 5049 16bd 63ed 70bd 44b5 5f3c 6450 3d3e
00000350: ba02 cd3b 1f34 203c d667 94bc 5358 633d
00000360: 5226 cbbb 3f73 aa3d c8b5 283d f9a5 2e3e
00000370: 87b2 c8ba abee d93d 620b 9a3d 1893 23bd
00000380: a66f e7bd 47ce 1c3d 96fd 973d eca9 1e3d
00000390: 22a1 cdbc c4ed 893d 305a 723c f301 463d
000003a0: 67d1 873d 0207 7c3d e01d 56bb f6fb 843c
000003b0: 2368 c4bd c1fb f23d e9eb 1ebc 804b 91bd
000003c0: caee 0bbd d8b2 8d3d 1c9a 8ebd 2f3d c13d
000003d0: 45bf 363d dc7d f23d 2e85 33bd 9b03 81bc
000003e0: 927e 303d e837 e03d f692 fcbc 3f5a bf3d
000003f0: 3094 f0bc 4cba bf3d 5425 b23e 4e4a cb3d

model/tf.nn.convolution/convolution f4 [16, 3, 3, 3]
0.012251057 -0.13768956 -0.14621678 -0.2056394 0.15997715 -0.17533383 -0.014904472 0.042530686
0.164436 0.10854401 0.0024519628 0.0034261348 -0.13635941 -0.11083908 0.08362308 -0.10949084
0.025332903 0.07851422 -0.16308214 0.13162218 0.16526495 -0.073640786 0.091857314 -0.07289274
0.16094746 0.18086706 0.15143932 -0.12270518 0.11869787 0.018384818 -0.006160643 -0.025686285
-0.06778435 0.1627498 0.09683947 -0.042964526 0.07817982 -0.063045576 -0.07234872 -0.13803354
0.14381503 -0.18859085 0.13339926 0.05352635 0.13741656 0.064362615 -0.07265298 0.041112527
-0.020230062 -0.055983156 -0.10359343 -0.22333542 -0.11387135 -0.12538801 0.04187093 0.1243711
-0.028829249 0.17231192 0.040994287 -0.05330074 0.060198274 0.18773362 0.11316007 0.1348361
0.017769055 -0.20843393 -0.020084765 -0.17676662 -0.1097329 -0.015068494 -0.12065888 -0.04672183
0.07294726 0.11790676 -0.04521119 -0.11255279 -0.08619516 -0.04036976 0.06652071 0.13930988
-0.06578601 0.15858147 -0.03448885 -0.11406233 -0.040034898 0.0011957444 -0.17148584 0.18648323
-0.02089007 -0.116901144 0.1598776 -0.14994684 -0.19620436 0.15883015 -0.17145671 -0.2067871
-0.09004648 -0.041187808 0.005483641 0.1848881 -0.041220415 0.04001234 0.060032696 -0.038064133
-0.075228654 0.20774215 -0.11417101 -0.16589765 -0.1449132 0.16653377 0.09222311 -0.018133333
0.1474795 -0.027764382 -0.08614571 -0.20262654 0.11454633 0.15789202 -0.007121027 0.14794399
-0.047783684 0.13835399 -0.092449196 0.16755264 0.11533916 0.041044742 0.10910483 -0.18612492
-0.14982122 0.09831562 0.094922505 -0.11980845 -0.07297236 -0.13144428 0.032812115 0.09602153
0.076460905 -0.1373722 -0.18484811 -0.086625114 -0.13027887 -0.13891198 -0.033635046 0.009322195
0.17292912 -0.121203974 0.004199382 0.0023572263 0.20866111 0.016610378 0.1338174 0.17093107
0.08611053 0.011969458 -0.063463226 -0.019453699 0.051695157 0.07100797 -0.13970545 -0.10426898
-0.038027298 0.12987715 0.08922366 -0.12060847 0.014132199 -0.065841734 0.068827055 0.11586345
0.008384745 -0.21446766 0.17322761 -0.1431237 -0.024871202 0.21184136 -0.12653914 -0.004484037
-0.02088297 -0.03974705 0.03485639 -0.073020585 -0.25917265 -0.045785762 -0.052063804 0.090196416
-0.21326554 0.106528506 0.12640189 0.13855661 -0.06168763 0.032283705 -0.1103337 0.18352132
0.1377805 -0.03332543 -0.0010580325 -0.1645511 0.043489188 0.14606325 -0.12815757 0.08600743
0.0019555895 -0.085675485 0.05363968 -0.13554655 -0.11083781 0.04837146 -0.075310774 0.11032751
0.19467793 0.15206364 0.010051033 0.051950168 -0.10060879 -0.12458221 0.21291865 -0.13615796
0.13519162 0.008724064 -0.040541105 -0.025613895 -0.015731141 0.105244815 -0.05084651 -0.1265919
-0.14955245 0.0436113 -0.1350299 0.08464516 0.080282055 -0.040647987 0.113126494 -0.1560758
-0.09775371 -0.110084854 0.18598662 0.13431016 0.04969561 0.1759321 0.031053038 0.006562035
0.11177708 -0.14504066 0.0014736224 -0.12830202 0.012452962 0.031046975 0.108114876 -0.11154106
-0.009947309 0.16071357 0.011484807 0.040899914 -0.20534208 -0.09609245 -0.10425818 -0.022243861
00000000: a8b8 483c 7efe 0cbe dab9 15be 2393 52be
00000010: 0dd1 233e b68a 33be e331 74bc a834 2e3d
00000020: e961 283e 524c de3d 1cb1 203b 0189 603b
00000030: cda1 0bbe 99ff e2bd 9442 ab3d bc3c e0bd
00000040: f386 cf3c 10cc a03d 01ff 26be f7c7 063e
00000050: 373b 293e fbd0 96bd b01f bc3d ca48 95bd
00000060: 69cf 243e 3735 393e e912 1b3e da4c fbbd
00000070: de17 f33d c29b 963c 38df c9bb 0b6c d2bc
00000080: 85d2 8abd e2a7 263e c653 c63d 92fb 2fbd
00000090: be1c a03d 0a1e 81bd 912b 94bd aa58 0dbe
000000a0: 3f44 133e f61d 41be d199 083e 723e 5b3d
000000b0: edb6 0c3e 8cd0 833d 16cb 94bd 9c65 283d
000000c0: 84b9 a5bc 984e 65bd cb28 d4bd 0ab2 64be
000000d0: 6235 e9bd b765 00be da80 2b3d 46b6 fe3d
000000e0: 512b ecbc 8972 303e a0e9 273d e051 5abd
000000f0: 7792 763d 3e3d 403e 77c0 e73d 7912 0a3e
00000100: 6990 913c b46f 55be ce88 a4bc 4f02 35be
00000110: a5bb e0bd d8e1 76bc 011c f7bd 645f 3fbd
00000120: 6065 953d 1979 f13d 5e2f 39bd 1482 e6bd
00000130: 1787 b0bd c35a 25bd 033c 883d 40a7 0e3e
00000140: d1ba 86bd 2e63 223e 2e44 0dbd 8399 e9bd
00000150: a2fb 23bd 86ba 9c3a fc99 2fbe 76f5 3e3e
00000160: a721 abbc de69 efbd f4b6 233e aa8b 19be
00000170: cce9 48be 5fa4 223e 5992 2fbe ffbf 53be
00000180: 4a6a b8bd 8cb4 28bd 1db0 b33b 4e53 3d3e
00000190: bdd6 28bd fbe3 233d d8e4 753d 23e9 1bbd
000001a0: 7b11 9abd 5cba 543e 7ed2 e9bd 13e1 29be
000001b0: 2064 14be d487 2a3e 78df bc3d 5b8c 94bc
000001c0: de04 173e 2172 e3bc 296d b0bd 557d 4fbe
000001d0: 4497 ea3d 72ae 213e 8157 e9bb a17e 173e
000001e0: d3b8 43bd abac 0d3e 0156 bdbd eb92 2b3e
000001f0: f036 ec3d 881e 283d 5a72 df3d 8897 3ebe
00000200: bc6a 19be b359 c93d bb66 c23d 225e f5bd
00000210: 8872 95bd 5499 06be ff65 063d f0a6 c43d
00000220: 8997 9c3d 4cab 0cbe d348 3dbe 8268 b1bd
00000230: d367 05be f13e 0ebe e7c4 09bd 1fbc 183c
00000240: 5514 313e ca39 f8bd f89a 893b b27b 1a3b
00000250: 42ab 553e 7d12 883c 6e07 093e 8e08 2f3e
00000260: b85a b03d 8c1b 443c 02f9 81bd 5d5d 9fbc
00000270: 4dbe 533d a06c 913d f20e 0fbe fa8a d5bd
00000280: 83c2 1bbd 84fe 043e e5ba b63d 9301 f7bd
00000290: bd8a 673c 08d8 86bd 33f5 8c3d d149 ed3d
000002a0: 2b60 093c 699d 5bbe 9462 313e 058f 12be
000002b0: b1be cbbc f1ec 583e 7a93 01be d4ee 92bb
000002c0: c312 abbc cdcd 22bd 93c5 0e3d d18b 95bd
000002d0: 47b2 84be da89 3bbd db40 55bd e6b8 b83d
000002e0: 4862 5abe 9e2b da3d 7f6f 013e c9e1 0d3e
000002f0: 2bac 7cbd eb3b 043d a3f6 e1bd 03ed 3b3e
00000300: 5516 0d3e 3f80 08bd aead 8aba 1580 28be
00000310: b821 323d 9b91 153e bd3b 03be aa24 b03d
00000320: 5929 003b a176 afbd 48b5 5b3d b7cc 0abe
00000330: effe e2bd 2721 463d 893c 9abd 64f3 e13d
00000340: a759 473e 92b6 1b3e 17ad 243c b3c9 543d
00000350: fb0b cebd f524 ffbd 5907 5a3e fe6c 0bbe
00000360: ac6f 0a3e 60ef 0e3c 6e0e 26bd 3bd4 d1bc
00000370: 98de 80bc 988a d73d 6e44 50bd 4fa1 01be
00000380: 4724 19be c3a1 323d 4745 0abe 715a ad3d
00000390: eb6a a43d 817e 26bd ddae e73d 56d2 1fbe
000003a0: 1933 c8bd 2b74 e1bd 4773 3e3e 9a88 093e
000003b0: a08d 4b3d 8b27 343e f162 fe3c 5706 d73b
000003c0: 62eb e43d 8a85 14be 9026 c13a 9b61 03be
000003d0: 8207 4c3c 3a56 fe3c 556b dd3d a46f e4bd
000003e0: 0afa 22bc 1992 243e c62a 3c3c ab86 273d
000003f0: 3245 52be 1ecc c4bd 5085 d5bd c238 b6bc

model/tf.nn.relu/Relu;model/tf.math.add/Add;model/tf.nn.convolution/convolution;model/tf.math.add/Add/y f4 [16]
0.07262691 0.17857032 0.04059593 0.040287014 -0.0017103158 -0.10704259 0.122623384 -0.037246965
-0.124133214 -0.1423943 -0.22709897 -0.084747724 0.14946799 -0.005371652 -0.124276444 -0.089850724
00000000: 6bbd 943d 23db 363e eb47 263d ff03 253d
00000010: ad2c e0ba 2539 dbbd f821 fb3d 4690 18bd
00000020: 8e39 febd d0cf 11be a28c 68be 3790 adbd
00000030: 230e 193e af04 b0bb a684 febd a803 b8bd
