Neural_network/pytorch_tflite_convert/model/output/onnx_model_full_integer_quant.tflite (tflite, 108584 bytes, 5 tensors)

tfl.pseudo_qconst1 i1 [2, 1, 1, 128]
-58 -38 -38 -55 36 21 -28 88
-49 -15 35 18 0 -57 21 -19
127 91 -60 -14 12 -24 72 -28
76 76 38 -45 -31 32 -46 -64
-3 -67 -24 -64 62 84 -75 -58
94 -76 -45 -76 29 -47 -23 -63
-47 62 -10 -46 82 -60 -84 -57
-63 -42 -88 -59 -83 90 -75 80
-6 1 -69 -66 92 87 -55 -23
-75 -17 -4 27 99 -70 -22 -54
75 -64 7 86 16 63 33 84
28 76 33 -53 89 -46 -58 74
-59 -48 90 97 35 -54 5 89
107 -65 19 93 -27 64 61 -39
-36 -57 -45 -64 -51 103 53 -53
-64 4 -56 20 82 -26 -14 -57
30 66 62 20 3 12 -23 -59
65 59 25 -33 -34 21 -34 -22
-127 -80 62 55 -10 56 -55 55
-69 -84 -23 56 56 24 49 54
-5 23 -29 61 -60 -80 -1 19
-36 39 34 41 0 71 -22 57
27 -72 57 24 -40 62 33 25
38 30 88 37 9 -47 49 -55
-25 -5 3 28 -86 -74 39 52
40 49 -9 -13 -36 6 62 37
-53 39 6 -75 -6 -85 5 -55
-32 -67 -81 61 -51 46 59 -75
14 39 -45 -81 8 28 -7 -47
-43 27 27 -42 -10 -69 -71 39
36 29 58 26 51 -88 -66 31
41 68 42 26 -87 45 -26 35
00000000: c6da dac9 2415 e458 cff1 2312 00c7 15ed
00000010: 7f5b c4f2 0ce8 48e4 4c4c 26d3 e120 d2c0
00000020: fdbd e8c0 3e54 b5c6 5eb4 d3b4 1dd1 e9c1
00000030: d13e f6d2 52c4 acc7 c1d6 a8c5 ad5a b550
00000040: fa01 bbbe 5c57 c9e9 b5ef fc1b 63ba eaca
00000050: 4bc0 0756 103f 2154 1c4c 21cb 59d2 c64a
00000060: c5d0 5a61 23ca 0559 6bbf 135d e540 3dd9
00000070: dcc7 d3c0 cd67 35cb c004 c814 52e6 f2c7
00000080: 1e42 3e14 030c e9c5 413b 19df de15 deea
00000090: 81b0 3e37 f638 c937 bbac e938 3818 3136
000000a0: fb17 e33d c4b0 ff13 dc27 2229 0047 ea39
000000b0: 1bb8 3918 d83e 2119 261e 5825 09d1 31c9
000000c0: e7fb 031c aab6 2734 2831 f7f3 dc06 3e25
000000d0: cb27 06b5 faab 05c9 e0bd af3d cd2e 3bb5
000000e0: 0e27 d3af 081c f9d1 d51b 1bd6 f6bb b927
000000f0: 241d 3a1a 33a8 be1f 2944 2a1a a92d e623

tfl.pseudo_qconst3 i1 [128, 3, 3, 64]
16 32 2 6 52 21 15 -2
-23 15 9 0 26 16 8 11
11 31 -88 -1 15 29 43 26
35 22 26 -4 28 32 8 39
7 45 25 1 3 -1 5 9
21 10 18 12 0 -16 4 -29
17 9 4 2 55 48 11 -5
0 6 -2 -10 21 28 16 -9
13 15 25 -3 55 18 20 -21
-3 -20 14 -12 9 34 3 -20
32 9 -66 -11 -11 -2 -12 38
47 -5 40 8 18 14 23 16
-17 47 42 35 -11 -28 24 -4
-11 -6 -13 40 -27 8 -4 12
-9 -19 21 38 19 33 4 2
7 12 -11 -14 -12 -6 14 -23
32 -3 2 -5 54 21 -13 -4
-34 -8 -8 -21 0 10 -20 7
11 1 -82 -10 -12 -15 5 26
47 -10 32 -18 -1 57 -14 10
-37 51 39 9 5 2 16 10
8 3 0 47 1 1 5 -32
-17 -3 13 27 45 23 15 5
-3 37 9 -36 -12 -11 16 -6
27 14 14 8 27 9 6 14
-26 6 -18 3 29 22 -2 18
0 18 -57 9 11 4 45 28
0 30 19 5 52 1 -4 38
2 37 3 3 -15 0 24 40
11 7 -7 25 -7 -9 26 -27
25 46 22 14 39 64 25 -2
20 17 -16 -31 12 20 6 1
00000000: 1020 0206 3415 0ffe e90f 0900 1a10 080b
00000010: 0b1f a8ff 0f1d 2b1a 2316 1afc 1c20 0827
00000020: 072d 1901 03ff 0509 150a 120c 00f0 04e3
00000030: 1109 0402 3730 0bfb 0006 fef6 151c 10f7
00000040: 0d0f 19fd 3712 14eb fdec 0ef4 0922 03ec
00000050: 2009 bef5 f5fe f426 2ffb 2808 120e 1710
00000060: ef2f 2a23 f5e4 18fc f5fa f328 e508 fc0c
00000070: f7ed 1526 1321 0402 070c f5f2 f4fa 0ee9
00000080: 20fd 02fb 3615 f3fc def8 f8eb 000a ec07
00000090: 0b01 aef6 f4f1 051a 2ff6 20ee ff39 f20a
000000a0: db33 2709 0502 100a 0803 002f 0101 05e0
000000b0: effd 0d1b 2d17 0f05 fd25 09dc f4f5 10fa
000000c0: 1b0e 0e08 1b09 060e e606 ee03 1d16 fe12
000000d0: 0012 c709 0b04 2d1c 001e 1305 3401 fc26
000000e0: 0225 0303 f100 1828 0b07 f919 f9f7 1ae5
000000f0: 192e 160e 2740 19fe 1411 f0e1 0c14 0601

tfl.pseudo_qconst5 i1 [64, 3, 3, 32]
-40 -9 -21 99 -22 27 -42 21
9 -12 14 -28 12 30 -28 1
-23 9 40 3 20 5 6 26
28 51 1 2 27 2 20 -2
-1 -3 23 109 -12 -7 -23 -6
1 36 45 -10 8 23 -9 17
-3 24 24 25 13 -11 28 53
11 39 1 -6 30 8 26 62
8 -21 7 113 -3 12 0 -29
-35 44 10 -1 -6 -3 0 -37
7 29 32 12 -6 26 31 52
-33 5 23 9 -5 -29 -24 41
0 33 21 -125 -30 15 -21 -21
-43 -2 29 23 -12 -12 -57 4
17 1 18 24 -3 -3 30 1
-7 41 -3 -9 22 32 -5 -11
-4 8 14 -90 -52 5 -21 5
-46 -16 34 36 4 -11 -48 -35
-14 -5 25 43 -7 47 81 47
27 48 36 -23 16 -3 -24 16
-29 31 51 -84 -67 -2 -48 -28
-11 32 33 -8 -22 -8 -31 -52
1 12 19 -8 -8 2 18 53
-5 22 11 21 2 12 -2 56
3 4 0 -109 6 15 20 27
-5 -38 36 -9 5 18 19 27
-2 -13 -10 -11 41 -7 15 16
21 13 0 40 32 35 -3 42
34 13 29 -127 1 4 -6 18
-7 -4 73 4 -2 20 14 -21
32 41 37 11 -12 27 54 44
35 47 -5 3 -9 -4 -7 39
00000000: d8f7 eb63 ea1b d615 09f4 0ee4 0c1e e401
00000010: e909 2803 1405 061a 1c33 0102 1b02 14fe
00000020: fffd 176d f4f9 e9fa 0124 2df6 0817 f711
00000030: fd18 1819 0df5 1c35 0b27 01fa 1e08 1a3e
00000040: 08eb 0771 fd0c 00e3 dd2c 0aff fafd 00db
00000050: 071d 200c fa1a 1f34 df05 1709 fbe3 e829
00000060: 0021 1583 e20f ebeb d5fe 1d17 f4f4 c704
00000070: 1101 1218 fdfd 1e01 f929 fdf7 1620 fbf5
00000080: fc08 0ea6 cc05 eb05 d2f0 2224 04f5 d0dd
00000090: f2fb 192b f92f 512f 1b30 24e9 10fd e810
000000a0: e31f 33ac bdfe d0e4 f520 21f8 eaf8 e1cc
000000b0: 010c 13f8 f802 1235 fb16 0b15 020c fe38
000000c0: 0304 0093 060f 141b fbda 24f7 0512 131b
000000d0: fef3 f6f5 29f9 0f10 150d 0028 2023 fd2a
000000e0: 220d 1d81 0104 fa12 f9fc 4904 fe14 0eeb
000000f0: 2029 250b f41b 362c 232f fb03 f7fc f927

tfl.pseudo_qconst7 i1 [32, 3, 3, 16]
-39 42 26 -24 10 43 -27 43
-6 26 -27 -52 14 9 3 5
1 -32 28 -52 7 65 3 39
-8 35 29 -4 -2 35 88 15
18 -22 37 -11 40 46 -13 -1
-42 8 -13 -10 -28 21 63 25
10 16 -1 -17 39 83 -36 16
-4 -35 -38 -60 -11 42 39 71
-51 -10 -8 -29 32 13 8 34
-30 9 38 5 8 16 115 49
-33 -1 20 -15 23 59 -2 -1
18 -1 38 -24 18 -11 56 57
-69 34 14 25 -43 43 14 22
-72 34 -56 13 -1 15 30 62
-32 47 -25 30 -34 34 -25 -28
-27 73 -39 3 7 11 127 26
-51 37 -27 -48 27 8 19 11
-21 36 -23 -19 13 -32 79 6
-38 -34 -35 15 -28 6 29 17
-7 27 0 89 -10 -16 62 29
-24 16 6 17 11 -24 28 -1
29 27 -13 22 -30 -20 45 4
-29 -25 12 51 1 -28 -1 -1
18 16 -8 38 -18 4 29 -52
-29 -26 -43 58 -1 -4 27 -24
-8 44 -29 45 -8 39 69 47
-13 -21 5 66 2 4 -6 20
-2 30 15 61 -1 38 27 -14
-40 14 27 14 -9 24 5 17
24 22 -1 6 -34 43 -3 -25
-12 25 -25 34 16 42 -16 -6
15 39 -11 33 -11 34 125 36
00000000: d92a 1ae8 0a2b e52b fa1a e5cc 0e09 0305
00000010: 01e0 1ccc 0741 0327 f823 1dfc fe23 580f
00000020: 12ea 25f5 282e f3ff d608 f3f6 e415 3f19
00000030: 0a10 ffef 2753 dc10 fcdd dac4 f52a 2747
00000040: cdf6 f8e3 200d 0822 e209 2605 0810 7331
00000050: dfff 14f1 173b feff 12ff 26e8 12f5 3839
00000060: bb22 0e19 d52b 0e16 b822 c80d ff0f 1e3e
00000070: e02f e71e de22 e7e4 e549 d903 070b 7f1a
00000080: cd25 e5d0 1b08 130b eb24 e9ed 0de0 4f06
00000090: dade dd0f e406 1d11 f91b 0059 f6f0 3e1d
000000a0: e810 0611 0be8 1cff 1d1b f316 e2ec 2d04
000000b0: e3e7 0c33 01e4 ffff 1210 f826 ee04 1dcc
000000c0: e3e6 d53a fffc 1be8 f82c e32d f827 452f
000000d0: f3eb 0542 0204 fa14 fe1e 0f3d ff26 1bf2
000000e0: d80e 1b0e f718 0511 1816 ff06 de2b fde7
000000f0: f419 e722 102a f0fa 0f27 f521 f522 7d24

tfl.pseudo_qconst9 i1 [16, 3, 3, 3]
8 -85 -90 -127 99 -108 -9 26
102 67 2 2 -84 -68 52 -68
16 48 -101 81 102 -45 57 -45
99 112 94 -70 67 10 -4 -15
-39 93 55 -24 44 -36 -41 -78
82 -107 76 30 78 37 -41 23
-12 -32 -59 -127 -65 -71 26 76
-18 105 25 -32 37 114 69 82
11 -127 -12 -108 -67 -9 -74 -28
44 72 -28 -69 -53 -25 41 85
-40 97 -21 -70 -24 1 -105 114
-13 -71 98 -92 -120 97 -105 -126
-55 -25 3 113 -25 24 37 -23
-46 127 -70 -101 -91 104 58 -11
92 -17 -54 -127 72 99 -4 93
-30 87 -58 105 72 26 68 -117
-94 62 59 -75 -46 -82 21 58
47 -84 -113 -53 -79 -85 -20 6
105 -74 3 1 127 10 81 104
52 7 -39 -12 31 43 -85 -63
-23 79 44 -59 7 -32 34 57
4 -105 85 -70 -12 104 -62 -2
-10 -19 17 -36 -127 -22 -26 44
-105 52 62 68 -30 19 -66 109
82 -20 -1 -98 26 87 -76 51
1 -51 32 -81 -66 29 -45 66
116 91 6 31 -60 -74 127 -81
92 6 -28 -17 -11 72 -35 -86
-102 30 -92 58 55 -28 77 -107
-67 -75 127 92 34 120 21 4
76 -99 1 -75 7 18 63 -65
-6 94 7 24 -120 -56 -61 -13
00000000: 08ab a681 6394 f71a 6643 0202 acbc 34bc
00000010: 1030 9b51 66d3 39d3 6370 5eba 430a fcf1
00000020: d95d 37e8 2cdc d7b2 5295 4c1e 4e25 d717
00000030: f4e0 c581 bfb9 1a4c ee69 19e0 2572 4552
00000040: 0b81 f494 bdf7 b6e4 2c48 e4bb cbe7 2955
00000050: d861 ebba e801 9772 f3b9 62a4 8861 9782
00000060: c9e7 0371 e718 25e9 d27f ba9b a568 3af5
00000070: 5cef ca81 4863 fc5d e257 c669 481a 448b
00000080: a23e 3bb5 d2ae 153a 2fac 8fcb b1ab ec06
00000090: 69b6 0301 7f0a 5168 3407 d9f4 1f2b abc1
000000a0: e94f 2cc5 07e0 2239 0497 55ba f468 c2fe
000000b0: f6ed 11dc 81ea e62c 9734 3e44 e213 be6d
000000c0: 52ec ff9e 1a57 b433 01cd 20af be1d d342
000000d0: 745b 061f c4b6 7faf 5c06 e4ef f548 ddaa
000000e0: 9a1e a43a 37e4 4d95 bdb5 7f5c 2278 1504
000000f0: 4c9d 01b5 0712 3fbf fa5e 0718 88c8 c3f3
