Neural_network/pytorch_tflite_convert/model/output/yolov5_integer_quant_with_int16_act.tflite (tflite, 90728 bytes, 26 tensors)

arith.constant26 i1 [18, 1, 1, 32]
000000 0f 2f f9 18 39 bb fc 19 37 26 05 fc 60 1a e5 fa
       15 47 -7 24 57 -69 -4 25 55 38 5 -4 96 26 -27 -6
000010 c1 21 dc 03 1d 0c da ff 81 02 ff 11 fb d2 f9 16
       -63 33 -36 3 29 12 -38 -1 -127 2 -1 17 -5 -46 -7 22
000020 61 0f 81 fb f5 28 fe e8 f4 01 e0 01 f4 bf 07 2e
       97 15 -127 -5 -11 40 -2 -24 -12 1 -32 1 -12 -65 7 46
000030 0d 2e c3 36 1e 05 ff 2e 0c fe fc 31 04 d4 a6 9d
       13 46 -61 54 30 5 -1 46 12 -2 -4 49 4 -44 -90 -99
000040 06 f2 ee 2b da e4 eb e3 3e 14 d3 b6 2b 46 cd 10
       6 -14 -18 43 -38 -28 -21 -29 62 20 -45 -74 43 70 -51 16
000050 fe c4 50 79 15 3e 05 2a 01 81 07 d8 55 ea 1d c6
       -2 -60 80 121 21 62 5 42 1 -127 7 -40 85 -22 29 -58
000060 02 0e f3 1a e9 e0 d9 c7 0c fa 0e 65 0a 38 f2 11
       2 14 -13 26 -23 -32 -39 -57 12 -6 14 101 10 56 -14 17
000070 18 c1 fa fb 20 c3 f7 23 0a d1 0f c4 7f f7 08 f2
       24 -63 -6 -5 32 -61 -9 35 10 -47 15 -60 127 -9 8 -14
000080 e8 e7 f8 dc 11 ed f9 3a 19 ee 0e 02 f1 0e 37 24
       -24 -25 -8 -36 17 -19 -7 58 25 -18 14 2 -15 14 55 36
000090 0d fa 26 19 29 db e8 ed 02 7f ec f8 f4 fb 01 ef
       13 -6 38 25 41 -37 -24 -19 2 127 -20 -8 -12 -5 1 -17
0000a0 e8 a0 65 44 e7 05 0b fa f3 18 90 3e 6f 13 c8 5a
       -24 -96 101 68 -25 5 11 -6 -13 24 -112 62 111 19 -56 90
0000b0 7e 57 24 f2 40 79 6c 1d e9 6a e3 be 22 16 81 f1
       126 87 36 -14 64 121 108 29 -23 106 -29 -66 34 22 -127 -15
0000c0 12 35 fb ed 3d b2 fa 19 43 28 04 fe 74 1e e3 fb
       18 53 -5 -19 61 -78 -6 25 67 40 4 -2 116 30 -29 -5
0000d0 ba 25 d9 03 1f 0e 14 fe 81 01 00 11 f7 cd f8 18
       -70 37 -39 3 31 14 20 -2 -127 1 0 17 -9 -51 -8 24
0000e0 62 13 81 fd f3 2a fe ec f2 fe dc 02 f6 b9 08 2e
       98 19 -127 -3 -13 42 -2 -20 -14 -2 -36 2 -10 -71 8 46
0000f0 0e 37 c0 3e 20 02 00 48 0a 00 d2 32 05 d3 a0 9a
       14 55 -64 62 32 2 0 72 10 0 -46 50 5 -45 -96 -102

arith.constant27 i1 [32, 1, 1, 32]
000000 e1 dc 04 06 10 23 9c da 3b e3 f3 40 e7 dc 16 d5
       -31 -36 4 6 16 35 -100 -38 59 -29 -13 64 -25 -36 22 -43
000010 dd 1c e0 13 19 fd f5 37 81 e4 1a fe 06 01 f7 aa
       -35 28 -32 19 25 -3 -11 55 -127 -28 26 -2 6 1 -9 -86
000020 0b 01 eb f2 fd 22 cd e2 ff 05 17 e0 f6 ed f6 45
       11 1 -21 -14 -3 34 -51 -30 -1 5 23 -32 -10 -19 -10 69
000030 e3 31 03 14 e4 14 dd c5 a6 d7 24 81 01 d5 ba ee
       -29 49 3 20 -28 20 -35 -59 -90 -41 36 -127 1 -43 -70 -18
000040 db d0 00 f5 1a 3a d0 29 28 00 09 d0 d0 e0 20 f5
       -37 -48 0 -11 26 58 -48 41 40 0 9 -48 -48 -32 32 -11
000050 e7 19 db fd 24 3e e2 29 81 e4 c2 e0 01 00 eb 0a
       -25 25 -37 -3 36 62 -30 41 -127 -28 -62 -32 1 0 -21 10
000060 eb e6 0d 04 02 12 e7 81 05 ed 38 b3 9f 01 09 14
       -21 -26 13 4 2 18 -25 -127 5 -19 56 -77 -97 1 9 20
000070 0b ec eb 0a 10 24 fc f6 a3 d2 dd e5 1a 02 21 c8
       11 -20 -21 10 16 36 -4 -10 -93 -46 -35 -27 26 2 33 -56
000080 59 db 03 cf 0a 06 14 1f 1b 10 2e 81 90 c0 f9 c0
       89 -37 3 -49 10 6 20 31 27 16 46 -127 -112 -64 -7 -64
000090 e8 16 e5 5e e3 05 27 df a5 ca 3a 05 1b d1 d1 c6
       -24 22 -27 94 -29 5 39 -33 -91 -54 58 5 27 -47 -47 -58
0000a0 ae e3 13 1f fc d5 0c fd 30 01 c4 3e a1 ea 23 81
       -82 -29 19 31 -4 -43 12 -3 48 1 -60 62 -95 -22 35 -127
0000b0 6b 0c e3 32 63 e0 4c 01 d7 f3 e2 b9 4f 06 d5 8c
       107 12 -29 50 99 -32 76 1 -41 -13 -30 -71 79 6 -43 -116
0000c0 01 fd 9f bf f2 e8 03 01 0b 0e 8e 81 f7 c6 b2 fa
       1 -3 -97 -65 -14 -24 3 1 11 14 -114 -127 -9 -58 -78 -6
0000d0 f8 ca da 83 e7 ee bf f4 f3 e2 ea f4 f5 28 c2 06
       -8 -54 -38 -125 -25 -18 -65 -12 -13 -30 -22 -12 -11 40 -62 6
0000e0 14 a4 d4 c6 17 e1 01 d8 29 1a bc 81 0b f5 0a 0d
       20 -92 -44 -58 23 -31 1 -40 41 26 -68 -127 11 -11 10 13
0000f0 c0 f5 cd fd f4 e4 10 09 1b d1 31 19 02 e8 23 11
       -64 -11 -51 -3 -12 -28 16 9 27 -47 49 25 2 -24 35 17

arith.constant28 i1 [1, 3, 3, 32]
000000 fe ff 15 e6 ed fd f7 fb fe 00 fd ff 08 0b f9 ff
       -2 -1 21 -26 -19 -3 -9 -5 -2 0 -3 -1 8 11 -7 -1
000010 fd ff 0b ff 03 ef 00 12 00 fe fd 00 f7 d6 02 fe
       -3 -1 11 -1 3 -17 0 18 0 -2 -3 0 -9 -42 2 -2
000020 fc fe 7f 9b 7f 23 00 da 00 06 fc fb 09 e1 ec fe
       -4 -2 127 -101 127 35 0 -38 0 6 -4 -5 9 -31 -20 -2
000030 f5 04 9e f8 11 d6 04 21 ff f1 f9 fe f8 fd 04 58
       -11 4 -98 -8 17 -42 4 33 -1 -15 -7 -2 -8 -3 4 88
000040 ff ff 42 c5 b6 00 04 21 fb 02 f8 05 03 fc 18 0a
       -1 -1 66 -59 -74 0 4 33 -5 2 -8 5 3 -4 24 10
000050 fd fe 01 06 ff 05 04 01 00 fe 00 08 10 1f ff fc
       -3 -2 1 6 -1 5 4 1 0 -2 0 8 16 31 -1 -4
000060 fd f8 fa b3 f9 0f fd bb fb fb 03 fb ee 45 fe 01
       -3 -8 -6 -77 -7 15 -3 -69 -5 -5 3 -5 -18 69 -2 1
000070 2c fe 15 f8 e2 d7 e6 09 05 05 fd 02 18 c9 05 fd
       44 -2 21 -8 -30 -41 -26 9 5 5 -3 2 24 -55 5 -3
000080 81 81 09 81 b8 81 8d 81 f9 b0 7f 81 7f 81 ed 81
       -127 -127 9 -127 -72 -127 -115 -127 -7 -80 127 -127 127 -127 -19 -127
000090 81 81 81 7f 81 81 81 81 7f 7f 81 81 81 c2 7f 81
       -127 -127 -127 127 -127 -127 -127 -127 127 127 -127 -127 -127 -62 127 -127
0000a0 49 fe 27 8b e6 cd 41 8b ff ff fa de 03 f7 7f 7a
       73 -2 39 -117 -26 -51 65 -117 -1 -1 -6 -34 3 -9 127 122
0000b0 04 37 a8 d0 c8 ca f7 00 ea 07 4b 57 0b 7f 20 02
       4 55 -88 -48 -56 -54 -9 0 -22 7 75 87 11 127 32 2
0000c0 00 fc ff df ff 00 fd 03 04 04 03 fe 0b f4 03 fe
       0 -4 -1 -33 -1 0 -3 3 4 4 3 -2 11 -12 3 -2
0000d0 fa 04 07 05 0e fe 19 03 02 02 02 02 0e d4 00 01
       -6 4 7 5 14 -2 25 3 2 2 2 2 14 -44 0 1
0000e0 db 70 d9 92 ee 93 7f 85 7f 7f 2e 32 ee 1a f0 ed
       -37 112 -39 -110 -18 -109 127 -123 127 127 46 50 -18 26 -16 -19
0000f0 f6 e2 8e ea d2 90 99 00 ea 04 03 e7 38 dc 3b fd
       -10 -30 -114 -22 -46 -112 -103 0 -22 4 3 -25 56 -36 59 -3

arith.constant29 i1 [32, 1, 1, 32]
000000 e7 10 d2 42 e1 d6 67 f7 1c d1 0c f5 02 ea e2 2b
       -25 16 -46 66 -31 -42 103 -9 28 -47 12 -11 2 -22 -30 43
000010 0d f2 fd 1d 2c 81 ba d6 fb 0b ee d2 d8 e3 2c 1f
       13 -14 -3 29 44 -127 -70 -42 -5 11 -18 -46 -40 -29 44 31
000020 f4 22 1b 14 e6 da 72 50 ec 13 d6 00 dd 13 fc e2
       -12 34 27 20 -26 -38 114 80 -20 19 -42 0 -35 19 -4 -30
000030 03 7f fc fe df c4 d5 d5 12 06 2a 3f 53 32 0a f6
       3 127 -4 -2 -33 -60 -43 -43 18 6 42 63 83 50 10 -10
000040 2f 4b 57 e6 06 bc cf f3 ec ed 5b 2e 5c cf 81 eb
       47 75 87 -26 6 -68 -49 -13 -20 -19 91 46 92 -49 -127 -21
000050 3b 08 3e ef fa 04 21 ee c1 60 30 f6 49 b6 6f 05
       59 8 62 -17 -6 4 33 -18 -63 96 48 -10 73 -74 111 5
000060 12 19 f5 1d 1f 0c 1f e0 23 38 11 11 73 d2 9d 1c
       18 25 -11 29 31 12 31 -32 35 56 17 17 115 -46 -99 28
000070 05 2e f3 1e 06 03 fb de 1b e4 12 22 12 11 25 7f
       5 46 -13 30 6 3 -5 -34 27 -28 18 34 18 17 37 127
000080 9d 49 43 42 0c 1b 85 16 89 00 15 e8 85 ee ee 31
       -99 73 67 66 12 27 -123 22 -119 0 21 -24 -123 -18 -18 49
000090 e4 ec 33 dd f2 81 a7 54 99 db 45 9e 14 f7 61 d7
       -28 -20 51 -35 -14 -127 -89 84 -103 -37 69 -98 20 -9 97 -41
0000a0 ed a8 0d 0f 7b 2b 18 1d 30 ce f1 a4 39 26 f6 d5
       -19 -88 13 15 123 43 24 29 48 -50 -15 -92 57 38 -10 -43
0000b0 fb f6 45 7f c4 d5 f0 b2 07 fe 29 59 e7 e5 6d 12
       -5 -10 69 127 -60 -43 -16 -78 7 -2 41 89 -25 -27 109 18
0000c0 c4 f4 e3 10 f9 4e 7f ef f1 d9 fd 2b f8 00 c5 64
       -60 -12 -29 16 -7 78 127 -17 -15 -39 -3 43 -8 0 -59 100
0000d0 02 1b c7 16 3b 9a bf d0 0b c1 e3 ff 33 16 d7 2e
       2 27 -57 22 59 -102 -65 -48 11 -63 -29 -1 51 22 -41 46
0000e0 d1 11 7f c0 03 e4 f3 c4 5f 0e 90 27 00 fb f2 df
       -47 17 127 -64 3 -28 -13 -60 95 14 -112 39 0 -5 -14 -33
0000f0 dd 1d 5a 4e 0c e3 de 31 d4 32 ba 20 37 48 66 60
       -35 29 90 78 12 -29 -34 49 -44 50 -70 32 55 72 102 96

arith.constant30 i1 [18, 1, 1, 64]
000000 05 ff 10 86 fb 6c e0 e3 ff 20 06 46 fe c0 09 19
       5 -1 16 -122 -5 108 -32 -29 -1 32 6 70 -2 -64 9 25
000010 cf 17 0d 26 01 ea 5f 2c f2 89 f3 45 c3 f6 06 9b
       -49 23 13 38 1 -22 95 44 -14 -119 -13 69 -61 -10 6 -101
000020 0e 7f 03 ef 1d d5 1b 12 06 2b bb f6 2e 00 00 0d
       14 127 3 -17 29 -43 27 18 6 43 -69 -10 46 0 0 13
000030 f8 11 fe 0d 2e ff 0d fd ec fb 1c 0c 0c c9 fb f9
       -8 17 -2 13 46 -1 13 -3 -20 -5 28 12 12 -55 -5 -7
000040 27 08 f9 07 00 04 1e 9a f8 3f ef e4 a3 fc fb f6
       39 8 -7 7 0 4 30 -102 -8 63 -17 -28 -93 -4 -5 -10
000050 15 43 f5 09 07 05 f9 0e e1 fd 46 e1 f6 01 bc fa
       21 67 -11 9 7 5 -7 14 -31 -3 70 -31 -10 1 -68 -6
000060 ee f5 fc 7f fd f1 eb 5d 42 04 34 ff ff f0 ca 37
       -18 -11 -4 127 -3 -15 -21 93 66 4 52 -1 -1 -16 -54 55
000070 04 02 90 0a 1c 04 19 fd 44 f9 c1 c9 b3 f6 08 ce
       4 2 -112 10 28 4 25 -3 68 -7 -63 -55 -77 -10 8 -50
000080 ed de a9 f9 0d ff c7 f0 07 13 d4 d4 0d 1f de 20
       -19 -34 -87 -7 13 -1 -57 -16 7 19 -44 -44 13 31 -34 32
000090 2f f1 ed dc 17 dc 0a ff fc 03 02 26 c0 05 0d f3
       47 -15 -19 -36 23 -36 10 -1 -4 3 2 38 -64 5 13 -13
0000a0 de f0 0c 01 c3 d2 ce 14 f6 81 a6 08 38 10 02 0d
       -34 -16 12 1 -61 -46 -50 20 -10 -127 -90 8 56 16 2 13
0000b0 e5 e6 05 ed d9 e6 d5 c9 fc d3 ef 01 ee 9d 05 07
       -27 -26 5 -19 -39 -26 -43 -55 -4 -45 -17 1 -18 -99 5 7
0000c0 45 ce fd f7 ca 19 12 d1 c5 fc d8 ff 18 01 ef da
       69 -50 -3 -9 -54 25 18 -47 -59 -4 -40 -1 24 1 -17 -38
0000d0 f8 f7 c7 f8 1d e9 0a 09 31 1a db 01 f9 da e7 f1
       -8 -9 -57 -8 29 -23 10 9 49 26 -37 1 -7 -38 -25 -15
0000e0 81 fe cd e9 27 f4 d9 26 ea 0a ea cf f6 be 14 f5
       -127 -2 -51 -23 39 -12 -39 38 -22 10 -22 -49 -10 -66 20 -11
0000f0 f8 b9 fd e1 fd 11 e9 ed ef de 13 f2 eb ef 2f f4
       -8 -71 -3 -31 -3 17 -23 -19 -17 -34 19 -14 -21 -17 47 -12

arith.constant31 i1 [64, 1, 1, 64]
000000 ed b5 e7 d1 01 81 05 2d a8 c4 c0 02 08 d1 00 f9
       -19 -75 -25 -47 1 -127 5 45 -88 -60 -64 2 8 -47 0 -7
000010 28 df 28 33 15 cb f4 e7 bd 31 01 19 d6 d7 fb 00
       40 -33 40 51 21 -53 -12 -25 -67 49 1 25 -42 -41 -5 0
000020 4f f3 02 fb df d5 e9 de d1 fe f3 ab c9 f5 d6 0b
       79 -13 2 -5 -33 -43 -23 -34 -47 -2 -13 -85 -55 -11 -42 11
000030 1c 2f ef 5d d9 fe ef 19 c3 da 3a 09 ce 00 f2 03
       28 47 -17 93 -39 -2 -17 25 -61 -38 58 9 -50 0 -14 3
000040 08 2b 02 b1 0b d5 e7 db dc 70 ef 10 ff c7 db f2
       8 43 2 -79 11 -43 -25 -37 -36 112 -17 16 -1 -57 -37 -14
000050 e6 0d dc b5 15 b5 f7 14 81 bf 09 d0 23 e9 bc 20
       -26 13 -36 -75 21 -75 -9 20 -127 -65 9 -48 35 -23 -68 32
000060 00 22 d7 04 01 15 2f e3 f3 28 f2 13 2a dc b5 fa
       0 34 -41 4 1 21 47 -29 -13 40 -14 19 42 -36 -75 -6
000070 c3 e4 0d 16 db f0 04 15 1b ab fe f3 e5 e6 fc 1b
       -61 -28 13 22 -37 -16 4 21 27 -85 -2 -13 -27 -26 -4 27
000080 0f c7 06 87 cc 36 f0 05 b9 06 dd 07 e3 3d 03 f8
       15 -57 6 -121 -52 54 -16 5 -71 6 -35 7 -29 61 3 -8
000090 09 fa ed 23 f8 9a 1c 01 ea c7 e9 21 c7 bd f3 fd
       9 -6 -19 35 -8 -102 28 1 -22 -57 -23 33 -57 -67 -13 -3
0000a0 f2 15 f0 f6 f2 17 23 49 f4 fd ef 40 b2 f2 d0 ce
       -14 21 -16 -10 -14 23 35 73 -12 -3 -17 64 -78 -14 -48 -50
0000b0 0b 01 cc f5 b1 24 07 81 07 ac 2c 14 d9 f7 f6 ef
       11 1 -52 -11 -79 36 7 -127 7 -84 44 20 -39 -9 -10 -17
0000c0 e4 c9 09 16 1f c1 f0 02 1e d5 0c 07 f0 eb 1a 06
       -28 -55 9 22 31 -63 -16 2 30 -43 12 7 -16 -21 26 6
0000d0 c6 fc ee fc f3 f3 18 eb d9 f0 f6 f8 07 49 a1 e2
       -58 -4 -18 -4 -13 -13 24 -21 -39 -16 -10 -8 7 73 -95 -30
0000e0 e5 ef 18 df 01 ed d5 c4 f4 fa fb c5 e2 e8 f1 f2
       -27 -17 24 -33 1 -19 -43 -60 -12 -6 -5 -59 -30 -24 -15 -14
0000f0 f2 ed 05 d0 cc f7 0d ee fc c8 f2 f3 7f ed 19 2c
       -14 -19 5 -48 -52 -9 13 -18 -4 -56 -14 -13 127 -19 25 44

arith.constant32 i1 [1, 3, 3, 64]
000000 00 02 ba ff 00 fe f2 fc f5 ff 00 b2 09 00 02 00
       0 2 -70 -1 0 -2 -14 -4 -11 -1 0 -78 9 0 2 0
000010 01 ea f9 ff 0f 09 a0 ff 00 fe 09 fd 01 ff ff 00
       1 -22 -7 -1 15 9 -96 -1 0 -2 9 -3 1 -1 -1 0
000020 00 fa fe 00 06 01 fe 02 02 01 25 02 01 fd 00 fb
       0 -6 -2 0 6 1 -2 2 2 1 37 2 1 -3 0 -5
000030 07 01 c9 02 fe 09 5d 01 00 00 ff f8 fe 00 06 fd
       7 1 -55 2 -2 9 93 1 0 0 -1 -8 -2 0 6 -3
000040 11 01 96 00 b3 01 d8 05 07 03 fd 5a 7f 03 fd cb
       17 1 -106 0 -77 1 -40 5 7 3 -3 90 127 3 -3 -53
000050 01 ce 26 00 04 09 97 ff 06 00 26 0b fc 02 fd 21
       1 -50 38 0 4 9 -105 -1 6 0 38 11 -4 2 -3 33
000060 00 c0 fe fe 0f 05 49 ff fd 02 81 02 03 fc ff c5
       0 -64 -2 -2 15 5 73 -1 -3 2 -127 2 3 -4 -1 -59
000070 58 fd 00 fe fe 16 82 04 cd 05 06 07 03 00 0f fe
       88 -3 0 -2 -2 22 -126 4 -51 5 6 7 3 0 15 -2
000080 01 01 0b 00 0d 00 fb 02 03 ff fe 01 f5 01 fc 7f
       1 1 11 0 13 0 -5 2 3 -1 -2 1 -11 1 -4 127
000090 ff 00 3a fd d7 f5 bb 02 00 00 1e f1 fe fc 04 ef
       -1 0 58 -3 -41 -11 -69 2 0 0 30 -15 -2 -4 4 -17
0000a0 00 0e fa 02 e3 04 0e 02 f5 06 cf 00 fc 04 fb f8
       0 14 -6 2 -29 4 14 2 -11 6 -49 0 -4 4 -5 -8
0000b0 fe 03 34 fa 03 08 93 fc ec ff 03 08 fc 02 fb 00
       -2 3 52 -6 3 8 -109 -4 -20 -1 3 8 -4 2 -5 0
0000c0 03 00 eb 02 d2 fe 16 af ed ff 03 f3 00 01 fd d6
       3 0 -21 2 -46 -2 22 -81 -19 -1 3 -13 0 1 -3 -42
0000d0 ff ff 09 02 fa 00 e8 fc 00 0b 81 01 00 ff 01 08
       -1 -1 9 2 -6 0 -24 -4 0 11 -127 1 0 -1 1 8
0000e0 ff c0 fc ff bd fe 05 fc f9 fb 97 fc 01 ff 01 f8
       -1 -64 -4 -1 -67 -2 5 -4 -7 -5 -105 -4 1 -1 1 -8
0000f0 fc 02 36 f6 00 0c 78 fb ff 02 f5 f4 ff 02 0d 7f
       -4 2 54 -10 0 12 120 -5 -1 2 -11 -12 -1 2 13 127

arith.constant33 i1 [64, 1, 1, 64]
000000 e0 df f7 d4 0c ca 27 20 e6 0f 07 33 f4 04 ea e7
       -32 -33 -9 -44 12 -54 39 32 -26 15 7 51 -12 4 -22 -25
000010 2b 00 11 1b 31 c0 e8 13 02 ce 0d 94 b7 df f9 55
       43 0 17 27 49 -64 -24 19 2 -50 13 -108 -73 -33 -7 85
000020 13 d2 f3 cc f4 d3 12 fd ca a8 ce 01 32 d4 02 31
       19 -46 -13 -52 -12 -45 18 -3 -54 -88 -50 1 50 -44 2 49
000030 ee cc ea f9 02 4e ce c7 06 e0 eb 30 7f 38 04 e6
       -18 -52 -22 -7 2 78 -50 -57 6 -32 -21 48 127 56 4 -26
000040 ed ea 1d cd a2 16 ec ef 15 4f 0c d2 0a 1b 06 1e
       -19 -22 29 -51 -94 22 -20 -17 21 79 12 -46 10 27 6 30
000050 10 08 eb c4 e8 23 24 99 12 1e c3 07 2a 08 ed f9
       16 8 -21 -60 -24 35 36 -103 18 30 -61 7 42 8 -19 -7
000060 f2 14 fd 0f 12 e1 00 e1 16 12 a3 05 23 1b 11 f6
       -14 20 -3 15 18 -31 0 -31 22 18 -93 5 35 27 17 -10
000070 0e 27 f5 26 d6 d0 16 fc 81 17 34 df d7 f1 15 08
       14 39 -11 38 -42 -48 22 -4 -127 23 52 -33 -41 -15 21 8
000080 fc 95 61 07 44 ca 38 f7 c0 ed 91 ee 8b 04 c1 38
       -4 -107 97 7 68 -54 56 -9 -64 -19 -111 -18 -117 4 -63 56
000090 c8 32 ed 08 d8 97 47 10 0e b0 ab e5 f1 04 55 41
       -56 50 -19 8 -40 -105 71 16 14 -80 -85 -27 -15 4 85 65
0000a0 d7 25 04 b5 b9 af 44 ec 9d eb 39 b7 e0 2d fe ef
       -41 37 4 -75 -71 -81 68 -20 -99 -21 57 -73 -32 45 -2 -17
0000b0 26 13 a0 81 9e bb 02 19 60 2b 10 d3 ee fc 32 be
       38 19 -96 -127 -98 -69 2 25 96 43 16 -45 -18 -4 50 -66
0000c0 99 c3 3f 2e b6 08 e4 f6 db fd e1 0a cc fc e1 ee
       -103 -61 63 46 -74 8 -28 -10 -37 -3 -31 10 -52 -4 -31 -18
0000d0 1b 79 d1 58 43 19 48 81 01 67 a8 ad f3 f9 23 bd
       27 121 -47 88 67 25 72 -127 1 103 -88 -83 -13 -7 35 -67
0000e0 e1 f4 1b df 39 e8 bc 1b c8 b1 db da 10 b6 43 ee
       -31 -12 27 -33 57 -24 -68 27 -56 -79 -37 -38 16 -74 67 -18
0000f0 18 d6 14 ec d4 cb ff a7 a6 18 29 bf e7 e7 db e3
       24 -42 20 -20 -44 -53 -1 -89 -90 24 41 -65 -25 -25 -37 -29

arith.constant34 i1 [18, 1, 1, 64]
000000 2e 36 e4 a3 13 71 bb 81 30 08 f6 f3 02 eb ed 1f
       46 54 -28 -93 19 113 -69 -127 48 8 -10 -13 2 -21 -19 31
000010 a7 29 21 35 22 e7 d6 fb ef 0d e0 fb b5 fb e0 bd
       -89 41 33 53 34 -25 -42 -5 -17 13 -32 -5 -75 -5 -32 -67
000020 13 4c a9 08 f0 f0 fc dc 0c 19 09 39 d7 e5 0d 2b
       19 76 -87 8 -16 -16 -4 -36 12 25 9 57 -41 -27 13 43
000030 19 d3 3f 71 23 f3 08 d0 c7 0f 06 1f e1 2b 5a ed
       25 -45 63 113 35 -13 8 -48 -57 15 6 31 -31 43 90 -19
000040 0a f9 1e f3 ac 05 03 da 10 6c 0f 11 08 f5 fd c9
       10 -7 30 -13 -84 5 3 -38 16 108 15 17 8 -11 -3 -55
000050 08 1d fe 14 36 1b 35 fc 3b f0 f6 04 81 fc 22 0b
       8 29 -2 20 54 27 53 -4 59 -16 -10 4 -127 -4 34 11
000060 37 0a 2e 05 25 f8 df 23 40 0f e8 ea 2c bf 27 34
       55 10 46 5 37 -8 -33 35 64 15 -24 -22 44 -65 39 52
000070 37 06 cb 23 95 de 19 23 06 1b 0c 30 31 e5 fb 69
       55 6 -53 35 -107 -34 25 35 6 27 12 48 49 -27 -5 105
000080 2a 03 ed 1f 73 46 48 7f 52 f8 7a 16 05 0a 7b f9
       42 3 -19 31 115 70 72 127 82 -8 122 22 5 10 123 -7
000090 da 45 56 f4 38 70 10 29 23 f4 33 55 22 11 fd 6c
       -38 69 86 -12 56 112 16 41 35 -12 51 85 34 17 -3 108
0000a0 49 ec 61 6c 0a 73 d6 12 07 f2 e6 58 fa e4 11 5a
       73 -20 97 108 10 115 -42 18 7 -14 -26 88 -6 -28 17 90
0000b0 53 2c f6 50 3a 02 19 fa 4a 25 42 41 1f e2 35 46
       83 44 -10 80 58 2 25 -6 74 37 66 65 31 -30 53 70
0000c0 3b e9 d8 03 26 dc 27 48 03 ec 22 18 df f2 63 46
       59 -23 -40 3 38 -36 39 72 3 -20 34 24 -33 -14 99 70
0000d0 eb fa 10 47 76 1c ff 43 64 06 4b f7 22 47 d2 53
       -21 -6 16 71 118 28 -1 67 100 6 75 -9 34 71 -46 83
0000e0 16 59 5b 37 0c 66 d4 fc 08 37 f0 54 22 ff 00 2a
       22 89 91 55 12 102 -44 -4 8 55 -16 84 34 -1 0 42
0000f0 ff 24 d6 c6 f6 1b e0 dd 1a 3b 7f c4 1e 13 cc 1d
       -1 36 -42 -58 -10 27 -32 -35 26 59 127 -60 30 19 -52 29

arith.constant35 i1 [64, 1, 1, 64]
000000 da 36 f6 11 ab 04 f6 42 83 37 bc ca 21 08 e6 32
       -38 54 -10 17 -85 4 -10 66 -125 55 -68 -54 33 8 -26 50
000010 c1 48 0a b1 ef d9 b9 e1 20 af 04 c9 b6 8b 8d b1
       -63 72 10 -79 -17 -39 -71 -31 32 -81 4 -55 -74 -117 -115 -79
000020 f3 3b ee 1b 7f 6c 0b bd 62 09 40 99 a1 3a 50 27
       -13 59 -18 27 127 108 11 -67 98 9 64 -103 -95 58 80 39
000030 5f af 5d 45 9e 41 a7 3c 63 ef 5d 8f 06 16 0c 0c
       95 -81 93 69 -98 65 -89 60 99 -17 93 -113 6 22 12 12
000040 d7 73 43 c8 a8 49 b2 16 86 8b 9f 81 66 17 77 e9
       -41 115 67 -56 -88 73 -78 22 -122 -117 -97 -127 102 23 119 -23
000050 37 d0 34 f4 c4 29 53 c6 d5 23 e7 bd 67 cb 9b 5a
       55 -48 52 -12 -60 41 83 -58 -43 35 -25 -67 103 -53 -101 90
000060 c2 cb 1b 2d 27 93 44 ee 73 b0 8c 33 b7 da d0 95
       -62 -53 27 45 39 -109 68 -18 115 -80 -116 51 -73 -38 -48 -107
000070 40 1a 4f 21 dd 51 e9 9e e9 ec a0 b8 c9 a6 30 d8
       64 26 79 33 -35 81 -23 -98 -23 -20 -96 -72 -55 -90 48 -40
000080 8c ac ea f7 45 38 14 ab 48 fa 08 12 aa e3 bc 9c
       -116 -84 -22 -9 69 56 20 -85 72 -6 8 18 -86 -29 -68 -100
000090 06 e8 39 3d e6 bc 27 69 12 8d 7f a6 2e 92 4f 68
       6 -24 57 61 -26 -68 39 105 18 -115 127 -90 46 -110 79 104
0000a0 7a 01 10 97 18 05 45 92 fe 0d 1c 61 c4 6b a9 64
       122 1 16 -105 24 5 69 -110 -2 13 28 97 -60 107 -87 100
0000b0 3f da a3 76 05 48 41 ff 0d ad 03 8c b0 95 1b 19
       63 -38 -93 118 5 72 65 -1 13 -83 3 -116 -80 -107 27 25
0000c0 33 0a ae 56 24 fc 5d 9a a7 b7 a6 4a 5a 14 9c 0a
       51 10 -82 86 36 -4 93 -102 -89 -73 -90 74 90 20 -100 10
0000d0 65 3a 34 f3 96 cd 67 d8 4e 6e 22 30 a3 f2 12 20
       101 58 52 -13 -106 -51 103 -40 78 110 34 48 -93 -14 18 32
0000e0 2e dc 43 b1 95 0d d4 e2 d3 ba 1f f6 9d 16 16 21
       46 -36 67 -79 -107 13 -44 -30 -45 -70 31 -10 -99 22 22 33
0000f0 cc 10 e2 46 3e 81 db 54 d3 f9 13 fa a7 c7 9d d5
       -52 16 -30 70 62 -127 -37 84 -45 -7 19 -6 -89 -57 -99 -43

arith.constant36 i1 [1, 3, 3, 64]
000000 e5 f0 81 0b 2b f6 09 34 fc f6 0a 07 2f 02 2c 70
       -27 -16 -127 11 43 -10 9 52 -4 -10 10 7 47 2 44 112
000010 7c c5 81 19 06 ff 5f fd b2 c0 22 0a e5 6e b5 81
       124 -59 -127 25 6 -1 95 -3 -78 -64 34 10 -27 110 -75 -127
000020 55 5a 4a 74 b4 e4 99 d9 8c 30 e5 bc ba 93 81 05
       85 90 74 116 -76 -28 -103 -39 -116 48 -27 -68 -70 -109 -127 5
000030 ec c5 d4 13 34 fd 4b 17 e0 7f 36 cc 03 1b 97 6f
       -20 -59 -44 19 52 -3 75 23 -32 127 54 -52 3 27 -105 111
000040 fa 3e 35 e5 3f 9a 10 cb 7f 81 ce 11 a4 0e 40 3a
       -6 62 53 -27 63 -102 16 -53 127 -127 -50 17 -92 14 64 58
000050 b1 d8 d9 68 9c fc b5 c4 ac 81 f0 0a c0 81 54 21
       -79 -40 -39 104 -100 -4 -75 -60 -84 -127 -16 10 -64 -127 84 33
000060 c2 a3 16 b4 f6 39 1f 2a 65 a8 8b 02 02 23 8a 62
       -62 -93 22 -76 -10 57 31 42 101 -88 -117 2 2 35 -118 98
000070 cb 6c f9 ae 62 12 2d e1 56 26 f2 fb 39 e2 91 b1
       -53 108 -7 -82 98 18 45 -31 86 38 -14 -5 57 -30 -111 -79
000080 40 3e 54 e9 81 6b 30 d8 d9 a8 a1 d0 46 81 fc 91
       64 62 84 -23 -127 107 48 -40 -39 -88 -95 -48 70 -127 -4 -111
000090 9f 81 c8 13 41 ff 11 ec f2 b6 e6 1a 37 f5 4b 50
       -97 -127 -56 19 65 -1 17 -20 -14 -74 -26 26 55 -11 75 80
0000a0 ef 17 43 ef fa e2 b2 cf 0b 15 d8 a7 e6 a2 78 87
       -17 23 67 -17 -6 -30 -78 -49 11 21 -40 -89 -26 -94 120 -121
0000b0 23 03 10 2b 16 10 d6 ff 24 0c 98 00 7d d2 d0 6a
       35 3 16 43 22 16 -42 -1 36 12 -104 0 125 -46 -48 106
0000c0 0a 3e a7 c8 09 3a d5 02 d9 18 c1 5d 5c 04 0f 77
       10 62 -89 -56 9 58 -43 2 -39 24 -63 93 92 4 15 119
0000d0 1a 8f e9 05 d9 5e c8 13 e8 eb 36 ef a4 4c 1c 6e
       26 -113 -23 5 -39 94 -56 19 -24 -21 54 -17 -92 76 28 110
0000e0 f7 ab 65 81 d7 0e 4a ed b9 64 a3 5c e3 64 e1 24
       -9 -85 101 -127 -41 14 74 -19 -71 100 -93 92 -29 100 -31 36
0000f0 d5 4c 98 31 bb 08 10 02 10 19 af 09 40 11 c3 71
       -43 76 -104 49 -69 8 16 2 16 25 -81 9 64 17 -61 113

arith.constant37 i1 [64, 1, 1, 64]
000000 1d f4 cb 9b fb 10 e9 98 1d 2f 9c ed 27 e7 b5 ce
       29 -12 -53 -101 -5 16 -23 -104 29 47 -100 -19 39 -25 -75 -50
000010 1f 19 e0 73 c5 d2 df 7f c7 e8 55 e1 45 d8 e8 10
       31 25 -32 115 -59 -46 -33 127 -57 -24 85 -31 69 -40 -24 16
000020 c1 97 a0 b0 24 27 2e fb f0 2a bd f8 30 b6 c1 0c
       -63 -105 -96 -80 36 39 46 -5 -16 42 -67 -8 48 -74 -63 12
000030 58 11 08 e4 32 0e 38 bb ee b5 df f4 ee e6 16 d0
       88 17 8 -28 50 14 56 -69 -18 -75 -33 -12 -18 -26 22 -48
000040 77 6e ce ed ff 28 29 50 63 e9 19 b8 1f 4c 6c 12
       119 110 -50 -19 -1 40 41 80 99 -23 25 -72 31 76 108 18
000050 1c 07 b3 60 bd 71 40 ff 20 b0 8c 8a 35 b4 d0 03
       28 7 -77 96 -67 113 64 -1 32 -80 -116 -118 53 -76 -48 3
000060 25 c3 13 06 4f 07 42 46 0d 57 4c 0b 81 36 a8 32
       37 -61 19 6 79 7 66 70 13 87 76 11 -127 54 -88 50
000070 05 c5 18 cb d3 fd ed dc c9 60 1c 53 e0 e8 e1 a8
       5 -59 24 -53 -45 -3 -19 -36 -55 96 28 83 -32 -24 -31 -88
000080 81 a3 16 3f d4 e0 bc 42 1e 00 2a 41 07 61 97 c6
       -127 -93 22 63 -44 -32 -68 66 30 0 42 65 7 97 -105 -58
000090 50 6b 89 1e 4f d1 d7 ce 9c a7 86 88 2d 1f 3f e5
       80 107 -119 30 79 -47 -41 -50 -100 -89 -122 -120 45 31 63 -27
0000a0 ee 8d df 64 3e 83 89 17 b2 34 b2 08 f8 9e 1d d3
       -18 -115 -33 100 62 -125 -119 23 -78 52 -78 8 -8 -98 29 -45
0000b0 96 b5 2b 96 ac 44 a4 7a a5 1c ce 51 19 16 1b 60
       -106 -75 43 -106 -84 68 -92 122 -91 28 -50 81 25 22 27 96
0000c0 75 e4 9f 78 e4 e1 61 f7 cd fd 40 da d8 24 d2 ca
       117 -28 -97 120 -28 -31 97 -9 -51 -3 64 -38 -40 36 -46 -54
0000d0 39 4b ce dd e2 f8 e5 82 f3 0a 29 c9 f0 38 d1 12
       57 75 -50 -35 -30 -8 -27 -126 -13 10 41 -55 -16 56 -47 18
0000e0 d3 cb ef cd 35 b9 54 14 fb 25 f2 81 eb 2d f9 ec
       -45 -53 -17 -51 53 -71 84 20 -5 37 -14 -127 -21 45 -7 -20
0000f0 bb 1c da bc c7 af 2e 1e 1a bd 3c 09 cb 68 df a9
       -69 28 -38 -68 -57 -81 46 30 26 -67 60 9 -53 104 -33 -87

arith.constant38 i1 [64, 1, 1, 64]
000000 32 42 a0 d1 02 f2 c4 e9 35 9a da 4f 16 ed 59 fc
       50 66 -96 -47 2 -14 -60 -23 53 -102 -38 79 22 -19 89 -4
000010 13 fa d6 6a bc 14 bd cf 46 9d 12 e9 4b bf de dd
       19 -6 -42 106 -68 20 -67 -49 70 -99 18 -23 75 -65 -34 -35
000020 33 7f 23 1e 6c ad 22 4d df cb 60 43 3e 48 f8 9e
       51 127 35 30 108 -83 34 77 -33 -53 96 67 62 72 -8 -98
000030 b2 20 f9 7b 32 3c fd cd ec bb a7 e9 a8 a9 58 ff
       -78 32 -7 123 50 60 -3 -51 -20 -69 -89 -23 -88 -87 88 -1
000040 0c f3 81 f5 b4 11 4e f9 0a 3f 26 1a 01 f7 cb 33
       12 -13 -127 -11 -76 17 78 -7 10 63 38 26 1 -9 -53 51
000050 23 13 2e 1b 07 01 e0 20 1e 30 b6 14 de ce 85 d5
       35 19 46 27 7 1 -32 32 30 48 -74 20 -34 -50 -123 -43
000060 3f 04 ee c8 ff 1c 1b e5 f3 42 f1 cf de f0 3d cb
       63 4 -18 -56 -1 28 27 -27 -13 66 -15 -49 -34 -16 61 -53
000070 fd 14 b1 d9 2b d3 40 d4 34 d4 ea 3f af c7 f6 0a
       -3 20 -79 -39 43 -45 64 -44 52 -44 -22 63 -81 -57 -10 10
000080 b8 40 0c 25 b1 0c 26 1f cb 0a 21 a3 b3 e0 9c 14
       -72 64 12 37 -79 12 38 31 -53 10 33 -93 -77 -32 -100 20
000090 b5 57 38 34 b0 f7 3c ee 16 32 07 e2 1b 0a 8c bd
       -75 87 56 52 -80 -9 60 -18 22 50 7 -30 27 10 -116 -67
0000a0 8c 8f 28 51 81 a2 92 12 4c ec f7 89 09 0c 3b dd
       -116 -113 40 81 -127 -94 -110 18 76 -20 -9 -119 9 12 59 -35
0000b0 c2 22 28 4c fb 24 50 e8 d6 40 ef 32 2d 2a ab 23
       -62 34 40 76 -5 36 80 -24 -42 64 -17 50 45 42 -85 35
0000c0 fc ff f5 07 01 f1 d4 ce da e8 e9 43 23 d6 04 f1
       -4 -1 -11 7 1 -15 -44 -50 -38 -24 -23 67 35 -42 4 -15
0000d0 6c d6 3f 22 68 11 4f fa 15 a5 a8 d7 ac de a5 26
       108 -42 63 34 104 17 79 -6 21 -91 -88 -41 -84 -34 -91 38
0000e0 b9 24 04 b1 2f f6 08 48 8c 26 e9 ff 2e ff f6 50
       -71 36 4 -79 47 -10 8 72 -116 38 -23 -1 46 -1 -10 80
0000f0 3e 20 54 8d c5 68 d0 23 50 81 24 50 e4 af 94 f3
       62 32 84 -115 -59 104 -48 35 80 -127 36 80 -28 -81 -108 -13

arith.constant39 i1 [1, 3, 3, 64]
000000 19 a8 2f ba 7f ea 81 21 81 a4 57 f5 36 5a 30 f1
       25 -88 47 -70 127 -22 -127 33 -127 -92 87 -11 54 90 48 -15
000010 ca 2d 63 1c ed 85 81 cd 0a 0d 05 67 45 04 db 1f
       -54 45 99 28 -19 -123 -127 -51 10 13 5 103 69 4 -37 31
000020 e2 99 da 0c 9b c3 69 f3 62 0e b3 03 3c 7b f4 81
       -30 -103 -38 12 -101 -61 105 -13 98 14 -77 3 60 123 -12 -127
000030 54 fa 54 f8 12 cf 52 ff 30 33 f5 e1 8a eb 07 5c
       84 -6 84 -8 18 -49 82 -1 48 51 -11 -31 -118 -21 7 92
000040 cc 94 e3 c9 9d 15 15 06 12 5b 8e 51 d0 72 a9 00
       -52 -108 -29 -55 -99 21 21 6 18 91 -114 81 -48 114 -87 0
000050 b0 89 1e 5a 98 7f e8 25 8b 32 48 8d 8f aa 24 2c
       -80 -119 30 90 -104 127 -24 37 -117 50 72 -115 -113 -86 36 44
000060 16 ea aa 29 19 b0 be d3 e6 2e ee 35 c8 f1 48 83
       22 -22 -86 41 25 -80 -66 -45 -26 46 -18 53 -56 -15 72 -125
000070 68 81 ba 1e 7f 2d 8f a9 ab 73 08 5a b4 99 71 14
       104 -127 -70 30 127 45 -113 -87 -85 115 8 90 -76 -103 113 20
000080 7f 50 1e 81 94 d0 58 6e e2 53 9b 9c d1 89 92 5b
       127 80 30 -127 -108 -48 88 110 -30 83 -101 -100 -47 -119 -110 91
000090 c0 ae 81 81 f1 85 e1 36 60 fa 5c 23 32 45 4a 48
       -64 -82 -127 -127 -15 -123 -31 54 96 -6 92 35 50 69 74 72
0000a0 fe 0a 1b 51 27 0f be 19 16 a6 39 34 41 f7 e9 d0
       -2 10 27 81 39 15 -66 25 22 -90 57 52 65 -9 -23 -48
0000b0 2e 4d 15 6c 60 53 9e 2c 2c 25 30 d4 81 f5 42 78
       46 77 21 108 96 83 -98 44 44 37 48 -44 -127 -11 66 120
0000c0 7f 4f 40 68 f4 67 ac 0b 96 03 0b 65 c0 ee e3 30
       127 79 64 104 -12 103 -84 11 -106 3 11 101 -64 -18 -29 48
0000d0 7f f7 9f 76 46 3d d6 30 a9 b0 81 31 c6 ae 20 1d
       127 -9 -97 118 70 61 -42 48 -87 -80 -127 49 -58 -82 32 29
0000e0 1a 75 62 9b 42 e1 67 2e 8f 3e 57 1f 21 29 21 e9
       26 117 98 -101 66 -31 103 46 -113 62 87 31 33 41 33 -23
0000f0 46 88 81 e1 f6 ee 87 6e 5e 7a ed 2d df 44 39 cd
       70 -120 -127 -31 -10 -18 -121 110 94 122 -19 45 -33 68 57 -51

arith.constant40 i1 [64, 1, 1, 64]
000000 3b 3b f8 0c f6 a4 f1 c3 bf de c0 01 a8 22 a9 dc
       59 59 -8 12 -10 -92 -15 -61 -65 -34 -64 1 -88 34 -87 -36
000010 d7 0d 10 d4 06 f5 c4 ec e3 ac c9 4d 2e 0b 0b 1a
       -41 13 16 -44 6 -11 -60 -20 -29 -84 -55 77 46 11 11 26
000020 08 c0 ee 8b b8 ff e9 48 f0 00 06 1f c5 f8 df b1
       8 -64 -18 -117 -72 -1 -23 72 -16 0 6 31 -59 -8 -33 -79
000030 f2 b5 cf d6 15 ad 28 ed d3 37 e4 81 dc 11 aa e0
       -14 -75 -49 -42 21 -83 40 -19 -45 55 -28 -127 -36 17 -86 -32
000040 0f f7 25 db ba 39 cf 1d 10 07 48 e0 4e 62 f1 ba
       15 -9 37 -37 -70 57 -49 29 16 7 72 -32 78 98 -15 -70
000050 fb 1e db 25 c2 9e f7 63 1a 00 d0 dd f4 c2 2b 3f
       -5 30 -37 37 -62 -98 -9 99 26 0 -48 -35 -12 -62 43 63
000060 a8 21 d1 cd 0c da d3 03 35 f4 f0 18 e0 1f 4b 0d
       -88 33 -47 -51 12 -38 -45 3 53 -12 -16 24 -32 31 75 13
000070 08 33 3d bf 0e a8 59 7f bd 31 20 e9 66 47 f2 26
       8 51 61 -65 14 -88 89 127 -67 49 32 -23 102 71 -14 38
000080 24 1e 54 05 f9 ff 5d d2 b3 15 3a f1 2b 31 13 04
       36 30 84 5 -7 -1 93 -46 -77 21 58 -15 43 49 19 4
000090 f4 f9 f6 fb c3 f7 17 e6 42 17 23 ca b5 cb 05 b0
       -12 -7 -10 -5 -61 -9 23 -26 66 23 35 -54 -75 -53 5 -80
0000a0 21 ec b5 f5 3b 05 34 fd 2c 15 fd b4 0c 46 12 e3
       33 -20 -75 -11 59 5 52 -3 44 21 -3 -76 12 70 18 -29
0000b0 d1 04 ec fb 0c bc f7 7f 9d d5 e4 4a cb ca 3e 17
       -47 4 -20 -5 12 -68 -9 127 -99 -43 -28 74 -53 -54 62 23
0000c0 a7 8c e8 7f ba f5 55 db d6 c2 f7 5f 2c 3e ed f4
       -89 -116 -24 127 -70 -11 85 -37 -42 -62 -9 95 44 62 -19 -12
0000d0 f5 43 ea ba e7 31 6c e4 86 b1 ac 29 59 2f 29 4d
       -11 67 -22 -70 -25 49 108 -28 -122 -79 -84 41 89 47 41 77
0000e0 3d 44 40 05 36 a7 ad 22 05 9e b2 a1 47 4e c5 11
       61 68 64 5 54 -89 -83 34 5 -98 -78 -95 71 78 -59 17
0000f0 e6 69 9b ab 8e 38 b4 33 37 b5 cf af 17 d4 2c 02
       -26 105 -101 -85 -114 56 -76 51 55 -75 -49 -81 23 -44 44 2

arith.constant41 i1 [64, 1, 1, 32]
000000 27 df ca d0 07 ab 1b 93 38 ba f6 0a bc 3c de d9
       39 -33 -54 -48 7 -85 27 -109 56 -70 -10 10 -68 60 -34 -39
000010 0f cd 12 06 0c 06 30 24 17 9c 2b e0 81 c4 e0 10
       15 -51 18 6 12 6 48 36 23 -100 43 -32 -127 -60 -32 16
000020 ce 07 fc 76 f8 58 f2 00 0e 38 f3 e7 f8 2b 0f 1b
       -50 7 -4 118 -8 88 -14 0 14 56 -13 -25 -8 43 15 27
000030 40 2c 1b 63 26 e2 2b e7 18 d6 4b 1d a2 36 7f ec
       64 44 27 99 38 -30 43 -25 24 -42 75 29 -94 54 127 -20
000040 ed 24 00 11 11 e9 c1 e4 f1 c9 8f 00 1a cd db 19
       -19 36 0 17 17 -23 -63 -28 -15 -55 -113 0 26 -51 -37 25
000050 a0 a9 d1 7f c5 f7 c0 e5 e1 c1 fb de bd 0d 40 32
       -96 -87 -47 127 -59 -9 -64 -27 -31 -63 -5 -34 -67 13 64 50
000060 04 dd 35 67 dd d9 32 c0 93 d9 ed 10 17 1b 81 04
       4 -35 53 103 -35 -39 50 -64 -109 -39 -19 16 23 27 -127 4
000070 a5 28 a9 8a ae f6 a9 b2 ba 1f 2d 0a c6 01 df b4
       -91 40 -87 -118 -82 -10 -87 -78 -70 31 45 10 -58 1 -33 -76
000080 fa fa ea d9 13 ef c9 c2 af b5 79 19 fc d0 af ba
       -6 -6 -22 -39 19 -17 -55 -62 -81 -75 121 25 -4 -48 -81 -70
000090 f1 e1 28 81 f0 2c c4 e4 c7 0e 97 5a ed eb c1 cb
       -15 -31 40 -127 -16 44 -60 -28 -57 14 -105 90 -19 -21 -63 -53
0000a0 0d e7 a0 c2 3f b7 20 24 ef f7 9c 09 c6 28 81 4c
       13 -25 -96 -62 63 -73 32 36 -17 -9 -100 9 -58 40 -127 76
0000b0 2c 51 35 f5 f2 f4 ee 1a e1 cc c8 18 17 08 27 fc
       44 81 53 -11 -14 -12 -18 26 -31 -52 -56 24 23 8 39 -4
0000c0 ec 0c e9 35 ed 7f 33 df 23 db eb 15 0a f8 4e fa
       -20 12 -23 53 -19 127 51 -33 35 -37 -21 21 10 -8 78 -6
0000d0 04 27 dc f7 fc 34 2a 1e e2 b6 04 0d bf 0d 30 0e
       4 39 -36 -9 -4 52 42 30 -30 -74 4 13 -65 13 48 14
0000e0 58 f9 e9 22 d9 d4 a9 ff ff 47 1a 02 3e fb 09 10
       88 -7 -23 34 -39 -44 -87 -1 -1 71 26 2 62 -5 9 16
0000f0 1f 81 e2 16 ba e0 a6 3d fa c2 fb 1b f5 18 d3 f3
       31 -127 -30 22 -70 -32 -90 61 -6 -62 -5 27 -11 24 -45 -13

arith.constant42 i1 [1, 3, 3, 32]
000000 fa 05 08 06 1a 0c 04 fe 0e fa 03 11 09 fd fb 03
       -6 5 8 6 26 12 4 -2 14 -6 3 17 9 -3 -5 3
000010 fd f4 03 fd 04 26 f6 01 fe 02 01 1e fb 03 ea 07
       -3 -12 3 -3 4 38 -10 1 -2 2 1 30 -5 3 -22 7
000020 1b 16 c0 fc eb 7f 29 12 e5 bc 20 fe e2 f9 f4 94
       27 22 -64 -4 -21 127 41 18 -27 -68 32 -2 -30 -7 -12 -108
000030 fb 16 ed c3 2e f4 46 ec f4 d0 f9 cb 30 2e 21 eb
       -5 22 -19 -61 46 -12 70 -20 -12 -48 -7 -53 48 46 33 -21
000040 3d 00 dc f2 be 3c 7f f2 1e e4 1c e3 ea 07 f3 f5
       61 0 -36 -14 -66 60 127 -14 30 -28 28 -29 -22 7 -13 -11
000050 0a fb 3c e9 cf 50 7f 12 17 ba 00 c9 d6 18 20 f7
       10 -5 60 -23 -49 80 127 18 23 -70 0 -55 -42 24 32 -9
000060 ff af b5 21 18 0c 07 15 e6 5a dc 5c 2e 08 05 09
       -1 -81 -75 33 24 12 7 21 -26 90 -36 92 46 8 5 9
000070 fc d5 00 6c da 33 00 d8 02 c3 fb 14 0b fc f4 fc
       -4 -43 0 108 -38 51 0 -40 2 -61 -5 20 11 -4 -12 -4
000080 7f c6 cf f5 dc 1b 8e 70 e1 6e 8a f0 5b 29 aa fb
       127 -58 -49 -11 -36 27 -114 112 -31 110 -118 -16 91 41 -86 -5
000090 dc 7f ae 81 fb 81 e2 9d 65 ca f1 da 62 53 7f 29
       -36 127 -82 -127 -5 -127 -30 -99 101 -54 -15 -38 98 83 127 41
0000a0 ed ef 04 31 c1 7e c6 7f 58 ea 96 ea ff 2b fa af
       -19 -17 4 49 -63 126 -58 127 88 -22 -106 -22 -1 43 -6 -81
0000b0 6f 3c 7f f3 7f 60 b3 53 28 b0 54 dd 81 1a 08 7f
       111 60 127 -13 127 96 -77 83 40 -80 84 -35 -127 26 8 127
0000c0 de 7f 25 7f 08 f2 30 f8 e8 f7 c4 77 c7 26 f5 fc
       -34 127 37 127 8 -14 48 -8 -24 -9 -60 119 -57 38 -11 -4
0000d0 f7 e8 f7 5b da 67 f0 b2 d7 ca f8 d6 11 fe e8 07
       -9 -24 -9 91 -38 103 -16 -78 -41 -54 -8 -42 17 -2 -24 7
0000e0 f9 cd 7f 1c 1d 02 f0 f6 ea 7f a5 81 81 7f 7f 7f
       -7 -51 127 28 29 2 -16 -10 -22 127 -91 -127 -127 127 127 127
0000f0 ef 88 eb ae ce 9f ca 7f 81 81 ed 7f f1 94 16 51
       -17 -120 -21 -82 -50 -97 -54 127 -127 -127 -19 127 -15 -108 22 81

arith.constant43 i1 [32, 1, 1, 32]
000000 fa dd 31 09 13 f2 ef f2 df fd 0d e2 33 e3 dd 10
       -6 -35 49 9 19 -14 -17 -14 -33 -3 13 -30 51 -29 -35 16
000010 7f 0b e6 02 16 d8 14 29 c4 d8 2d fc f2 a2 45 e5
       127 11 -26 2 22 -40 20 41 -60 -40 45 -4 -14 -94 69 -27
000020 fa d4 c9 e1 f4 57 3c 12 ec d9 b6 cb 52 16 af e9
       -6 -44 -55 -31 -12 87 60 18 -20 -39 -74 -53 82 22 -81 -23
000030 da 24 33 22 cb 25 f2 21 e3 db 40 de 25 7f 17 0f
       -38 36 51 34 -53 37 -14 33 -29 -37 64 -34 37 127 23 15
000040 4c 36 ca 22 c9 da ff 3b 66 39 ce 2c 03 ab dd ed
       76 54 -54 34 -55 -38 -1 59 102 57 -50 44 3 -85 -35 -19
000050 c9 37 ee 1d e8 f8 2c 1a d7 36 02 15 7f e4 30 3f
       -55 55 -18 29 -24 -8 44 26 -41 54 2 21 127 -28 48 63
000060 24 66 d9 4d bb 1b 03 5a 27 2d 19 f5 99 bd 97 ef
       36 102 -39 77 -69 27 3 90 39 45 25 -11 -103 -67 -105 -17
000070 c7 20 c5 7f 2a a5 60 6b d3 26 eb 13 49 3c 5a 4a
       -57 32 -59 127 42 -91 96 107 -45 38 -21 19 73 60 90 74
000080 2f e1 54 ee ce de 0b f6 ee ec 0d 14 de e8 d8 e5
       47 -31 84 -18 -50 -34 11 -10 -18 -20 13 20 -34 -24 -40 -27
000090 7f 01 ec 17 32 aa bd 55 ce ff 22 d6 04 33 66 fe
       127 1 -20 23 50 -86 -67 85 -50 -1 34 -42 4 51 102 -2
0000a0 03 2b 39 f6 bf fe 33 e9 14 d1 0d 10 b8 b1 81 bd
       3 43 57 -10 -65 -2 51 -23 20 -47 13 16 -72 -79 -127 -67
0000b0 27 22 10 78 55 f0 10 33 13 3d 26 ec ee cc 35 34
       39 34 16 120 85 -16 16 51 19 61 38 -20 -18 -52 53 52
0000c0 40 d8 cc 27 47 2f f7 e5 7f ed 20 32 2c a0 b6 1f
       64 -40 -52 39 71 47 -9 -27 127 -19 32 50 44 -96 -74 31
0000d0 0b c9 1a 4e 4e b5 f9 3a e0 e0 ff 37 fb f4 4f 2f
       11 -55 26 78 78 -75 -7 58 -32 -32 -1 55 -5 -12 79 47
0000e0 e4 d0 c5 24 d8 28 f4 b3 7f 08 09 1a 44 c5 98 03
       -28 -48 -59 36 -40 40 -12 -77 127 8 9 26 68 -59 -104 3
0000f0 05 f0 07 0e 42 b8 fe 36 f2 fd 05 15 08 c0 60 1c
       5 -16 7 14 66 -72 -2 54 -14 -3 5 21 8 -64 96 28

arith.constant44 i1 [32, 1, 1, 16]
000000 5f b7 23 a9 be 25 cb 05 a5 af db 81 17 f2 10 f2
       95 -73 35 -87 -66 37 -53 5 -91 -81 -37 -127 23 -14 16 -14
000010 2d ed c2 81 e7 d5 b3 c1 36 d3 72 cf 45 1c e1 e8
       45 -19 -62 -127 -25 -43 -77 -63 54 -45 114 -49 69 28 -31 -24
000020 f8 d3 03 c4 22 af 29 32 f6 7f a1 e2 73 e8 02 f3
       -8 -45 3 -60 34 -81 41 50 -10 127 -95 -30 115 -24 2 -13
000030 f1 c5 16 d2 12 45 7f fd c1 b9 a9 70 f3 ec d8 1c
       -15 -59 22 -46 18 69 127 -3 -63 -71 -87 112 -13 -20 -40 28
000040 31 db 0f 3a 1e 05 67 09 23 06 ab 52 81 01 d9 20
       49 -37 15 58 30 5 103 9 35 6 -85 82 -127 1 -39 32
000050 17 0f 17 ad db 37 b5 39 49 d6 81 c9 f7 41 22 cd
       23 15 23 -83 -37 55 -75 57 73 -42 -127 -55 -9 65 34 -51
000060 8c 12 12 2a 1e 29 90 73 cd 97 88 7f 35 41 2f ba
       -116 18 18 42 30 41 -112 115 -51 -105 -120 127 53 65 47 -70
000070 d1 60 a2 2b 11 23 e9 52 f3 d7 35 47 5c 7f 3f 2d
       -47 96 -94 43 17 35 -23 82 -13 -41 53 71 92 127 63 45
000080 d9 ef 26 19 ed f6 7f 05 d3 ef 22 e7 f5 97 e4 17
       -39 -17 38 25 -19 -10 127 5 -45 -17 34 -25 -11 -105 -28 23
000090 1b 8f fd 3d 3e b9 36 ee 0f e6 7f ca 95 4e a0 37
       27 -113 -3 61 62 -71 54 -18 15 -26 127 -54 -107 78 -96 55
0000a0 09 c0 1b ae 06 08 fe 2c 0a 2d 94 81 47 f3 c4 9f
       9 -64 27 -82 6 8 -2 44 10 45 -108 -127 71 -13 -60 -97
0000b0 b6 22 be 1f fc f8 03 ff 81 f1 77 9c ef be 1b e4
       -74 34 -66 31 -4 -8 3 -1 -127 -15 119 -100 -17 -66 27 -28
0000c0 de 0d f4 f5 39 22 04 12 7f 4b a7 d8 cd 02 04 b0
       -34 13 -12 -11 57 34 4 18 127 75 -89 -40 -51 2 4 -80
0000d0 30 ec f0 03 16 05 c9 1b 11 e8 00 0e 7f bc 0d f1
       48 -20 -16 3 22 5 -55 27 17 -24 0 14 127 -68 13 -15
0000e0 61 ee d1 d6 d2 62 9b c3 a0 34 2c 0c 54 ab 7f f2
       97 -18 -47 -42 -46 98 -101 -61 -96 52 44 12 84 -85 127 -14
0000f0 f2 04 ec 2b 05 0d de 3b d2 81 1a 16 e3 1e fa 12
       -14 4 -20 43 5 13 -34 59 -46 -127 26 22 -29 30 -6 18

arith.constant45 i1 [1, 3, 3, 16]
000000 ca fd 0d 10 04 7f f5 fc da ff 06 f2 ef c9 cf 0c
       -54 -3 13 16 4 127 -11 -4 -38 -1 6 -14 -17 -55 -49 12
000010 dc 7f 20 e5 e5 01 fb 77 0c 19 03 0c 02 c4 a0 ee
       -36 127 32 -27 -27 1 -5 119 12 25 3 12 2 -60 -96 -18
000020 cc ee 0e f6 f1 10 07 e1 7f f4 fd 18 28 85 8b f5
       -52 -18 14 -10 -15 16 7 -31 127 -12 -3 24 40 -123 -117 -11
000030 a0 05 ad 7f fe 30 fd 40 1c 0a 0c 06 ee 53 c8 02
       -96 5 -83 127 -2 48 -3 64 28 10 12 6 -18 83 -56 2
000040 02 5b 81 ba d9 d4 1b 53 a7 71 18 7f fd 7f 81 95
       2 91 -127 -70 -39 -44 27 83 -89 113 24 127 -3 127 -127 -107
000050 b6 df 00 d1 f8 05 cf 81 67 e4 c5 f8 7f 68 c3 7f
       -74 -33 0 -47 -8 5 -49 -127 103 -28 -59 -8 127 104 -61 127
000060 91 28 40 6b 15 2c 38 e0 45 07 f6 f4 f3 2c 05 08
       -111 40 64 107 21 44 56 -32 69 7 -10 -12 -13 44 5 8
000070 41 44 5b 03 30 ff 7f 95 da 7f cc f0 f6 34 e4 4f
       65 68 91 3 48 -1 127 -107 -38 127 -52 -16 -10 52 -28 79
000080 81 fd ea 5b 7f 31 2a 1d 96 09 81 d5 4c 6e f0 93
       -127 -3 -22 91 127 49 42 29 -106 9 -127 -43 76 110 -16 -109

arith.constant46 i1 [16, 1, 1, 16]
000000 40 73 5b 50 5a a9 5a 7f 64 12 bd 4b b6 5e 3d de
       64 115 91 80 90 -87 90 127 100 18 -67 75 -74 94 61 -34
000010 08 cd cb d5 74 13 0d 28 1a 34 cf 5c f0 b6 7f b4
       8 -51 -53 -43 116 19 13 40 26 52 -49 92 -16 -74 127 -76
000020 3e 44 e9 96 7f 48 05 19 07 fd 0e 7a 02 eb 0f 2f
       62 68 -23 -106 127 72 5 25 7 -3 14 122 2 -21 15 47
000030 61 a5 10 81 25 3f 0b 6f 24 e1 b9 bb c0 1a 48 c0
       97 -91 16 -127 37 63 11 111 36 -31 -71 -69 -64 26 72 -64
000040 bd f2 cb 7f c9 42 aa ff d0 b7 11 c1 3a 30 f5 52
       -67 -14 -53 127 -55 66 -86 -1 -48 -73 17 -63 58 48 -11 82
000050 e0 f3 9d 01 8c f0 be 0a e0 f7 3f 81 b6 e0 d8 36
       -32 -13 -99 1 -116 -16 -66 10 -32 -9 63 -127 -74 -32 -40 54
000060 7f f7 73 c6 1c 63 18 38 b3 e6 33 ff b7 55 7b 41
       127 -9 115 -58 28 99 24 56 -77 -26 51 -1 -73 85 123 65
000070 42 ce 1f ae 18 1a 60 0c d0 d8 39 7f cb 2e 19 18
       66 -50 31 -82 24 26 96 12 -48 -40 57 127 -53 46 25 24
000080 7f b2 2a dc 00 6c 5b fc dd e2 5c 5f b0 0a 27 22
       127 -78 42 -36 0 108 91 -4 -35 -30 92 95 -80 10 39 34
000090 1f ee 54 f6 04 b7 28 ca 47 29 74 7f f8 e8 de e0
       31 -18 84 -10 4 -73 40 -54 71 41 116 127 -8 -24 -34 -32
0000a0 fa 06 25 6e cc f7 b0 9d ee 59 f9 b6 31 28 d2 81
       -6 6 37 110 -52 -9 -80 -99 -18 89 -7 -74 49 40 -46 -127
0000b0 73 b9 6b aa 20 09 7f 18 02 d3 26 7a c2 0e 13 1d
       115 -71 107 -86 32 9 127 24 2 -45 38 122 -62 14 19 29
0000c0 fe 19 6b ee d6 d0 2b d7 ff 11 75 7f eb e1 dd 0a
       -2 25 107 -18 -42 -48 43 -41 -1 17 117 127 -21 -31 -35 10
0000d0 08 fe 23 05 60 6d b3 1b e2 16 22 06 81 2d 39 21
       8 -2 35 5 96 109 -77 27 -30 22 34 6 -127 45 57 33
0000e0 81 f9 e7 42 d7 cb 75 d9 00 fe f1 e9 79 04 de 25
       -127 -7 -25 66 -41 -53 117 -39 0 -2 -15 -23 121 4 -34 37
0000f0 47 09 4d cf 02 49 7f f5 01 cb 01 49 aa fa 41 0b
       71 9 77 -49 2 73 127 -11 1 -53 1 73 -86 -6 65 11

arith.constant47 i1 [16, 1, 1, 8]
000000 50 ff ce 70 2e 01 81 d5 81 57 e0 98 a7 34 21 32
       80 -1 -50 112 46 1 -127 -43 -127 87 -32 -104 -89 52 33 50
000010 7f c7 f3 52 74 65 1f d4 91 e4 dc 96 7b fc 81 2f
       127 -57 -13 82 116 101 31 -44 -111 -28 -36 -106 123 -4 -127 47
000020 fb b7 de 7f fe 37 b5 fc 1a 20 fd 54 44 14 81 f7
       -5 -73 -34 127 -2 55 -75 -4 26 32 -3 84 68 20 -127 -9
000030 7f f8 6c ec f4 18 c6 4b bf 8f e6 49 7f 40 ac 07
       127 -8 108 -20 -12 24 -58 75 -65 -113 -26 73 127 64 -84 7
000040 1b ec 1b 7f b1 3b 29 3d 81 f2 0b 50 5b 2a 6d 48
       27 -20 27 127 -79 59 41 61 -127 -14 11 80 91 42 109 72
000050 7f cc 9d b4 35 1d e5 07 7f 07 36 1a 25 0d 35 1b
       127 -52 -99 -76 53 29 -27 7 127 7 54 26 37 13 53 27
000060 b2 4a 05 72 11 1b 15 7f 96 c3 a4 7e af 51 81 4c
       -78 74 5 114 17 27 21 127 -106 -61 -92 126 -81 81 -127 76
000070 c7 bc af 7f 18 37 16 ea 96 d8 e8 62 06 2e 81 11
       -57 -68 -81 127 24 55 22 -22 -106 -40 -24 98 6 46 -127 17

arith.constant48 i1 [1, 3, 3, 8]
000000 e2 f4 c1 fb 11 4c 34 59 0a 12 b1 21 da 0d 59 65
       -30 -12 -63 -5 17 76 52 89 10 18 -79 33 -38 13 89 101
000010 35 52 9e 45 db f4 b0 7f 15 eb ce 09 35 29 7f 29
       53 82 -98 69 -37 -12 -80 127 21 -21 -50 9 53 41 127 41
000020 77 1b 04 46 c9 f5 4c 44 7f 7f de 7f 81 a1 02 49
       119 27 4 70 -55 -11 76 68 127 127 -34 127 -127 -95 2 73
000030 01 00 7f ff 1b 75 15 af 67 14 7b 2f d7 fc 71 38
       1 0 127 -1 27 117 21 -81 103 20 123 47 -41 -4 113 56
000040 56 62 cb 5b 95 81 f9 47
       86 98 -53 91 -107 -127 -7 71

arith.constant49 i1 [8, 1, 1, 4]
000000 f9 cb 7f 50 c3 81 dc b2 78 db 7f 41 78 dc 7f 69
       -7 -53 127 80 -61 -127 -36 -78 120 -37 127 65 120 -36 127 105
000010 f2 81 ac 9a 09 bb b8 7f 81 e5 4d 16 a1 1a 81 57
       -14 -127 -84 -102 9 -69 -72 127 -127 -27 77 22 -95 26 -127 87

arith.constant50 i1 [1, 3, 3, 4]
000000 15 14 01 40 cc 03 fb 1c da e5 04 44 7f 6d c1 22
       21 20 1 64 -52 3 -5 28 -38 -27 4 68 127 109 -63 34
000010 77 e4 81 f7 7e 70 92 2b 55 12 df 3e 37 81 ab f5
       119 -28 -127 -9 126 112 -110 43 85 18 -33 62 55 -127 -85 -11
000020 2e 8c f0 7f
       46 -116 -16 127

arith.constant51 i1 [4, 3, 3, 3]
000000 26 2e 12 06 ed e9 d0 e3 f3 9a 93 c9 ff f6 04 71
       38 46 18 6 -19 -23 -48 -29 -13 -102 -109 -55 -1 -10 4 113
000010 5c 7f bb bd b7 ee e2 d9 3a 4f 58 09 19 1c dc 22
       92 127 -69 -67 -73 -18 -30 -39 58 79 88 9 25 28 -36 34
000020 17 f3 14 1a 1b 44 19 58 32 2e 43 49 7f db f8 1f
       23 -13 20 26 27 68 25 88 50 46 67 73 127 -37 -8 31
000030 ea df 1d 17 21 49 1c 11 13 c7 ea f3 13 09 28 d4
       -22 -33 29 23 33 73 28 17 19 -57 -22 -13 19 9 40 -44
000040 ed 07 c9 e5 e4 f5 18 ea d9 e9 ce a5 81 85 c4 cb
       -19 7 -55 -27 -28 -11 24 -22 -39 -23 -50 -91 -127 -123 -60 -53
000050 b9 02 e5 af fa eb 04 93 f4 f2 31 3c 0e ed bf e9
       -71 2 -27 -81 -6 -21 4 -109 -12 -14 49 60 14 -19 -65 -23
000060 ae 92 81 e8 1e 01 eb e1 ab a6 9c 9c
       -82 -110 -127 -24 30 1 -21 -31 -85 -90 -100 -100
