Neural_network/pytorch_tflite_convert/model/output/yolov5_dynamic_range_quant.tflite (tflite, 71560 bytes, 52 tensors)

arith.constant1 f4 [4, 3, 3, 3]
00000000: ffaf 3a3f ac1e 633f 28e0 ad3e c8c1 f43d
00000010: 5b2f bcbe 0ec9 e3be c099 6ebf a581 11bf
00000020: 4215 79be f4e8 fcbf a69b 06c0 7f85 88bf
00000030: f556 c3bc ee2e 3dbe a039 a43d 5244 0b40
00000040: a6f3 e33f 0612 1d40 760c aabf 48ce a5bf
00000050: f887 b4bf 04de b2be 5d80 14bf 4383 3fbf
00000060: 7a57 903f 8d81 c33f 1e4d da3f f529 a03d
00000070: bf22 603e 4ed7 7c3e f70b a0be 639c 973e
00000080: 949d 4f3e 3308 ebbd 3265 2f3e 3f18 6a3e
00000090: b8a3 743e 56aa 183f d924 5e3e 2904 443f
000000a0: d742 de3e c5bf cb3e 8244 153f cb71 233f
000000b0: df00 8e3f 9a4f a7be dd1e 8ebd 1e15 893e
000000c0: 0b5c 46be 8c72 94be 780d 823e e285 493e
000000d0: b0a2 913e d69f 223f 77d9 8a3e 89f9 243e
000000e0: 3eba 403e cfd1 0cbf b2d3 56be 7257 01be
000000f0: 94fd 373e 9ecb b03d f0aa c43e 85fe dcbe
00000100: f511 41be 39cc 823d 8b90 09bf d99f 85be
00000110: ae97 8abe 87cb dbbd 2420 6e3e 1be9 59be
00000120: f511 c1be 53c2 66be a83b f8be a39e 61bf
00000130: a6b1 9dbf 5220 98bf d620 15bf 49e9 03bf
00000140: fb2a 2fbf d872 6e3c 6bf7 29be 50ed fbbe
00000150: b65c 1fbd df06 02be b0ab bf3c e75c 2abf
00000160: c0f4 94bd 8f15 b3bd c94e 9a3e 5c4f bb3e
00000170: 929d af3d ce18 e9bd f6c2 cbbe fd14 12be
00000180: 0cbd 00bf baa6 2bbf 4b82 46bf 933e 16be
00000190: 8eb2 3c3e 8a68 b03b 78b8 02be 24dc 40be
000001a0: 7d65 05bf b922 0cbf 10c9 1cbf 18fe 1bbf
0.729248 0.88718677 0.3396008 0.11951023 -0.3675488 -0.4448933 -0.93203354 -0.56838447
-0.24324515 -1.9758592 -2.10325 -1.066574 -0.023845175 -0.18474934 0.080188036 2.176045
1.7808731 2.454225 -1.3285053 -1.2953577 -1.4103994 -0.3493501 -0.58008367 -0.74809664
1.1276696 1.5273911 1.7054784 0.07820503 0.21888255 0.24691507 -0.31259128 0.296115
0.20274955 -0.11476173 0.17128447 0.22860812 0.23890579 0.5963491 0.21693744 0.7656885
0.4341037 0.39794746 0.5830766 0.6384551 1.1094016 -0.3267792 -0.069394805 0.26773924
-0.19371049 -0.28993642 0.254009 0.19679978 0.28444433 0.6352514 0.27119038 0.16110815
0.18821046 -0.5500764 -0.20979193 -0.12631014 0.17967826 0.08632587 0.38411665 -0.43162933
-0.18854506 0.06386609 -0.5373618 -0.26098517 -0.27068847 -0.10732179 0.23254448 -0.21280329
-0.37709013 -0.22535066 -0.48483014 -0.88132685 -1.2319839 -1.1884863 -0.5825323 -0.5152784
-0.6842496 0.014553748 -0.16598289 -0.49204493 -0.038906775 -0.12697934 0.023397297 -0.6654801
-0.07273245 -0.08744346 0.30138233 0.36583984 0.08574976 -0.11381684 -0.3979718 -0.14265819
-0.5028846 -0.6705128 -0.7754256 -0.14672308 0.18427488 0.005383556 -0.12765682 -0.18833977
-0.52107984 -0.5474048 -0.612443 -0.6093459

arith.constant2 f4 [1, 3, 3, 4]
00000000: 342b 6c3d 0423 3b3e 660e a23b 619d af3e
00000010: 07f4 16be 6fe2 c13c e262 a4bc 5399 193e
00000020: 40d2 dbbd e4a9 7fbe 40bb 743c 04d3 bc3e
00000030: ce9a b63e d9f4 803f 87b6 80be 969e 3c3e
00000040: 7a79 ab3e 7ec1 82be aadf 00bf cb52 45bd
00000050: 5dad b53e 33ce 833f 85b7 debe fc21 6c3e
00000060: f653 753e c4e4 263e 1b54 04be 8756 ac3e
00000070: dbe8 1d3e d7df 95bf 2cc7 abbe 68a3 70bd
00000080: 055c 033e 2234 89bf 020b 83bd bd4e 2f3f
0.05765839 0.18275076 0.004945564 0.34299758 -0.14741527 0.023667542 -0.020066682 0.14999895
-0.107334614 -0.24967152 0.014937222 0.36879742 0.35664982 1.0074722 -0.25139257 0.1841987
0.33491117 -0.25538248 -0.50341284 -0.04817466 0.35483828 1.0297302 -0.4349939 0.23059839
0.2395781 0.16298205 -0.12922709 0.33659765 0.15420859 -1.1708935 -0.33550394 -0.058749586
0.12828071 -1.0719035 -0.06398584 0.6847952

arith.constant3 f4 [8, 1, 1, 4]
00000000: f0f5 7abd f501 00bf 6565 983f 1c13 403f
00000010: 1b9b 34bf a734 bbbf dc59 d5be d194 64bf
00000020: 81c7 843f 1ac2 a4be ae8f 8c3f 6216 103f
00000030: c8cc 6b3f 8367 8dbe 6287 783f a00e 4e3f
00000040: e49d 03be d962 90bf e527 3ebf 2a9e 68bf
00000050: 951b 433d f237 c3be eb87 cabe 607c 333f
00000060: 4cd4 e2bf 3d05 c2be 36c8 883f 2c51 9d3e
00000070: b04a f0be 7aeb 023e 6448 21bf 50eb db3e
-0.0612697 -0.50002986 1.1905943 0.7502916 -0.7054917 -1.4625443 -0.4167012 -0.89289576
1.0373384 -0.32179338 1.0981348 0.56284153 0.92109346 -0.27618036 0.9708158 0.80491066
-0.12853199 -1.1280166 -0.74279624 -0.9086634 0.047633726 -0.3812862 -0.39556822 0.70111656
-1.7721038 -0.37894621 1.06861 0.30725992 -0.46931982 0.1278514 -0.63001084 0.42952967

arith.constant4 f4 [1, 3, 3, 8]
00000000: d484 eabd c516 f4bd 9a1e 7abe c31c ecbc
00000010: 2a19 d23d 2642 3f3f a56c 353e 6ddf cb3e
00000020: a7e4 1f3d d63b 3c3e 6b75 9cbe f5c1 373e
00000030: 3ee9 65be ecca 033e 6a6c 993e 1ee3 e73e
00000040: 43eb 4d3e 4190 573f 9a09 c3be d1d9 c33e
00000050: 8c4e 5fbe 3ada e9bd 57ee 8abe cfac 113f
00000060: c8af a23d 8926 5bbe 6d2e 48be 5c23 563d
00000070: 38e0 a03e 0f55 ce3e 93b6 db3e 0626 3c3e
00000080: 3c0e e93e edc5 8d3e 5d67 723c 9696 c43e
00000090: 5495 a7be 3ba1 d6bd e425 833e 02e3 9b3e
000000a0: 5016 f83e 344f a73f 1522 07be 147b 333f
000000b0: 18c3 40bf 17e5 6cbf c1b4 c53b 8d00 a73e
000000c0: 5e68 8b3b 462e 33bb 4743 fc3e 9696 c4bb
000000d0: 391d 223e 6eba 923f fff8 8d3d cbfa b9be
000000e0: 6f65 c93e cb76 533e b479 f33e f1ba 843e
000000f0: f96b 76be 0444 0dbd e7d7 c23e 553a 813e
00000100: ef01 a83e 2b73 803f c625 52be 3061 003f
00000110: 25d6 22bf 7ac2 9ebf 3503 bebc e2d9 a13e
-0.11451116 -0.119184054 -0.24425736 -0.028822308 0.10258706 0.7471031 0.17717226 0.39818898
0.03903642 0.183822 -0.30558333 0.17945082 -0.22452256 0.12870377 0.29965526 0.45290464
0.20109276 0.8420449 -0.38093263 0.38252118 -0.21807307 -0.114185765 -0.27134964 0.5690431
0.07943684 -0.21401419 -0.1954896 0.052279815 0.31421065 0.4029927 0.4291273 0.1837388
0.45518672 0.27690068 0.014795152 0.38396138 -0.32731116 -0.10479971 0.25614846 0.3044663
0.48454523 1.3071046 -0.13196595 0.7010968 -0.7529769 -0.92537063 0.0060335104 0.32617608
0.004254385 -0.0027340814 0.4927008 -0.0059993966 0.1583146 1.1463144 0.06932258 -0.36324152
0.393352 0.20650785 0.4755379 0.25923875 -0.24064626 -0.034488693 0.38055345 0.25239816
0.32813975 1.0035146 -0.20522222 0.50148296 -0.6360801 -1.24031 -0.023194889 0.31611544

arith.constant5 f4 [16, 1, 1, 8]
00000000: 769f bf3e 3d13 49bb 4e63 70be 5228 063f
00000010: d2b0 5a3e b99c c93b e8c5 17bf 99fb 4ebe
00000020: 225d d4be 3e7b 913e deba d4bd e748 aebe
00000030: 8ca1 95be fe54 2c3e ae20 de3d 3ef6 263e
00000040: 12ca d83e 7349 42be f2d3 33bd 5e9c 8b3e
00000050: 8667 c63e f6bd ac3e f5be d03d c6c2 15be
00000060: 1e52 e7be d651 ebbd 6aba 14be b4dc dcbe
00000070: 0d29 ff3e d651 6bbc adf6 03bf a78f 443e
00000080: 9e8b 05bd 9908 f0be 8544 62be c68b 503f
00000090: 1f4e 29bc a8f6 b53e ccc7 f4be c33a d0bc
000000a0: a531 493e 84a2 773e 6df0 ccbc a9f0 243f
000000b0: 352e 053f 1374 1a3e 9f88 78bf 60cc 8abd
000000c0: 6655 a43f bba9 9ebd 38f3 8b3f e4bf 4ebe
000000d0: be27 00be 59a6 753e 4245 16bf e223 413f
000000e0: 7bb9 e2be dc29 44bf 8c28 31be a36b fe3e
000000f0: 100a 5c3f f63a dc3e c9ed 11bf 7ea8 393d
00000100: 5950 2a3e aaa2 f9bd 6304 2a3e 9442 4a3f
00000110: 953a fabe cbb5 bc3e 1312 813e 0d0d c23e
00000120: 3049 82bf a979 ecbd 17c9 ba3d 79a2 243f
00000130: 33e3 393f 1d04 ad3e e4c0 5f3f 5bf2 133f
00000140: 24f0 a53f 33a5 07bf b056 81bf d59b 46bf
00000150: f305 0a3f 5ff2 963e 5131 8fbe 4066 8f3d
00000160: 971a 343f 6b14 253d 250b 9a3e fe45 133e
00000170: 090a 513e 6a53 913d 5f72 973e c93f 1b3e
00000180: be57 59bf 7145 503f 29a5 653d 942f 9f3f
00000190: 2a48 393e 27dc 963e 6515 703e 6dd3 b13f
000001a0: 277e f8be 1753 8ebe bbf3 d7be 3a25 133f
000001b0: 641f bcbe 5d50 be3e c359 14bf 892a b13e
000001c0: 70eb c3be 0f23 e9be d469 0abf ceb3 593f
000001d0: 648c 253e dd12 bd3e f25d 153e 371e 15be
000001e0: 4f92 26bf 3648 7bbe 816c 16be 87b4 193f
000001f0: f602 0d3d 239a 8f3e 07f4 46bf 1137 d33d
0.37426347 -0.0030681633 -0.23475382 0.52405274 0.21356514 0.006152716 -0.59286356 -0.20213164
-0.41477305 0.2841434 -0.103872046 -0.34039995 -0.29224813 0.16829297 0.10846077 0.16304871
0.42341667 -0.18973331 -0.0439033 0.27267736 0.38750857 0.3373868 0.10192672 -0.14625081
-0.45179838 -0.11490218 -0.14524236 -0.43137133 0.49836007 -0.014362773 -0.5154827 0.19195424
-0.032603852 -0.4688156 -0.2209645 0.8146328 -0.010333567 0.35539746 -0.47808683 -0.025418645
0.19647844 0.24183089 -0.025016988 0.6442972 0.5202363 0.15083341 -0.9708347 -0.06777263
1.2838562 -0.07747217 1.09336 -0.20190388 -0.1251516 0.23989238 -0.5869943 0.7544538
-0.44282135 -0.7662637 -0.17300624 0.49691495 0.85952854 0.43013734 -0.57003456 0.045326702
0.16632213 -0.12189229 0.16603236 0.7900784 -0.4887282 0.36857447 0.25209102 0.37900582
-1.0178585 -0.11546642 0.09120386 0.64310414 0.72612303 0.337922 0.874037 0.5779168
1.296391 -0.5298645 -1.010458 -0.7758153 0.5391533 0.2948179 -0.27967313 0.070019245
0.7035307 0.040302675 0.30086628 0.14382169 0.20413984 0.07095988 0.29579446 0.15161051
-0.8489951 0.8135596 0.056065712 1.2436395 0.18093935 0.29464838 0.23445661 1.3892647
-0.48533747 -0.27797768 -0.4217814 0.5747868 -0.367427 0.37170687 -0.57949466 0.34602764
-0.38265562 -0.4553456 -0.5406773 0.85039985 0.16166836 0.36928454 0.14586619 -0.14562307
-0.65067 -0.24539265 -0.14689828 0.6004109 0.034426652 0.28047284 -0.77716106 0.103132375

arith.constant6 f4 [16, 1, 1, 16]
00000000: 66bc 353e 1df2 a33e 0fac 803e 2ad3 623e
00000010: a622 803e b74b 78be f1e3 7e3e 5082 b43e
00000020: e2c8 8d3e a670 4a3d 1c8d 3fbe 24b7 543e
00000030: a97e 51be 000b 853e 64ae 2e3e 8ba1 bebd
00000040: e40b d73c caac 37be 10b9 3bbe 3674 1abe
00000050: f7d2 ce3e 8a19 873d 1906 403d a20e 0e3e
00000060: 3ed0 b83d 532e 383e 2e91 2ebe e392 a43e
00000070: 1c43 69bd 6c6e 83be f0ef e23e 3afc 87be
00000080: df16 253e d1e9 343e 25f9 73bd 10a5 8cbe
00000090: 9183 a83e 24c5 3d3e d182 663c d362 863d
000000a0: c6be 973c 99df 0abc dace 183d b66d a13e
000000b0: 1923 a23b 4300 5cbd 2a86 1b3d b0ce f63d
000000c0: 9d1b bc3e 41ba b1be a6fc 783d ffe1 f6be
000000d0: b633 103e f9cb 733e 3f3e 253d 4cb9 d83e
000000e0: 96b6 0b3e 34bf eebd 42a9 8abe 8c15 87be
000000f0: 026d 78be 925c cd3d 5c10 8c3e c063 7abe
00000100: fd88 74be 5c91 4cbd 2bdb 42be f1b5 e73e
00000110: 6194 49be 810b 723e 2741 9dbe 4683 5abb
00000120: ea4e 2fbe 4d59 85be 5f2a 733d d4d7 65be
00000130: 12cb 523e 4bef 2e3e 3c1a 24bd b4c9 943e
00000140: 04f2 89bd 1cca d9bc 3a64 52be 75fd 0f3b
00000150: 4d1e 76be e210 06bd 09d7 0bbe b008 a23c
00000160: dddc 88bd 3582 93bc 98cb 053e 0926 87be
00000170: 8e27 1ebe 8eb2 86bd a651 acbd 4341 e43d
00000180: 996a 883e 2f46 99bc 704a 763e 3866 f9bd
00000190: a8d5 6f3d 7037 543e 96e9 4f3d df12 f03d
000001a0: 594e 26be bea3 63bd dc63 db3d 5fac cfba
000001b0: a5b2 1dbe a7ba 353e 23fe 833e 33e2 0b3e
000001c0: 6ad5 403e 3e87 13be 24ef b23d afb0 70be
000001d0: 37e8 8a3d f384 963d fc0c 8c3e 5adb 113d
000001e0: 4648 0dbe 7b96 ebbd 3d9e 263e c1cb b93e
000001f0: 41f3 19be 9d3e 063e 89c2 943d 914a 8a3d
00000200: d2d2 8a3e 2c4f 2abe c4cc b83d bf52 9ebd
00000210: 4ce5 593a 6f52 6c3e 2878 473e 98ca 0cbc
00000220: b5f0 99bd 5b85 81bd 52f9 493e a0c5 503e
00000230: b423 2fbe d138 b53c e2ae a93d 74a1 963d
00000240: 42ae b73d 73f5 4dbd 1517 783e 850e ebbc
00000250: c7fc 463c e598 56be 2816 e93d 894f 1dbe
00000260: 9d14 503e a135 f03d 4d31 aa3e 34b6 ba3e
00000270: 3b32 b9bc 780c 8bbd c4be c7bd f1e4 bdbd
00000280: e6d1 b2bb d4cb 993b af1b 003d b756 bd3d
00000290: 3599 32bd 54cb f9bb c612 8abd 5ff5 aabd
000002a0: 887c 72bc ca76 993d 9230 c8bb 0738 80bd
000002b0: ebd9 293d 31d9 0a3d 43c8 1dbd ad74 dbbd
000002c0: 3a1e 6e3e 8067 12be e730 5c3e 3ec0 32be
000002d0: 69e1 823d 2e4d 963c 2d45 833e 4518 493d
000002e0: 3fd0 583b 52e5 b9bd e83c 9b3d ab0e 7d3e
000002f0: 4a48 00be 9516 e03c 536b 193d c4e5 6e3d
00000300: e2c5 efbb 0fbe a73d b149 b43e 0d0e 70bd
00000310: fa4f 0dbe 74d2 21be 3199 123e 13d5 0bbe
00000320: 64a3 8fbb fecd 623d 3da0 c53e 7266 d63e
00000330: d257 90bd f54f d2bd bd3f ecbd 840c 013d
00000340: c297 f73c 1b65 02bc 66bc 0c3e 3d42 983c
00000350: 703e c03e 5004 dc3e 0869 9bbe 969b dc3d
00000360: f770 f4bd 4163 b03d 647c 093e 15ca c33c
00000370: 5246 ffbe d670 333e 4546 653e 7959 053e
00000380: 2c8a ebbe a4f4 d4bc 6932 b6bd ef6f 733e
00000390: dfd2 18be 2ee2 44be d98e d83e 66e5 11be
000003a0: 1efe 8039 72ee debb 2f65 62bd 5c54 adbd
000003b0: bce6 df3e d044 5d3c b9c4 ffbd 838d 0a3e
000003c0: b51e 4b3e 2428 cc3c fead 5d3e ad41 0ebe
000003d0: f36b d63b 94f6 513e a3b1 b63e 6313 f4bc
000003e0: f108 353b 92ba 18be a13a 023b 0eb8 503e
000003f0: 376e 78be 59e5 7fbc 7de8 393e 6a18 043d
0.1774765 0.32020655 0.2513127 0.22150865 0.25026435 -0.24247633 0.2489164 0.3525567
0.27692324 0.049423836 -0.18706173 0.20772988 -0.20458473 0.25984955 0.17058712 -0.093081556
0.026250787 -0.17937008 -0.18332314 -0.15083393 0.40395328 0.06596668 0.046880815 0.1387277
0.09024094 0.17986421 -0.17047569 0.32143316 -0.056948766 -0.25670183 0.44323683 -0.2655962
0.16122006 0.17667319 -0.059563775 -0.27469683 0.32912877 0.18532234 0.014069275 0.06561818
0.018523585 -0.008476161 0.037306644 0.31529015 0.0049480316 -0.053711187 0.037969746 0.12051141
0.36739817 -0.34712413 0.06078782 -0.48219296 0.14082226 0.23808278 0.040342566 0.4232887
0.1364387 -0.11657563 -0.27082258 -0.26383626 -0.24260333 0.10027422 0.2735623 -0.24452114
-0.23880382 -0.049943313 -0.19028918 0.45255998 -0.19685508 0.23637201 -0.3071377 -0.0033342405
-0.17119947 -0.26044694 0.05936658 -0.22445613 0.20585278 0.1708347 -0.04006408 0.29060137
-0.06735614 -0.026585631 -0.20546046 0.002197114 -0.24034996 -0.032730944 -0.13656248 0.019779533
-0.06682751 -0.018006423 0.13065946 -0.26396206 -0.15444776 -0.06577025 -0.08414011 0.1114526
0.26643828 -0.018710224 0.24051833 -0.121777 0.058553368 0.20724273 0.050759874 0.117223494
-0.16240825 -0.05557608 0.10712406 -0.0015844217 -0.15400179 0.17746983 0.25779828 0.13660507
0.18831411 -0.1440706 0.08737019 -0.235049 0.06782573 0.07349577 0.27353656 0.03560958
-0.13797101 -0.11503311 0.162713 0.36288264 -0.150342 0.13109823 0.07263667 0.06752504
0.27113968 -0.16631764 0.09023431 -0.07730626 0.0008312061 0.23078321 0.1947943 -0.008593224
-0.07516614 -0.06324264 0.19724014 0.20387888 -0.17103463 0.022121819 0.082853094 0.073550135
0.08968784 -0.050282907 0.24227555 -0.028693447 0.012145228 -0.20956762 0.11381179 -0.15362372
0.20320363 0.11728979 0.3324074 0.36467135 -0.02260696 -0.067894876 -0.097531825 -0.09272183
-0.0054571507 0.0046934877 0.0312764 0.09245055 -0.04360314 -0.0076231156 -0.06741862 -0.08347582
-0.014800198 0.0749336 -0.0061093057 -0.06260686 0.04146759 0.033898536 -0.038521063 -0.107156135
0.23253718 -0.14297295 0.2150303 -0.17456147 0.0639065 0.018347349 0.25638714 0.04909541
0.0033083109 -0.090769425 0.07579976 0.24712627 -0.12527576 0.027354518 0.037455868 0.05832459
-0.0073172906 0.08190548 0.35212472 -0.05860715 -0.1380004 -0.15802938 0.1431625 -0.136555
-0.0043834914 0.05537223 0.38598815 0.41875035 -0.070480004 -0.10269157 -0.115355946 0.031506076
0.030223731 -0.007958676 0.13743743 0.018586272 0.37547636 0.4297204 -0.3035357 0.10771863
-0.11935609 0.08612681 0.13426358 0.023900071 -0.49858338 0.17523512 0.22390087 0.13022412
-0.46003854 -0.02599556 -0.08896334 0.23773168 -0.14924191 -0.19226906 0.42296484 -0.14247665
0.00024603395 -0.0068033272 -0.055272277 -0.08463356 0.43730724 0.013505176 -0.12488694 0.13530545
0.19835933 0.024921484 0.21648404 -0.13892241 0.0065436303 0.20504218 0.356824 -0.0297944
0.0027623738 -0.14914921 0.0019871371 0.20382711 -0.24260794 -0.015618646 0.18155093 0.032249846

arith.constant7 f4 [1, 3, 3, 16]
00000000: 78bf 72be 7763 52bc 8e11 043e bf16 9a3d
00000010: 1eff 863d 74c5 b63f 90f3 7fbd 0912 d4bc
00000020: 6d98 48be 4009 ecbb 2b78 0d3e 82bb e8bd
00000030: 4953 bdbd 4bc3 44be 18dd 52be 2c6d 103e
00000040: 348d 1ebe 4cda 083f 3369 a33e e5a5 01be
00000050: 5fd7 f9be da39 453c 98e4 eabc 8073 413f
00000060: f888 7a3d b213 043e 25b7 8c3d 571e c93d
00000070: d5fe 5e3c c894 53be 8e52 cdbe e5bf 5abe
00000080: defe 67be a931 9fbd 660a 0d3e a48a 41bd
00000090: 3161 86be 931b 3b3e 3430 213d d32e 49be
000000a0: 07ee 283f f83b 79bd e0e0 93bd 06af 3d3e
000000b0: 616f 653e 1511 dbbe 2d5a f9be 5707 0abe
000000c0: 7a39 d5be 1cb7 aa3c cb1b 51bf 195a 183f
000000d0: a08e 05bd 263f 0b3f 6c0a 80bc 83dc d13e
000000e0: e3a7 163e fd28 5c3d 85e4 843e 4a44 343d
000000f0: eda4 d0bd cf57 933e 6885 6dbe 7140 f33c
00000100: d2cd e33b 99dc c33e 552e a0bf 6cbc a7be
00000110: 4b7f 36bf 52e2 febe 44f0 1d3e 9176 073f
00000120: fafa edbe cae8 143f b02b 0a3f 2b23 803f
00000130: 1956 88bc d7c9 e13e 2ac2 07bf 4713 a3bf
00000140: 1534 a5be 615d 0fbe d8d4 9cbb 050a 63be
00000150: de12 1cbe fff7 6a3d e63f 8fbe a0b4 4ebf
00000160: 387f 083f 6377 11be 6de5 a8bf cd6c 7ebd
00000170: 7a81 353f 5115 b83e c364 81be 5a3f c23f
00000180: 3593 f6be 2a6a 2a3e 347f 213f 4a68 003f
00000190: 6c0a c33e a0eb fd3e 0994 a13e a0b4 4ebe
000001a0: b599 b63e 21bc 183d 5991 6cbe 25a8 babd
000001b0: 6595 95bd a9e7 1a3e 7bff 9d3c fe35 bd3d
000001c0: 1d28 913e 09df 923e d9cd 653f 452d 403c
000001d0: 910d 5d3f b702 2cbc 5632 383f fe0a 2ebf
000001e0: 89fd 49be 86d8 273f 1b50 93bf b8c0 03be
000001f0: bea6 60bd a48a 383e b252 ecbd cc41 703f
00000200: afb1 0dbf cace 5cbc dcee 62be ed3c d93e
00000210: 00d2 1240 ba0c 0c3f cef3 723e fa3d 3f3e
00000220: d407 0dbf 8cc3 413d b59e 35c0 3109 adbe
00000230: e4a8 d93e e3c6 c23e b9e9 84bd 29c0 a6bf
-0.23705852 -0.012841097 0.12897322 0.0752387 0.065916285 1.4279008 -0.06248814 -0.025887506
-0.19589396 -0.007203251 0.13815372 -0.11363889 -0.09244401 -0.19215123 -0.20592153 0.14104146
-0.15483552 0.53458095 0.31916198 -0.1266094 -0.48797128 0.012037719 -0.028673455 0.75566864
0.06116578 0.12898138 0.068708695 0.0982024 0.013610561 -0.20662224 -0.40102047 -0.21362264
-0.22655818 -0.07773144 0.13773498 -0.04725136 -0.26246026 0.18272237 0.03935261 -0.19646768
0.659882 -0.060848206 -0.07220626 0.18523797 0.22405769 -0.4278647 -0.4870161 -0.13479362
-0.41645414 0.020839266 -0.81683034 0.5951248 -0.03260672 0.5439323 -0.01562997 0.4098855
0.14712481 0.053750027 0.25955597 0.044010438 -0.10187707 0.2877793 -0.23195422 0.029693814
0.006952026 0.3825424 -1.251414 -0.32760942 -0.71287984 -0.49782044 0.15423685 0.5291529
-0.46480542 0.5816771 0.5397291 1.0010732 -0.016642617 0.44099304 -0.53030646 -1.2740258
-0.32266298 -0.14000465 -0.004786115 -0.22171791 -0.15241572 0.057365414 -0.27978438 -0.8074436
0.5331912 -0.14205699 -1.3195015 -0.06211548 0.7090069 0.35953763 -0.25272188 1.5175583
-0.48159185 0.16642061 0.6308472 0.5015913 0.3809389 0.4959383 0.31558254 -0.2018609
0.35664144 0.03728879 -0.2310232 -0.09114102 -0.07303885 0.15127434 0.019286862 0.09238814
0.28350917 0.28685787 0.89767224 0.011729543 0.86348826 -0.010498694 0.71951807 -0.6798552
-0.19725622 0.65564764 -1.1508821 -0.12866485 -0.054846518 0.18021637 -0.115392104 0.938504
-0.5534925 -0.013477037 -0.2216143 0.42429295 2.2940674 0.5470692 0.23725817 0.18675986
-0.5509007 0.04730563 -2.8378117 -0.33796075 0.42511666 0.38042364 -0.064898916 -1.3027393

arith.constant8 f4 [32, 1, 1, 16]
00000000: 82f4 913e c61b 5fbe e35e d43d 61a0 85be
00000010: 205e 49be 326c e23d 2f55 21be 79d6 763c
00000020: aa53 8bbe 77f5 78be 2f8b e4bd 37df c2be
00000030: 1b66 8a3d bfda 2ebd 8192 483d 9121 2dbd
00000040: ccbc 603e aba2 c1bd d1ec 9abe a0db 1fbf
00000050: b22b ffbd 830c 5abe d3a1 c0be 89c4 9dbe
00000060: 35f2 873e 4113 62be 1bf8 0e3f 0a78 74be
00000070: d967 ae3e d776 0d3e 89c4 1dbe 1c24 f6bd
00000080: d355 31bd e60e 71be b299 893c 99b4 a0be
00000090: b003 353e 8de4 d7be 52ce 593e 4c42 853e
000000a0: 3f27 52bd 6663 293f f598 febe 8761 1fbe
000000b0: df58 193f ce50 02be d5fd 3d3c 2f37 86bd
000000c0: 4c15 f6bd 52e5 f3be 07b2 333e e7f5 bebe
000000d0: 618a 133e 6a7a 103f 8d02 843f 9bdd d9bc
000000e0: 8f3e 03bf 5ea2 14bf 04ca 34bf 6f9d 693f
000000f0: 9c89 d9bd 25de 28be 2f26 a5be 7635 673e
00000100: b299 a33e c17b 72be 92d9 c23d 92da be3e
00000110: 417c 473e 4f61 0f3d 8fdf 2a3f e82d 623d
00000120: d454 6a3e da49 1b3d 6d24 0dbf 10de 073f
00000130: d15a 52bf 3e82 063c 94d5 80be 9ec0 543e
00000140: e0cc f43d 6d0b 9f3d 2a6c f43d d216 d8be
00000150: dccc 41be 7d9c 8e3e d771 c4be 7881 953e
00000160: 6a70 bf3e 006f 5cbe 0dc0 25bf cdd6 8fbe
00000170: 7526 3abd a13e a93e c4e0 323e ffc9 84be
00000180: 7635 10bf 1537 b13d 0151 b43d 2060 503e
00000190: 0c5f 173e 9fb7 4d3e 410a 0bbf 6f78 0f3f
000001a0: 8ab6 7dbe 07d8 02bf 48ac 15bf 82de 1d3f
000001b0: 7a06 843e 4c98 a23e 93a9 6a3e 5af7 adbe
000001c0: 91c2 f8bd ac99 7d3e 7877 78be 9740 e53d
000001d0: 5ee0 353d 35e7 b63d 059d 78bd 3faa 593e
000001e0: a808 05bd 0477 d7bd 30a9 0c3e 1f28 3b3e
000001f0: 12bf 723e ca16 a83e 3554 263e 735f ef3d
00000200: f9ba a7be 7541 14be 593e a33e 9cfe 5a3e
00000210: 3c85 1fbe 753c b4bd 0c6b 883f 0b0b 1f3d
00000220: 7808 c3be edf6 11be 39b9 903e fa6b 5abe
00000230: 5b4f bfbd 34de 61bf f16e 73be d675 423e
00000240: 0fdf ed3d 24ac f7be 21ab 54bc b806 863e
00000250: 3f59 873e e734 9dbe 5d7e 6e3e 96cb 9abd
00000260: 1bc8 843d 70f5 e0bd 65b4 0b3f 678f 6dbe
00000270: 86c2 eabe 5b10 ac3e 09f5 d2be 7534 703e
00000280: dd8b 4c3d 0cf7 bebe 068d 1f3e 5848 f3be
00000290: 63ee 073d f745 333d c23b 38bc 21bc 823e
000002a0: 5593 633d 3957 873e 38ad 21bf c84f 3dbf
000002b0: ec28 d33e 54a7 9bbd dd35 b2be a4ab 10bf
000002c0: c6a2 fdbe ccbd 6c3e b986 e3be f61d 583e
000002d0: 9b84 c1bc 60c5 61bd 4da8 9c3c b26b f4bb
000002e0: 9033 5abf 86d4 cbbd 9cf0 4b3f 433c 2cbf
000002f0: 799e edbd 8e4e e3be 8def 3a3e 2da7 3fbe
00000300: 7b08 72be 7201 b33d fe33 afbd 1324 9dbd
00000310: 7734 c83e 15f1 6f3e 5c3d cf3c de02 fe3d
00000320: e959 603f 4be6 043f c4e6 1dbf f3f9 8ebe
00000330: 7793 b3be 5995 633c bd4d c63c e0b1 0cbf
00000340: d4cc 043f f9bf 56be 9080 2dbe a220 053d
00000350: 6936 743e e09f 5d3d f705 17bf 230f 953e
00000360: 9fcb 353e eff1 82be a62a 0fbb 0aef 1b3e
00000370: 0b60 ae3f 47b9 39bf 06e5 113e f2d3 27be
00000380: 009c 5c3f cd6b 25be bb92 d6be 2dfc bbbe
00000390: 7589 d0be 8c9d 5d3f 28cd 64bf 19e6 09bf
000003a0: f3e0 59bf b641 e93e e3a1 c83e 0ae4 db3d
000003b0: 9a25 3f3f 4772 41bf 94ca 8f3f 5223 02be
000003c0: 415d c9bd 9d68 e83c 635d 10be 7fae 9d3e
000003d0: fc51 043d 00cb bb3d 94d8 77be 3a6d d63e
000003e0: 9e9f a8be 2f3d 68bf b5d8 3e3e 7dd6 213e
000003f0: 86ff 50be 80af 5b3e 2614 39bd 449c 063e
0.28506857 -0.21787938 0.10369661 -0.26098922 -0.19664812 0.11055793 -0.15755151 0.015065783
-0.27212268 -0.24312387 -0.1115936 -0.38060924 0.06757756 -0.04268908 0.048967842 -0.04226834
0.2194702 -0.094548546 -0.30258802 -0.62444496 -0.12459506 -0.21293835 -0.37623462 -0.30814007
0.26551977 -0.22077657 0.5584733 -0.23873916 0.34063604 0.13814865 -0.15407003 -0.12018606
-0.04329474 -0.2354084 0.01679692 -0.31387785 0.17677188 -0.42166558 0.21270111 0.26027143
-0.05130696 0.66167295 -0.49726072 -0.15564547 0.5990123 -0.12726137 0.011596163 -0.06553494
-0.12015781 -0.47635895 0.17548381 -0.37296984 0.14408256 0.5643679 1.0313278 -0.026594928
-0.5126733 -0.5806025 -0.7062075 0.9125585 -0.1062195 -0.16490991 -0.32255694 0.22578987
0.31953198 -0.23680021 0.095141545 0.3727613 0.19480993 0.03500491 0.66747373 0.05521956
0.22883922 0.037912227 -0.55133706 0.53073215 -0.82169825 0.008209763 -0.25162947 0.20776603
0.11953139 0.07765851 0.11934693 -0.4220491 -0.18925804 0.27853766 -0.38368103 0.2920034
0.37390453 -0.21526718 -0.6474617 -0.28093567 -0.04544683 0.33055595 0.17468554 -0.2593536
-0.56331575 0.08653084 0.08804513 0.20349169 0.14782351 0.20089577 -0.5431252 0.5604314
-0.24776664 -0.5111088 -0.58466005 0.61667645 0.2578619 0.31756818 0.2291625 -0.33977777
-0.121464856 0.24765652 -0.24264324 0.1119396 0.044403426 0.08930818 -0.06069662 0.2125635
-0.03247896 -0.10520747 0.13736415 0.18277024 0.237057 0.32829887 0.1624306 0.11688127
-0.32759836 -0.14478095 0.31883505 0.21386188 -0.15578169 -0.08800594 1.0657668 0.03882889
-0.380924 -0.14254351 0.28266314 -0.21330252 -0.09341308 -0.8822968 -0.2377279 0.18990263
0.11614811 -0.4837352 -0.012980253 0.26177 0.26435277 -0.30704424 0.23290391 -0.07558362
0.064834796 -0.109843135 0.54572135 -0.23199235 -0.45851535 0.33606228 -0.41202572 0.23457511
0.04993807 -0.37297857 0.1558114 -0.4751613 0.033186328 0.043767896 -0.011244716 0.25534156
0.05556043 0.26433733 -0.63154936 -0.7394986 0.41242158 -0.07600275 -0.3480672 -0.565119
-0.4953825 0.23119277 -0.44438723 0.21105179 -0.023622802 -0.055119872 0.01912322 -0.0074591273
-0.8523493 -0.09952645 0.79664016 -0.6727945 -0.11602492 -0.4439587 0.18255444 -0.18716116
-0.23636048 0.0874051 -0.085548386 -0.07672896 0.39102527 0.23431809 0.025297813 0.124028906
0.8763719 0.519139 -0.61680245 -0.2792507 -0.35073444 0.013890588 0.02420699 -0.54958916
0.5187504 -0.2097167 -0.16943574 0.032501824 0.23848881 0.054107547 -0.58993477 0.2911311
0.17753457 -0.25575206 -0.0021845489 0.15227905 1.362306 -0.72548336 0.14247522 -0.16389444
0.8617554 -0.16154404 -0.4190882 -0.36715832 -0.4072987 0.8656852 -0.89375544 -0.53866726
-0.8510887 0.45557946 0.3918601 0.107368544 0.7466675 -0.75565 1.1233697 -0.12708786
-0.0983224 0.028370196 -0.14098124 0.30797192 0.03230475 0.091695786 -0.24203712 0.41880208
-0.32934278 -0.9071836 0.18637355 0.15804477 -0.20409974 0.21453667 -0.04518523 0.13145548

arith.constant9 f4 [1, 3, 3, 32]
00000000: ceb0 23bd fac8 ec3c 6c86 583d d210 423d
00000010: 1e5b 433e 9011 8a3d 5067 d43c fa2c 0dbc
00000020: ea0a f43d 0138 d0bc 7b8f 643c 2682 5f3e
00000030: c50e 883d 95d2 a1bc 5fb5 34bd 6966 a53c
00000040: e67c a7bc 7d6c a2bd 65cb 9c3c bbf1 9ebc
00000050: f69a c93c bcc6 013e a3da 86bd e6bb 083c
00000060: afd4 47bc f83a 3e3c 6e27 123c c471 663e
00000070: 1ded 0dbd 214a 8b3c 1f0f 2cbe dbe7 293d
00000080: 5669 3e3e 4004 0f3e 79ac d5be deb5 f3bc
00000090: 49ca 1bbe 27ff 323f 82cc 7a3e 67da c53d
000000a0: d504 72be 0e83 8ebe 12d5 103e 0eaf eabc
000000b0: a290 59be 5939 30bd 938a e9bd a714 21bf
000000c0: e04b 01bd 0121 1e3e 5755 dfbd aee9 bfbe
000000d0: 849c 8e3e 6374 2abd 8657 ee3e 1741 fcbd
000000e0: 106e 86bd 4410 87be 2829 40bd f93d c9be
000000f0: de44 b53e 797c 843e f549 803e 47ec 05be
00000100: fb3b d93e 1674 ba3a 0156 6fbe f6c7 d2bd
00000110: aa0f f7be c5c9 a73e b300 433f 2d17 97bd
00000120: 0d30 883e 2f17 ecbd 3b92 fb3d 8b84 babe
00000130: 1154 1cbe 9f5f 3b3d 430a fbbd a0e5 81bd
00000140: f68c 883d c7af 17bd d767 af3e 28ba 14be
00000150: 6413 97be 773f 8a3e cbb4 593f 5f94 e13d
00000160: 4d11 fa3d 8a8e c3be 2a19 a83a c899 d1be
00000170: 2d25 9fbe 0c74 0c3e 7330 7a3e b077 69bd
00000180: be8a 07bc 824f 02bf a3b3 fcbe a6e6 7b3e
00000190: e778 303e 4cf9 843d 3eb3 233d bb39 e53d
000001a0: 1ad4 6bbe 1e6b bc3e fb9f 1fbe da68 943f
000001b0: 429b a43e 2c2b 4b3d 2d3b 313d 60b3 523d
000001c0: 532f c4bc fded 95be 0c98 2dbb 76b0 2b3f
000001d0: 0644 6abe 5246 2f3e 7d30 bf3a db7c 81be
000001e0: 69ec 433c 7896 abbe a171 0abd 7dc8 183e
000001f0: e9d0 ac3d d78f a8bc 13f9 c3bd 6017 ddbc
00000200: a83a 633f 37ae b8be af93 a4be e58d a1bd
00000210: 7d32 85be 0bc7 193e 36f4 2ebf 103d 173f
00000220: 1673 8abe e4c8 e53e 6ee0 03bf 7643 48be
00000230: 6913 243f 67dd 843e 6605 4abf eca9 e5bc
00000240: 0775 70be 2c55 5f3f 9fc7 f1be 9c13 49bf
00000250: b597 f0bc af62 dbbe 8aac 4bbe b1c9 1ebf
00000260: 9132 083f 48da 96be 4ab3 ccbd e2e7 91be
00000270: f2d7 3b3f a6b2 f13e a47f 793f abc8 833e
00000280: 24c9 09be 3729 d4bd 2798 d93c eb5e b83e
00000290: f4eb eabe ec20 313f 7551 b1be 8940 2c3f
000002a0: 65da 453f 1c5b b5bd 1509 eebe 4093 8abe
000002b0: 502f 11bc 25e9 8b3e b559 55bd b5d4 f0be
000002c0: f71d 3b3f 949e d33e 44ef 3a3f a91b a8bd
000002d0: 22ac 453f 4732 a53e f3af 04bf 2ad9 043f
000002e0: 819f 5a3e 476c e1be 43bb 0c3f a050 85be
000002f0: 7351 72bf 3217 183e fbcc 733d 62d3 4b3f
00000300: 9bf9 74be dc4b 4b3f 02ee 753e 3509 713f
00000310: 29d0 743d 4eb1 99bd 0d7d 923e e371 25bd
00000320: 2f11 53be eaa7 10bd 3874 87be 14a7 be3f
00000330: 62bd cebe 0cfe 763e 7e4d d0bd 2329 c2bc
00000340: 7f7f 77bd 6967 2bbe 3d34 5cbd c7e1 0f3f
00000350: ec94 69be f17c b23e f87f d9bd 8dd5 fbbe
00000360: b90a 5dbe 95a9 96be baaa 4abd f848 9ebe
00000370: 4b0e 053e ac82 60bc ca07 3cbe 6696 363d
00000380: be58 45bd 0b9e a2be 5dc8 543f 6a9f 553e
00000390: 3cca 553e a7ad 4e3c 0f84 c4bd e180 54bd
000003a0: 5597 48be c1ac 043f b3d7 cabe 8ff3 cbbf
000003b0: e163 64bf 99e2 4e3f e94c 953f 971a 3d3f
000003c0: 9c85 e1bd b872 52bf f32d fabd 3a9c 02bf
000003d0: e57e 9abe c43d a7be b3c0 babe 59bc 4b3f
000003e0: e5eb 2bbf a26f 32bf 44b3 00be 37d0 703f
000003f0: e5e1 e7bd 05a4 1dbf b3fc 293e bbdf 013f
-0.039963536 0.028904427 0.05286257 0.047379322 0.19077727 0.06741631 0.02592817 -0.00861668
0.11916144 -0.02541733 0.013950224 0.21826991 0.06643442 -0.019753734 -0.04411828 0.020190435
-0.020445298 -0.07930849 0.019139955 -0.019402375 0.024610024 0.12673467 -0.065846704 0.00834558
-0.012196704 0.011610739 0.008920534 0.22504336 -0.034649957 0.01700312 -0.16802643 0.04148088
0.1859487 0.13966465 -0.4173315 -0.029749807 -0.15213884 0.6992058 0.24492076 0.096607976
-0.23634656 -0.27834362 0.1414378 -0.028647926 -0.2124658 -0.04302344 -0.11403384 -0.6292214
-0.0315665 0.15442277 -0.10904949 -0.3748297 0.27853787 -0.0416149 0.4655115 -0.123171024
-0.065639615 -0.26379597 -0.04691425 -0.39305094 0.35404104 0.25876215 0.25056425 -0.13078414
0.42428574 0.001422527 -0.23372652 -0.10292046 -0.48254138 0.32771125 0.7617294 -0.07377467
0.2659916 -0.115278594 0.122837506 -0.36429247 -0.15266444 0.04574549 -0.12257817 -0.063426256
0.06667511 -0.03703287 0.3425891 -0.14524138 -0.2950698 0.27001545 0.85041493 0.11014628
0.12210331 -0.38194686 0.0012824882 -0.40937638 -0.3108305 0.13716143 0.24432544 -0.05699891
-0.008272825 -0.5090257 -0.49355802 0.24599704 0.1723362 0.06492862 0.03996586 0.11192652
-0.23030129 0.36800474 -0.15588371 1.1594498 0.32149702 0.04960172 0.043269325 0.051440597
-0.023948347 -0.29283133 -0.0026488332 0.67066133 -0.22877511 0.17116669 0.0014586594 -0.2529057
0.01195822 -0.33513236 -0.03379977 0.1492023 0.08438284 -0.0205764 -0.095689915 -0.026988685
0.8876138 -0.36070415 -0.32143924 -0.07888392 -0.26015082 0.15017335 -0.68341386 0.5907755
-0.2704093 0.4487983 -0.5151433 -0.19556984 0.6409212 0.25950167 -0.7891449 -0.028035127
-0.23482142 0.87239337 -0.4722261 -0.78545547 -0.029369215 -0.42848727 -0.19890037 -0.62026507
0.5320216 -0.2946341 -0.09995134 -0.28497225 0.7337638 0.4720661 0.9746039 0.25739035
-0.13455635 -0.103594236 0.02656181 0.36009917 -0.45883143 0.6919086 -0.3463246 0.6728597
0.7728637 -0.08855268 -0.46491304 -0.27065468 -0.008861378 0.27326313 -0.052087504 -0.47037283
0.730926 0.41331923 0.7302134 -0.08208401 0.7721578 0.3226492 -0.5183098 0.51893866
0.21349908 -0.44027922 0.5497324 -0.26038074 -0.9465553 0.14852598 0.059521656 0.7961942
-0.23923342 0.7941263 0.24016574 0.94154674 0.05976883 -0.07504521 0.2861103 -0.040391814
-0.20612024 -0.035316385 -0.26455855 1.4894738 -0.40378863 0.24120349 -0.101710305 -0.023701256
-0.060424324 -0.16738667 -0.053760756 0.56203884 -0.22810715 0.34860948 -0.10620111 -0.49186364
-0.21586122 -0.29426256 -0.049479224 -0.30915046 0.12993734 -0.01370303 -0.18362346 0.044577025
-0.048180334 -0.31761202 0.8311823 0.20861593 0.20877928 0.012614644 -0.09595501 -0.05188072
-0.19588979 0.518261 -0.3961769 -1.5933703 -0.89214903 0.8081451 1.1664096 0.738687
-0.11011812 -0.82206297 -0.12215795 -0.5101963 -0.30174938 -0.3266431 -0.36475143 0.7958427
-0.6715682 -0.6970159 -0.12568384 0.9406771 -0.11322383 -0.615784 0.16600303 0.5073201

arith.constant10 f4 [1, 3, 3, 32]
00000000: 541a 7fbc 6bd9 05bc a7c8 d93d 0f39 e6bd
00000010: 049d 1fbe 9500 7fbc d3b5 45bd a40f adbc
00000020: b7e2 98bc 7acf cbba 1f14 97bc c2b3 4dbc
00000030: 0ccc 783d 3532 c73d 501f 45bd 1b6a 98bb
00000040: ace2 05bd c56c 19bc 865a 6c3d 700e efbc
00000050: 5088 aa3c 4d13 d3bd d9b3 51ba ec39 253e
00000060: 7440 2bbb 9830 8cbc add6 e2bc 1b3a 40bb
00000070: e295 a0bd 0496 dabe d090 153c 16de 5ebc
00000080: f680 e9bc f638 60bc 557e 223f 13f7 debe
00000090: e1ae 843f 39f5 5c3e 1946 cb3a 82e0 2cbe
000000a0: 2c2e 2aba c7f6 7f3d 8923 debc 03c8 86bd
000000b0: aac5 8b3d 0a6c 89be 7670 0fbe 5c65 37bc
000000c0: 4362 e4bd 26b3 fc3c 0f96 00bf 30db 87be
000000d0: e9c1 093e 5cae 85be ddb7 b63c 53ca 993e
000000e0: 5553 11bc e450 dcbd 54b2 79bd 9d13 47bc
000000f0: d65b 88bd 0496 dabc 1f1b 9d3c b340 413f
00000100: b5fe f9bb ea0d 0abc 8cff a83e 6891 83be
00000110: dd5d 1bbf fa00 093a 27c0 a13c 543b 163e
00000120: 0bf7 48bd 79fd 993c 08d8 57bd 820f 743d
00000130: ceb8 973c d231 17bd a75f 293e c645 723d
00000140: 768b d9bc db77 9cbc 377c d63b e053 403e
00000150: df34 a5bb 8c04 ef3c b93e ad3c 5a10 453c
00000160: 9df1 283b 8f33 5bbc 9108 a43a 5e03 683d
00000170: 7d06 083e d622 a13e dc13 99bb 7ea4 0fbd
00000180: 8cf5 c8bc b359 85bd 5558 02bd a3b6 a9be
00000190: 80a8 7abd 05a0 b53d 7bca 6cbc 46c1 9bbe
000001a0: 96bc 45bd 4393 4abd 4443 953c 5dc8 66bd
000001b0: ff51 04be ec68 183f a2d6 8dbc ba92 023c
000001c0: 7dac e63e 7be2 73bc aa08 db3d 48f2 87be
000001d0: dbd2 6dbe 7528 81be b127 1abe e4a7 af3d
000001e0: 70c9 0f3d d1f6 163d 68d3 f8bc 1c40 7b3c
000001f0: f742 533e 69b2 11bf d88d ca3c cfca c5bc
00000200: 312b 67bf 0cb6 83bf 4021 323d 7c83 0cbf
00000210: 09fb 15bf 657b 46bf ce26 1abf 330d 0fbf
00000220: 9452 86bd 95f7 4ebf 9a4a 5d3f c16d c4bf
00000230: 2994 6c3f f041 8cbf b6e9 03be e0e9 49bf
00000240: d6f1 a5bf a8bb 8abf b98c 26bf d07e 8740
00000250: f09e 7ebf 459f 48bf c196 39bf 734b 93bf
00000260: c2b8 6f3f a20d 6b3f d712 92bf 024a 60bf
00000270: 2eea 8abf a907 22bf dc59 313f 0be3 8abf
00000280: 3a3e 053f 8843 8cbc 0e85 463e 1cb6 01bf
00000290: 0473 5dbe 6cbc 9ebe 0ac7 ae3e 595c 03bf
000002a0: 7c2d e1bb 2fed 64bc 3d0c 2fbd fd48 d1be
000002b0: 2ccb be3c b807 9abd ded4 613f 0c51 423f
000002c0: 31af 333d 7393 f13e ddfa e7be 5055 cbbf
000002d0: d14d e0be b40f a9be 721e 4fbd b746 d83a
000002e0: 517b 24be 72d4 5a3d d9de 2b3f 509b 193f
000002f0: 455e bb3d cbe7 a63f b258 343e 4c43 953c
00000300: 66d4 42bb 8b63 14bd c3cc efbb 37c2 12be
00000310: a220 9dbb 4aa6 813a 71da 8cbc 2088 613c
00000320: 46ce 1c3d 8a52 2a3d 95b0 aa3c d1ac e4bc
00000330: 9e63 a13d c538 d1bd e6d8 9d3c 4172 36bc
00000340: e884 83bd fe60 fe3c 1681 173d a8d5 2d3e
00000350: fa4a e83d d990 3dbc 999e 123e 46ea bb3c
00000360: 047d 5a3c 0158 593c 8072 853c 0f7a 7f3c
00000370: 5361 fb3d ef1f e6be cf69 ccba 9049 203c
00000380: de18 85be 8859 673f d964 45be bce1 f2be
00000390: 386f 1abe 2fe4 29bf 2692 2a3f a614 0abf
000003a0: 42a8 953f ec98 a33f 4b9c a13e e3f5 193f
000003b0: dbfd 04be 8b0b 633e cf75 e5bd 20aa f6bd
000003c0: 3c41 d7bd 053a 84be 6604 16bf 904a 39bf
000003d0: 7490 b8be 1e81 31bf 556c 16bf 9f99 c3ba
000003e0: fe53 26be 72ec f83c fc11 ed3c 4d52 2fbe
000003f0: 3c28 f73e 3c25 bebe 2efd a53e b7e6 c1bc
-0.015570242 -0.008169512 0.106339745 -0.11241352 -0.1558724 -0.015564104 -0.048269104 -0.021125622
-0.018662794 -0.0015549504 -0.018442212 -0.012555065 0.06074147 0.09726373 -0.048125565 -0.0046513206
-0.032686874 -0.009364312 0.057703517 -0.029181689 0.020816952 -0.10306416 -0.00079995167 0.16135377
-0.0026130946 -0.017113015 -0.027690256 -0.0029331509 -0.07841088 -0.42692578 0.009128764 -0.013602754
-0.028503876 -0.013685456 0.6347402 -0.43547878 1.0365869 0.2157792 0.0015508562 -0.16882518
-0.00064918655 0.062491205 -0.027116554 -0.06581118 0.06824811 -0.2684024 -0.14007744 -0.0111936
-0.111515544 0.030847143 -0.5022897 -0.26534414 0.13452877 -0.26109588 0.02230447 0.30037174
-0.008869966 -0.10757616 -0.060961083 -0.012150672 -0.06658141 -0.026682861 0.019177971 0.7548935
-0.0076292404 -0.008426169 0.33007467 -0.25696874 -0.606901 0.0005226281 0.019744946 0.1467107
-0.049063724 0.018797623 -0.052696258 0.059585102 0.018520739 -0.036912747 0.16540395 0.059148572
-0.026555758 -0.01910012 0.0065455693 0.18781996 -0.005041703 0.029176973 0.021148073 0.012027824
0.0025778778 -0.013378992 0.001251476 0.056643836 0.13283725 0.3147189 -0.004671557 -0.03506898
-0.024531148 -0.065112494 -0.03182252 -0.33147153 -0.06119585 0.08868412 -0.014452572 -0.30420893
-0.048275553 -0.049456846 0.018220551 -0.056343425 -0.12921904 0.595351 -0.017314259 0.007969553
0.45053473 -0.01488554 0.10695012 -0.26552033 -0.23224966 -0.2522618 -0.15054204 0.085769445
0.035104215 0.036856476 -0.030374244 0.015335109 0.20631014 -0.5691286 0.02472584 -0.024144558
-0.9030028 -1.0289931 0.04348874 -0.5488813 -0.58586174 -0.77532035 -0.6021546 -0.55879515
-0.06558719 -0.8084653 0.8644196 -1.5345994 0.92413574 -1.0957623 -0.12882122 -0.7887249
-1.2964427 -1.0838518 -0.65058476 4.23423 -0.9946127 -0.78368026 -0.7249566 -1.15074
0.93641293 0.9181768 -1.1412 -0.87612927 -1.0852716 -0.6329294 0.6927774 -1.0850538
0.52048075 -0.017122045 0.19386694 -0.506685 -0.21625906 -0.3100313 0.3413623 -0.51312786
-0.0068718772 -0.013972565 -0.04273628 -0.40875998 0.02329024 -0.075210035 0.88215435 0.7590492
0.043868247 0.47182807 -0.4530858 -1.588541 -0.4380937 -0.33019793 -0.050566144 0.0016500567
-0.16062666 0.05342526 0.67136914 0.60002613 0.0914884 1.3039488 0.1761196 0.018220566
-0.002972865 -0.036227744 -0.0073181107 -0.143319 -0.00479515 0.0009891477 -0.017194005 0.013765365
0.038282655 0.04158262 0.020836154 -0.027914437 0.078803286 -0.10215906 0.019268464 -0.011135639
-0.06421834 0.031052109 0.03698834 0.16976035 0.11342426 -0.011570179 0.14318313 0.022938859
0.01333547 0.013265611 0.01628995 0.015593066 0.122744225 -0.44946238 -0.0015595498 0.009783164
-0.25995535 0.9037099 -0.19276752 -0.47437847 -0.15081489 -0.66363806 0.66629255 -0.53937757
1.1691973 1.2781043 0.31564555 0.6014082 -0.12987463 0.22172372 -0.11204111 -0.120441675
-0.10510489 -0.25825515 -0.5860046 -0.723794 -0.3604771 -0.6933764 -0.5875905 -0.0014923102
-0.16242978 0.030386183 0.02893924 -0.17121239 0.48272884 -0.37137783 0.32419723 -0.023669584

arith.constant11 f4 [18, 1, 1, 32]
00000000: 0020 813d 0020 4b3e 00c0 f4bc 00e0 cd3d
00000010: 0000 753e 0060 95be 00e0 8dbc 0000 d43d
00000020: 0040 6e3e 0040 243e 00e0 ab3c 0080 73bc
00000030: 0020 ce3e 00a0 e23d 0040 ecbd 0040 c9bc
00000040: 00c0 86be 0080 0d3e 0020 1dbe 00a0 343c
00000050: 00c0 f53d 00a0 563d 0040 24be 0020 c8bb
00000060: 00e0 08bf 00c0 ff3b 00e0 99bb 0080 933d
00000070: 00c0 9cbc 0040 47be 00c0 f3bc 0060 bc3d
00000080: 0020 ac3e 0020 5a3d 0080 e2be 0020 8dbc
00000090: 0020 16bd 0080 0e3e 0000 cfbb 00a0 adbd
000000a0: 00c0 24bd 00e0 f93a 0060 e6bd 00e0 3c3b
000000b0: 00a0 2cbd 0060 69be 00c0 c73c 0040 233e
000000c0: 0000 3e3d 0020 243e 0000 58be 0000 3f3e
000000d0: 0080 d93d 00a0 843c 0020 a2bb 0020 253e
000000e0: 0020 2a3d 0000 e9bb 0000 53bc 0080 303e
000000f0: 0020 6d3c 0020 1dbe 00c0 9fbe 00c0 b0be
00000100: 0000 c73c 00e0 6ebd 00e0 94bd 00e0 363e
00000110: 0060 21be 0080 e9bd 0060 b2bd 0060 f5bd
00000120: 0020 843e 00e0 aa3d 0020 3ebe 0020 9cbe
00000130: 00a0 363e 0060 933e 00e0 58be 0000 873d
00000140: 00e0 00bc 0000 7cbe 0000 aa3e 0040 003f
00000150: 0040 b33d 0040 823e 00e0 b23c 00c0 303e
00000160: 00e0 503b 0060 06bf 00e0 f93c 00c0 29be
00000170: 00c0 b43e 0040 b9bd 0080 f83d 00e0 73be
00000180: 00a0 fb3b 00a0 4a3d 0040 37bd 00c0 bb3d
00000190: 00e0 a7bd 0020 e8bd 0040 0ebe 00c0 4ebe
000001a0: 00c0 333d 0060 a3bc 00a0 4d3d 0020 b93e
000001b0: 0020 123d 0000 4c3e 0000 48bd 0020 773d
000001c0: 00c0 ae3d 0040 64be 0060 b2bc 0080 8fbc
000001d0: 0040 e63d 0060 5dbe 00a0 06bd 0000 fc3d
000001e0: 00e0 0f3d 0060 2bbe 0040 593d 0020 5bbe
000001f0: 00c0 e73e 00a0 06bd 00a0 e23c 00e0 4abd
00000200: 00c0 95be 0000 96be 0040 bdbd 0020 dabe
00000210: 0080 533e 0020 63be 0000 abbd 00c0 303f
00000220: 0080 9a3e 0060 60be 0080 293e 00a0 f43c
00000230: 00c0 33be 0000 313e 00e0 273f 0020 dc3e
00000240: 0040 243e 0000 96bd 00a0 e93e 0080 9b3e
00000250: 00c0 fb3e 0080 dfbe 00c0 94be 00c0 68be
00000260: 0040 a23c 0040 c23f 0080 75be 0000 c6bd
00000270: 0040 13be 0020 69bd 0040 0f3c 0000 4dbe
00000280: 0000 96bc 0040 98bd 0060 9f3d 00c0 553d
00000290: 00e0 9cbc 00e0 7b3b 0060 053c 00e0 91bb
000002a0: 0040 2abc 0020 993c 00c0 b0bd 0020 433d
000002b0: 0000 af3d 0020 6c3c 0000 31bd 0060 8e3d
000002c0: 0060 c73d 0020 8a3d 0020 e23c 0020 2bbc
000002d0: 00e0 4a3d 0060 bf3d 00a0 aa3d 00e0 b63c
000002e0: 0020 8fbc 00a0 a63d 00e0 b9bc 0020 51bd
000002f0: 0080 d63c 00e0 8c3c 0080 c8bd 00c0 43bc
00000300: 00e0 8c3d 00a0 4c3e 0000 abbc 00c0 96bd
00000310: 0060 6d3e 0020 98be 00e0 c2bc 0020 bf3d
00000320: 0080 813e 0080 1d3e 00a0 6c3c 00a0 18bc
00000330: 0000 e13e 00c0 e63d 00c0 e0bd 0000 a3bc
00000340: 0060 88be 0080 103e 00a0 17be 0040 213c
00000350: 0040 ee3d 00e0 533d 00e0 9d3d 0080 fdbb
00000360: 0040 f7be 0040 6d3b 0020 7fba 0000 843d
00000370: 00c0 0ebd 00a0 45be 0000 f9bc 00e0 b93d
00000380: 00e0 a23e 00a0 783d 0020 d4be 0040 32bc
00000390: 0040 2dbd 00c0 0d3e 0000 fbbb 00c0 83bd
000003a0: 00c0 3ebd 00e0 e7bb 0080 f0bd 00c0 c03b
000003b0: 0080 09bd 0080 6cbe 00e0 d93c 0000 1a3e
000003c0: 00a0 413d 00c0 373e 0000 57be 0020 503e
000003d0: 00e0 d23d 0060 be3b 0080 0a3a 0020 703e
000003e0: 0060 083d 00c0 393a 0020 1abe 00c0 263e
000003f0: 0060 833c 0060 17be 0060 a0be 0080 aabe
0.06304932 0.19836426 -0.029876709 0.1005249 0.23925781 -0.29174805 -0.017318726 0.103515625
0.23266602 0.16040039 0.020980835 -0.014862061 0.4025879 0.11065674 -0.115356445 -0.02456665
-0.2631836 0.1381836 -0.15344238 0.011024475 0.11999512 0.05239868 -0.16040039 -0.0061073303
-0.53466797 0.0078048706 -0.0046958923 0.072021484 -0.019134521 -0.19458008 -0.029754639 0.09197998
0.33618164 0.053253174 -0.4423828 -0.017227173 -0.03665161 0.13916016 -0.0063171387 -0.08477783
-0.040222168 0.001906395 -0.11248779 0.0028820038 -0.042144775 -0.22790527 0.024383545 0.15942383
0.04638672 0.16027832 -0.2109375 0.18652344 0.10620117 0.016189575 -0.0049476624 0.16125488
0.041534424 -0.0071105957 -0.012878418 0.17236328 0.014472961 -0.15344238 -0.31201172 -0.34521484
0.024291992 -0.05831909 -0.07269287 0.17858887 -0.15759277 -0.11401367 -0.08709717 -0.11981201
0.25805664 0.08343506 -0.18566895 -0.30493164 0.17834473 0.2878418 -0.21179199 0.06591797
-0.007865906 -0.24609375 0.33203125 0.50097656 0.087524414 0.25439453 0.021835327 0.17260742
0.0031871796 -0.52490234 0.03050232 -0.16577148 0.35302734 -0.0904541 0.12133789 -0.23815918
0.0076789856 0.049468994 -0.04473877 0.091674805 -0.081970215 -0.113342285 -0.13891602 -0.2019043
0.043884277 -0.019943237 0.050201416 0.36157227 0.03567505 0.19921875 -0.048828125 0.060333252
0.08532715 -0.22290039 -0.021774292 -0.01751709 0.11242676 -0.21618652 -0.03286743 0.123046875
0.035125732 -0.1673584 0.05303955 -0.21398926 0.45263672 -0.03286743 0.027664185 -0.04953003
-0.29248047 -0.29296875 -0.09240723 -0.4260254 0.20654297 -0.22180176 -0.083496094 0.6904297
0.3017578 -0.21911621 0.16552734 0.02986145 -0.17553711 0.17285156 0.6557617 0.42993164
0.16040039 -0.07324219 0.45629883 0.30371094 0.49169922 -0.43652344 -0.29052734 -0.22729492
0.019805908 1.5175781 -0.2397461 -0.09667969 -0.14379883 -0.056915283 0.008743286 -0.20019531
-0.018310547 -0.07434082 0.077819824 0.05218506 -0.01914978 0.0038433075 0.008140564 -0.0044517517
-0.010391235 0.018692017 -0.08630371 0.04763794 0.08544922 0.014411926 -0.04321289 0.06951904
0.097351074 0.06744385 0.02760315 -0.010444641 0.04953003 0.093444824 0.08331299 0.022323608
-0.017471313 0.08135986 -0.02268982 -0.05105591 0.026184082 0.017196655 -0.09790039 -0.011947632
0.06878662 0.1998291 -0.020874023 -0.0736084 0.23181152 -0.29711914 -0.023788452 0.093322754
0.2529297 0.1538086 0.014442444 -0.009315491 0.43945312 0.1126709 -0.10974121 -0.019897461
-0.26635742 0.14111328 -0.14807129 0.009841919 0.11633301 0.051727295 0.0770874 -0.007736206
-0.48291016 0.0036201477 -0.00097322464 0.064453125 -0.034851074 -0.19299316 -0.030395508 0.09075928
0.31811523 0.060699463 -0.41430664 -0.010879517 -0.042297363 0.13842773 -0.007659912 -0.064331055
-0.046569824 -0.0070762634 -0.11743164 0.005882263 -0.033569336 -0.23095703 0.02659607 0.15039062
0.04727173 0.17944336 -0.20996094 0.20324707 0.10296631 0.005809784 0.0005283356 0.23449707
0.033294678 0.00070858 -0.1505127 0.1628418 0.016036987 -0.14782715 -0.31323242 -0.3330078

arith.constant12 f4 [1, 3, 3, 64]
00000000: 255d 9b3e 399f efbe 61be 9d3e 018f 72bf
00000010: 4036 b23f e626 1fbe 173b 64bf 8610 6f3e
00000020: 752f e2bf dccd 0fbf f0ee ff3e 3ef0 98bd
00000030: 1e47 cb3e 499a 113f 4012 813e 4d48 d6bd
00000040: f060 a7be 3d51 6a3e 44c8 123f ef49 2a3e
00000050: 7c9e e8bd 76d1 0dbf 763b 53bf 6180 4ebf
00000060: 8c8e 803d ecd8 a33d a463 e43c 2918 313f
00000070: ad83 fe3e 357a b53c 6acb 3fbe 4090 783e
00000080: 6ddd 7fbe 1103 3bbf 2e70 c0be 5f6a a73d
00000090: a61e 14bf 58f5 e3be 2f80 1b3f 0f9e 7abe
000000a0: 6727 0e3f 5c6e a03d 7ddb e3be 2d16 a33c
000000b0: b590 1c3f c522 b73f bca4 2abe 1042 46bf
000000c0: b371 003f 3f08 0ebd 1605 053f 8659 4abd
000000d0: 1ec1 1f3e aa06 46bf 2465 e83e 8ccd b0bb
000000e0: 8cbb 953e a084 9a3e cf32 8fbd 662a 68be
000000f0: a3b0 62bf cd9e 48be 54d6 303d 2157 ec3e
00000100: 28e7 24bf 858b 13bf 5505 40be 2c50 40bf
00000110: 546b 8bbf 9364 1e3e 6bb0 143e 2f57 373d
00000120: aa83 7a3e 1928 0e3f a710 27bf 7d53 0b3f
00000130: 9e9a b5be d2d4 393f b9ff e9be 23fe 20bb
00000140: c373 f7be a22e 1bbf c22f 303e e13c 073f
00000150: 5573 1cbf 47dd 123f b950 22be 5f3f 143f
00000160: f63d 45bf bbc9 a13e d9ed c53e 3b65 45bf
00000170: 313d 50bf 5b2a febe 88b2 3a3e 3f9f af3e
00000180: 1aaa 3c3e cd2b 1cbe 63b6 57bf 5822 8e3e
00000190: a61e 143e 383f 14bf b405 c3be 36b0 5fbf
000001a0: ebd3 19be 02a3 823e 6573 d8bd d042 b43e
000001b0: 1376 10bf e84b 34be c050 773f 233e 43bf
000001c0: 280c 203f 8263 4abf e578 debe 9277 3c3e
000001d0: bb8c 8a3f a184 373f 1293 20bf 13cd edbe
000001e0: f65c 05bf b7c2 2e3f b8be 423d 7584 283f
000001f0: 0988 11bf ad9e 71bf 318f 293f 1a29 cc3d
00000200: 0925 c83f 67ae d93e 0f81 483e 23e3 dcbf
00000210: ed43 97bf 3974 b1be a7c1 1d3f a77f 463f
00000220: ef02 d8be a281 023f 597b 14bf 08e4 2dbf
00000230: 869c b1be 4e83 40bf f9b8 13bf 3a27 213f
00000240: 605b c5be 0e25 d7be 1e05 3cbf 144e 3fbf
00000250: 2587 b9bd c3a8 0ebf 4e5e 4ebe e456 593f
00000260: 7013 213f 9699 1fbd f3f4 fa3e 2855 743e
00000270: 04c2 b73e 8909 ca3e 1cb2 bd3e 4845 0f3f
00000280: ae87 66bc 2e06 8a3d 6d77 883e eced 0b3f
00000290: 01a1 623e fe71 dd3d 729f c4be 4cfe fb3e
000002a0: 15fd fa3d 2b5b fdbe 35f0 a73e ea77 b13e
000002b0: ebf6 283f 9966 d7bd 8733 a2be b01b 95be
000002c0: 78bd 8b3e d952 f63e c6c4 023e 0f38 2b3f
000002d0: 7bef 513f ba8f a83f 4323 0cbf ff4d 733e
000002e0: 3cb2 893e 01f2 613e 578c 983e 9ec1 a3be
000002f0: d99d 74bf d223 c6bd e1e8 c73e 7fc2 193f
00000300: edd9 c83f 6976 d73e 6270 d83e b165 b53f
00000310: 673f 0abe 8fc4 3d3f ef44 17bf 789f 9b3d
00000320: 0b96 bcbf e0af 913c 7dce 813d ad39 2f3f
00000330: 5f02 f0be 9b2b eebd cfa5 1cbe 96db a83e
00000340: 0e18 453f ca1a 37bd ae13 0fbf 8d59 323f
00000350: 3da2 d23e f107 8c3e 5c26 8cbe 0d4f 423f
00000360: 8318 13bf 1041 02bf 4501 2ebf 3ae5 a93e
00000370: 3382 d6be 53eb efbe 484f 243e 2c78 643e
00000380: cff3 593e 0cdd 533f 85e9 753f cdf0 2fbf
00000390: 249e c13e 631a 68be 24ee 173f c62c 663f
000003a0: 85a6 24bf 5ce9 ae3e d65b 003f 30d1 533e
000003b0: badd a83e dfdb f53e bea9 e33e aa05 0ebe
000003c0: 9921 d73e 2427 3fbf 0205 49bf 2d4d 45be
000003d0: 76ad a8bd 439f 93be 787c 2cbf 2ea9 163f
000003e0: 4953 133f 16c9 383f eba1 f0bd a223 a73e
000003f0: debe 80be 3a54 1f3f 2bba ab3e 3b10 83be
0.303445 -0.46801165 0.3080931 -0.94749457 1.3922806 -0.15542182 -0.89152664 0.23346147
-1.7670733 -0.5617349 0.49986982 -0.074676976 0.39702696 0.56876045 0.25209236 -0.10463009
-0.32691145 0.22882552 0.5733683 0.16629766 -0.113583535 -0.5539774 -0.82512605 -0.8066464
0.06277189 0.08000359 0.027879544 0.6917749 0.49709836 0.022153 -0.1872994 0.24273777
-0.24986811 -0.73051554 -0.37585586 0.081745856 -0.57859266 -0.4452312 0.6074247 -0.24474357
0.55528873 0.078335494 -0.44503394 0.019908035 0.61158305 1.4307486 -0.16664404 -0.77444553
0.5017349 -0.034675833 0.51960886 -0.049401782 0.15601012 -0.7735392 0.45389664 -0.005395597
0.2924465 0.3017931 -0.06992113 -0.22672424 -0.88550776 -0.19591828 0.04317315 0.46160224
-0.64415216 -0.57634765 -0.18752034 -0.7512233 -1.0892129 0.15468054 0.14520423 0.04476088
0.24464288 0.55529934 -0.65259784 0.5442427 -0.35469526 0.72590363 -0.45702913 -0.002456554
-0.48330507 -0.6061803 0.17205718 0.5282727 -0.6111348 0.5736889 -0.15851106 0.57909197
-0.7704767 0.3159922 0.38658026 -0.7710759 -0.8134337 -0.4964169 0.18232167 0.34301183
0.18424264 -0.15251084 -0.84262675 0.27760577 0.14464816 -0.57908964 -0.3809029 -0.8737825
-0.15022247 0.2551499 -0.10568885 0.35207224 -0.56430167 -0.17607081 0.9660759 -0.7626669
0.6251855 -0.79058087 -0.4345161 0.18404987 1.0824198 0.7168675 -0.6272441 -0.46445522
-0.5209497 0.6826586 0.047545165 0.65827113 -0.568482 -0.94382745 0.6623412 0.09968777
1.5636302 0.4251587 0.19580482 -1.7256817 -1.1817604 -0.34658983 0.61623615 0.7753853
-0.42189738 0.50979054 -0.58000714 -0.67926073 -0.3468973 -0.75200355 -0.5770412 0.6295048
-0.38546276 -0.42020458 -0.7344531 -0.7472851 -0.0905898 -0.5572626 -0.20153162 0.8489821
0.62920284 -0.03896483 0.49015006 0.2386061 0.3589021 0.394604 0.3704995 0.5596509
-0.0140704345 0.0673946 0.26653615 0.54659915 0.2213173 0.10812758 -0.38402897 0.4921745
0.12255303 -0.49483618 0.3280045 0.346618 0.66001767 -0.10517616 -0.31679937 -0.29122686
0.2729299 0.48110083 0.12770376 0.66882414 0.82006043 1.3168862 -0.54741305 0.23760222
0.26893795 0.22064973 0.2979457 -0.31983656 -0.95553356 -0.09674801 0.3904486 0.600624
1.5691506 0.42082527 0.4227324 1.4171659 -0.13500749 0.7412805 -0.5908956 0.075987756
-1.473329 0.017784059 0.06338213 0.6844738 -0.4687681 -0.11629411 -0.15297626 0.3298003
0.7698983 -0.044703282 -0.55889404 0.69667894 0.41139403 0.2734981 -0.27373016 0.7590187
-0.57459277 -0.5088053 -0.6797069 0.33182698 -0.4189621 -0.46859226 0.16045868 0.22311467
0.21284412 0.82759166 0.9605945 -0.6872681 0.37815964 -0.22666316 0.5934775 0.8991207
-0.6431659 0.34162414 0.5014013 0.20685267 0.32981664 0.4801931 0.4446544 -0.13869348
0.4201782 -0.746691 -0.78523266 -0.19267721 -0.0823621 -0.28832445 -0.67377424 0.588519
0.5754896 0.7218183 -0.117496334 0.32644373 -0.2514562 0.62237895 0.33540472 -0.2559832
