Neural_network/pytorch_tflite_convert/model/output/yolov5_float32.tflite (tflite, 160288 bytes, 52 tensors)

arith.constant f4 [64]
000000 57 de 95 3f 22 e1 5a 3f cc 36 35 3f bb bd 3a 3f
       1.1708478 0.85499775 0.7078674 0.72945756
000010 b2 94 1a 3e 91 74 8e 3e ab b9 79 3f 1d fd b3 3e
       0.15095785 0.27823308 0.9754893 0.35154048
000020 be 0c a3 3e 8e f6 36 3f 04 7b a1 3f 32 f3 01 3f
       0.3184566 0.7146996 1.2615666 0.5076171
000030 92 34 a0 3f 97 eb 5b 3f e2 d9 3e 3f 3c cc 9e 3f
       1.2516043 0.85906357 0.7455121 1.2406077
000040 e1 be 64 3f 08 41 b9 3e f5 47 3a 3f 65 9f 19 3f
       0.8935376 0.36182427 0.7276605 0.6000884
000050 fc 96 9b bf fe 40 6a 3f 78 7b 4c 3f ec 40 14 3f
       -1.2155452 0.9150542 0.798759 0.5791156
000060 46 71 87 3f 71 ee d1 3f 8a 89 7c 3f 54 f8 56 3d
       1.0581443 1.6400892 0.9864737 0.052482918
000070 c7 9f b6 3e d8 1d 70 3e a4 9e 74 3f 7c f5 b8 3f
       0.35668775 0.23448884 0.95554566 1.4449916
000080 1a 7a 82 3e d2 eb e0 3e 88 51 85 3f 26 d2 3c 3e
       0.2548378 0.43929917 1.0415506 0.1843954
000090 47 be 87 3f 10 56 6c 3f 92 39 9c 3f 53 bd 45 3f
       1.0604943 0.9231882 1.2205069 0.7724201
0000a0 e8 92 9a 3e 5c 81 3f 3f d4 dd 04 3f 66 a6 ac 3f
       0.30190206 0.7480676 0.5190098 1.3488281
0000b0 7c a0 38 3f 44 9d 66 3f 6b 55 c5 3f 88 c2 de 3e
       0.7211988 0.9008372 1.5416692 0.4350779
0000c0 62 8b 78 3e bc ab b3 3e 46 6a 51 3e 2d 16 c0 3e
       0.2427192 0.3509196 0.20450696 0.3751692
0000d0 56 3f 7c 3f 1e d2 1f 3e 2c b3 4d 3e e9 6a 33 3f
       0.9853414 0.15607497 0.2008788 0.70085007
0000e0 fe 5e 89 3f 74 6b 5b 3d 62 31 d1 3e 91 71 2e 3f
       1.0732114 0.053569272 0.4085799 0.6814204
0000f0 88 15 29 3e 0e a3 da 3e 62 76 9f be a2 72 d7 3e
       0.1651212 0.42702526 -0.31145006 0.42079645

arith.constant1 f4 [64]
000000 15 69 a8 be cf ea 79 3f 1d ed 0b 3f 0e 61 42 be
       -0.3289267 0.97623914 0.5465868 -0.18982336
000010 b8 26 48 3f a0 7c 56 bc 8a 30 3b 3f 91 fe 62 3f
       0.7818408 -0.013091236 0.7312094 0.8866969
000020 f8 63 b0 bf 67 be 1e be 70 bc a8 be 78 0e 1a 3d
       -1.3780508 -0.1550232 -0.32956266 0.037611455
000030 3a 04 a4 3d 9c 85 8f bd 62 29 0c be 92 5a 0c 3e
       0.08008619 -0.07007906 -0.13687661 0.13706425
000040 41 fb 43 3e ce 02 13 3f a4 3d 3f 3e 97 56 a4 be
       0.19138815 0.57426155 0.18675858 -0.32097313
000050 84 60 38 3f 43 ba b5 bf 7b bf ce 3e 4c 4f b6 3c
       0.7202227 -1.4197468 0.40380463 0.022254609
000060 8b 8a aa be 98 2f f9 bb 38 6f d7 3e 03 be 71 be
       -0.33308825 -0.0076045506 0.4207704 -0.2360764
000070 56 76 08 bf c9 7f cc be 9d ed 9d be ad 8b 03 be
       -0.53305566 -0.39941242 -0.30845347 -0.12846251
000080 9e e9 2a be c7 cc 23 3f 58 af 14 3f e9 a9 21 3d
       -0.1669068 0.6398434 0.58080053 0.03946868
000090 9a eb dd 3e d8 38 02 bf 44 75 df 3d 98 7f 91 bd
       0.43343812 -0.50867987 0.109110385 -0.07104415
0000a0 36 49 8f bf d6 14 88 be 69 69 17 3f eb be e6 be
       -1.1194217 -0.26578397 0.5914522 -0.45067534
0000b0 0a 86 3b 3f 12 a4 4d be ec 80 8d bd fd 4e 9e 3e
       0.732514 -0.20082119 -0.069093555 0.30919638
0000c0 57 98 42 3e 02 02 38 3e e1 a1 c1 bf 80 64 ba 3a
       0.19003426 0.17969516 -1.5127527 0.0014220625
0000d0 50 fb 90 be 85 d3 b9 be 5f a2 08 3e ac f3 08 bf
       -0.28316736 -0.3629419 0.1334319 -0.53496814
0000e0 3b 7f 15 3e 00 96 42 be e7 05 af be dc cf 13 bf
       0.14599316 -0.19002533 -0.3418419 -0.57739043
0000f0 04 ba 8e bf 56 b7 3e 3f 6c 36 2c bf f9 13 8d be
       -1.1150517 0.744985 -0.6727054 -0.275543

arith.constant2 f4 [64]
000000 5d 63 33 3f c8 bb 8a 3f e7 50 b9 3e 96 51 61 3f
       0.7007349 1.0838556 0.36194536 0.88015115
000010 34 49 8d 3c ae 85 1d 3f b6 ed 1e 3f 98 54 e4 3c
       0.01724682 0.61532104 0.6208147 0.027872369
000020 f4 f7 56 3f 9c 3b f0 3f ba e7 9c 3f 99 d5 b1 be
       0.83972096 1.8768191 1.2258217 -0.34733275
000030 d2 90 5a 3f 57 b1 03 bf 9a 21 c7 bd 78 85 03 3e
       0.8537723 -0.51442474 -0.09723206 0.12843883
000040 29 b3 3b 3f f6 05 06 be fe 83 84 3e eb d0 8f 3f
       0.7332025 -0.13088211 0.25881952 1.1235632
000050 bc 9e 12 3f c2 78 0f 3f 66 91 89 be 12 e9 02 40
       0.5727346 0.56043637 -0.26868743 2.0454755
000060 7a 83 b8 3f 9c 92 1e 3e 9e 22 d5 3e b5 3e f5 3e
       1.4415123 0.15485615 0.41627973 0.47899404
000070 8e 5e ca 3f 1b 51 a0 3f 78 42 98 3f 5b 34 80 3e
       1.5810106 1.2524751 1.1895285 0.25039944
000080 a5 d6 8f 3f f5 13 97 3f 69 67 66 3f 97 2d 97 3f
       1.1237379 1.1802965 0.9000154 1.1810788
000090 44 40 9d 3d 1d b3 e8 3e 18 dd e8 3e 88 8e 82 3e
       0.07678273 0.45449153 0.4548118 0.25499368
0000a0 86 b6 72 3e aa 36 d3 3f af 30 24 3f 8a 90 a7 3f
       0.2370244 1.6501057 0.64136785 1.3090985
0000b0 ee 77 98 3f 2b b4 0b 3e c7 4c 17 3f b9 5a 0e 3f
       1.19116 0.13642947 0.5910153 0.5560718
0000c0 cc e2 44 3f a9 f3 92 3f be 30 53 3f ba 64 44 3f
       0.76908565 1.1480609 0.8249625 0.76716197
0000d0 30 cd fa 3e 53 05 ea bc cc 99 90 be 12 e1 2e 3f
       0.4898467 -0.028566992 -0.28242338 0.6831218
0000e0 3a ec d3 bd 9c 7b 18 bf 2f 47 88 3f 48 68 8e 3e
       -0.10347791 -0.5956361 1.0646724 0.27813935
0000f0 12 f4 a6 3f e5 6c 65 3e 22 d4 00 3f 5e 08 14 3f
       1.3043234 0.22404821 0.5032369 0.5782527

arith.constant3 f4 [64]
000000 8a 2b 42 3d bd f1 3e 3f a1 63 da be 5c 62 9b 3e
       0.047404803 0.74587613 -0.42654136 0.3034848
000010 e3 d0 6f 3f 9d d6 83 3f 1e 53 77 3f 69 07 c5 3f
       0.9367811 1.029987 0.966112 1.5392886
000020 d8 78 aa 3f 62 be e3 be fc b3 1d be ad 4d 15 bf
       1.3318129 -0.44481188 -0.1540069 -0.5832165
000030 40 19 3e bb bf 6a ae 3f f2 0a 6d 3e 72 05 51 3e
       -0.002900675 1.3626326 0.23148707 0.20412233
000040 c5 a0 f5 3e 47 fe 90 3e d0 3e dc 3d 1e 58 fe 3e
       0.4797422 0.28318998 0.10754168 0.49676603
000050 2c 79 44 3e d0 9a e2 3f 78 84 a3 bd de 63 bd 3d
       0.19186848 1.7703495 -0.07984251 0.09247564
000060 02 04 31 3f 36 eb 01 c0 98 1c fc bc 8a 02 26 bf
       0.6914674 -2.0299811 -0.030775353 -0.64847624
000070 de 11 8d 3f 15 0a 9c 3d 1a fd f6 3e 80 5f d6 3c
       1.1021078 0.076191105 0.48239976 0.026168585
000080 28 8a a5 3f 35 95 bc be ce 10 89 3f 11 44 0b bf
       1.2932787 -0.36832586 1.0708253 -0.54400736
000090 45 94 a7 be 9c 1d 8c be 0c a1 82 3e e8 6e 5a be
       -0.32730308 -0.2736634 0.25513494 -0.2133137
0000a0 4d ba 44 be 77 ad 3f 3f e6 09 5c 3f 1a ec 25 3f
       -0.19211693 0.7487406 0.85952604 0.6481339
0000b0 5d bb 49 3e f8 de e3 bc 1d bf 2b be d4 22 f2 3f
       0.1970038 -0.02781628 -0.16772123 1.8916879
0000c0 d4 5c 1f 3f 72 df 9e bd d0 9b c1 3e b6 4b 03 3f
       0.6225102 -0.077574626 0.37814188 0.512874
0000d0 2a 33 53 3f 1e 0a df be 69 a4 c1 bf e4 2d b0 be
       0.82499945 -0.43562406 -1.5128299 -0.34410012
0000e0 41 c9 73 3f 53 cc f5 be 46 01 b8 3e 1e e2 23 bf
       0.95228964 -0.4800745 0.35938472 -0.640169
0000f0 c1 27 a6 3e bc df c9 3e 80 ec 2a 3e fe 65 63 3f
       0.32452205 0.39428508 0.1669178 0.888275

arith.constant4 f4 [64]
000000 4f 9f 8e be 04 c5 dc 3e 80 34 eb 3d 9a d7 aa 3d
       -0.27855918 0.4311906 0.11484623 0.08341904
000010 40 c6 ec 3e 93 24 06 3d 15 da e2 be 9e 13 c7 bd
       0.46245003 0.032749724 -0.44307008 -0.097205386
000020 bc ed 5b 3e d2 2c 13 3f ae 1b 4f 3e 9c 77 89 be
       0.21477407 0.57490265 0.20225403 -0.26849067
000030 fe b5 0f 3f e8 22 46 bc e0 41 44 bf ee be 8f bf
       0.56137073 -0.012093283 -0.7666302 -1.1230142
000040 df 5a c0 be 5b 8c 0b 3f f1 7e 30 3f a7 ca e1 3e
       -0.3756933 0.5451104 0.689437 0.44099924
000050 ec 78 76 3e 2a 6d f5 be 8c 2e 06 3e 87 dd 6e 3e
       0.24069566 -0.47934848 0.13103694 0.23326693
000060 5a 4f 7a 3f 83 0d 13 3d 3a f9 4b bf 50 ff 98 3d
       0.9777733 0.035901558 -0.79677165 0.07470572
000070 25 0f 75 3f 26 68 e2 3c 41 cc 80 3e ea 1f 80 bd
       0.95726234 0.027637552 0.25155833 -0.06256087
000080 7f da 4e 3f 74 97 75 3e 38 1d f1 3e a0 10 f6 3e
       0.8080215 0.23983556 0.47092605 0.4805956
000090 7b d2 2a bd 02 db 48 3f 8c 99 08 bf 1c bc d1 be
       -0.041704636 0.7845918 -0.53359294 -0.4096383
0000a0 4c 49 ad 3e f0 6e fc 3d b4 40 4d 3e c0 45 fc be
       0.33844984 0.12325847 0.20044214 -0.49271965
0000b0 f0 48 8a 3d 70 fa d2 be 38 de 3f 3f 0f 61 19 3f
       0.06752193 -0.41206694 0.74948454 0.59913725
0000c0 03 f3 1d 3f 10 c1 00 be 77 65 bc 3d 9b fe 18 3f
       0.6169893 -0.12573647 0.091990404 0.597635
0000d0 de 69 44 be 2a 22 6c bf 3a 0e ba be d2 80 0d bf
       -0.1918101 -0.9223963 -0.3633898 -0.5527469
0000e0 1f 2f 37 3e 67 90 00 3e ef 50 63 3f ea 96 9a bd
       0.17889069 0.12555085 0.8879537 -0.07548316
0000f0 59 8d e3 be a3 1c f2 be 16 a1 9a be ef a5 0f bf
       -0.44443777 -0.47287473 -0.30201024 -0.5611257

arith.constant5 f4 [64]
000000 e7 98 4e 3f 6b ff da be 76 39 42 3f be 6e 24 3f
       0.8070206 -0.42772993 0.7586893 0.6423148
000010 20 7a ce bd 34 43 68 bf a6 e0 76 3e d3 7d ed 3e
       -0.10081887 -0.90727544 0.24109134 0.4638506
000020 9f 5c 55 3f e2 f4 bb 3e 4a f8 5b 3f 2a 2a 26 3f
       0.83344454 0.36710268 0.85925734 0.6490809
000030 6c 15 0a be e5 f6 3a be a4 99 3b 3f 79 06 16 bf
       -0.13484734 -0.18258245 0.7328131 -0.58603626
000040 05 24 09 3f ee 20 7f 3c 7f 84 0b 3f f7 bc b5 3e
       0.53570586 0.015571816 0.5449905 0.3549573
000050 f2 4e 99 3d c6 79 eb be 88 10 59 3e aa 96 59 3f
       0.07485761 -0.45991343 0.21197712 0.8499552
000060 cf 3b 44 3f fc de 8e 3b 1a 52 7e 3f 14 5e a1 3e
       0.7665376 0.004360078 0.9934403 0.31517088
000070 b2 b9 c6 be 64 22 74 bf 8c e0 03 3e 3e 61 0d 3f
       -0.3881355 -0.95364976 0.12878627 0.55226505
000080 f0 05 04 bf 12 32 1e 3f c9 65 04 3f 5a b7 5d be
       -0.5157156 0.6179515 0.5171781 -0.21651974
000090 6f 7f b6 3d cc b7 5b bd be ae 50 3e db 28 58 3e
       0.08911025 -0.05364208 0.20379159 0.21109335
0000a0 4b cd 99 be 55 7f f3 3d b2 dd ac 3e 2e 21 21 bf
       -0.3003944 0.11889521 0.3376289 -0.62941253
0000b0 fc f5 d9 3e 23 19 5c 3f d9 e8 aa bc 87 3f 4f 3e
       0.42570484 0.85975856 -0.020862984 0.20239078
0000c0 fb f0 8e be b7 5c 9d 3e 76 fd 62 3d 95 61 ac bf
       -0.27918229 0.30734798 0.0554175 -1.346728
0000d0 a6 18 05 3f 9a c2 bd 3e 09 b6 a0 be 3f a0 88 3d
       0.51990736 0.37062532 -0.31388882 0.066711895
0000e0 07 07 17 bf d0 bd 1f 3e 41 8d b6 3e bd 7c 72 3d
       -0.589951 0.15599751 0.35654643 0.05920099
0000f0 2c d3 1a 3d 2e c7 c8 3e ce ff 0b bf 7c 11 60 3d
       0.037799045 0.39214462 -0.546872 0.054704174

arith.constant6 f4 [64]
000000 a8 f9 87 bb 9d 76 e1 3e 3e 1d db 3e b6 99 b5 3e
       -0.0041496344 0.44035807 0.42795748 0.35468835
000010 28 0a c5 be 7f 3e 6d be ba 43 41 be 7a 6e 97 3f
       -0.3848431 -0.23168372 -0.18873492 1.183059
000020 26 73 f1 3d 63 49 4c 3f 4c e8 31 bf 17 13 c6 3f
       0.11789541 0.7979948 -0.6949508 1.5474576
000030 4c 61 03 bd dc 15 25 3e a6 94 58 3f c7 d1 8f be
       -0.03207521 0.1612162 0.8460182 -0.28089735
000040 0f ff 21 3f 50 b2 9e be 5a 7f 20 be 97 ff 30 3f
       0.63279814 -0.30995417 -0.15673581 0.6914
000050 7a 97 bd bd 3b 1a 8d 3e fc 4b ac 3e 55 0e 8e 3f
       -0.092574075 0.27559075 0.3365172 1.1098124
000060 28 fe 47 bd 97 a6 b5 3e 50 12 14 bf e8 11 68 bf
       -0.048826367 0.3547866 -0.5784044 -0.9065232
000070 c3 e5 c5 3d eb 55 08 be 8a 8a cd 3e 89 53 8c be
       0.09662964 -0.13314025 0.4014476 -0.27407482
000080 39 ea 23 3f ae 3e 07 3f ff cb 2c 3d cc db 3c 3f
       0.6402927 0.52830017 0.042186733 0.73772883
000090 67 b0 0a 3e 5b 93 56 be 84 0f b7 be ba d8 ff be
       0.13543855 -0.20954649 -0.35754025 -0.49970037
0000a0 5e 82 39 3f 2b e8 2f bf 90 e9 e5 bb ae be 4a 3e
       0.7246455 -0.68713635 -0.007016368 0.19799301
0000b0 94 33 b4 3c 7e 03 2d bf b0 9a 97 bc d9 85 87 bf
       0.02199725 -0.67583454 -0.018506378 -1.0587722
0000c0 38 1a 61 3f 7b dc d8 be e9 31 5b 3f ae d7 b9 3e
       0.8793063 -0.42355713 0.8562303 0.36297363
0000d0 07 a5 97 be 3a a1 fd be 54 c3 5b be 82 54 eb bd
       -0.29618093 -0.4953707 -0.2146123 -0.11490728
0000e0 a1 a4 42 3f a9 8b 55 3e 56 69 19 bc ee b7 61 3e
       0.76032454 0.20854057 -0.009363493 0.2204282
0000f0 49 fc a1 3e 98 b4 64 bf 29 5b 18 3f f4 25 40 3f
       0.3163779 -0.89338064 0.595141 0.7505791

arith.constant7 f4 [64]
000000 c5 b8 72 bf 00 9c fe bb ef 35 31 bf e6 cf dc 3e
       -0.94813186 -0.0077700615 -0.6922292 0.43127364
000010 e0 1f a6 3f 31 ad 53 3e 56 5c eb be a7 82 3b bd
       1.2978477 0.20671536 -0.45968884 -0.045778897
000020 a9 1b e2 be f8 40 c9 bb c0 27 1d 3f f4 3c af bc
       -0.44161728 -0.006141778 0.6138878 -0.02139137
000030 42 14 38 be 7e 0a b2 be ca d0 e1 be ad 36 34 bf
       -0.17976478 -0.3477363 -0.44104606 -0.7039593
000040 b0 32 2f bb 36 54 01 3f 4b 4b 90 be 4e 39 19 be
       -0.0026733093 0.5051912 -0.28182444 -0.14963266
000050 1e ff 1d 3f 40 44 c1 bd bc 9d c6 be 28 09 23 3f
       0.617174 -0.09436846 -0.38792217 0.63685846
000060 9b f3 0b bf 47 24 d0 be d0 b3 87 3e 5a 28 0b 3f
       -0.5466859 -0.40652677 0.26504374 0.54358447
000070 75 03 14 3e d7 12 5c be 6c b9 58 bf bd 2d 09 bf
       0.14454444 -0.21491562 -0.8465793 -0.53585416
000080 e6 23 67 bd 36 fc 69 bd fb b2 bd bf 24 9d c9 be
       -0.05643072 -0.057125293 -1.4820246 -0.393777
000090 c0 1a 42 3e 7c 95 15 3f 1e bd 48 be 7b 14 83 3f
       0.18955517 0.5843122 -0.19603392 1.0240625
0000a0 d4 d9 7c 3e 2c 83 2f 3f a9 36 11 3f aa 69 3d bf
       0.2469247 0.6855953 0.5672403 -0.73989356
0000b0 5b c7 66 bd f3 8d 31 3f 38 75 1a 3f fe ef e7 3e
       -0.056342464 0.6935722 0.6033511 0.45300287
0000c0 dd ef bc be b1 28 10 3f b8 02 15 3b 7a 63 18 3f
       -0.3690175 0.5631209 0.0022737216 0.5952679
0000d0 e4 e9 8c bc 0b af 5f 3f 02 72 96 3e 9e 9c 42 bf
       -0.017201371 0.8737647 0.29383856 -0.7602023
0000e0 4c 6a 65 3e 5c 5b 38 bf ca 5b 45 bf fe b9 d0 be
       0.2240383 -0.72014403 -0.77093184 -0.407669
0000f0 cc 63 f0 3e 89 8e b0 3f 8a cd a5 3e cd 8a 73 3d
       0.4695114 1.3793498 0.32383376 0.059458543

arith.constant8 f4 [64]
000000 ed c9 94 3f 35 ea 0b be e9 44 68 3e 97 ea 2c 3e
       1.1624123 -0.13663562 0.22682537 0.16886364
000010 eb 02 55 3f 7c 58 8c 3f 1a 19 10 bf 51 32 46 bf
       0.8320758 1.0964503 -0.562883 -0.77420527
000020 67 21 1a 3e 5a 6c 0c 3e cc 42 9d be 97 5b 64 be
       0.15051804 0.13713208 -0.30715024 -0.22300564
000030 04 a3 01 3f b6 0f 05 3f 3e 53 cb bd fd 68 d7 3f
       0.5063937 0.519771 -0.099279866 1.6828915
000040 5c b5 30 3e 17 af 80 3d 6d 08 aa be 2b b0 04 3f
       0.17256683 0.06283396 -0.33209553 0.5183131
000050 fa 25 43 bf f8 1e 29 3e a9 f0 c1 be 25 98 8d 3f
       -0.7622982 0.1651572 -0.37878922 1.1062056
000060 5a 1e 8d 3f 7c 20 8e be 04 9e cb be 18 ae 75 be
       1.1024888 -0.2775916 -0.39768994 -0.23992193
000070 5c 7f 67 3d c4 56 5f 3e 00 15 17 3e 07 6b 20 bf
       0.056517944 0.21810442 0.14754105 -0.6266331
000080 94 4d 34 be 20 24 08 be 4b aa b9 3e 41 86 33 3f
       -0.17607719 -0.1329503 0.36262736 0.7012673
000090 f4 a5 48 be 6b 75 12 3e 20 fc 26 3f 88 e5 62 3d
       -0.19594556 0.14302604 0.6522846 0.05539468
0000a0 cd 44 0d bf 77 5f 3a be e9 bf 9c 3e 46 fc e3 3c
       -0.55183107 -0.1820048 0.30615166 0.027830254
0000b0 8c 7d ac bb 9e 67 c6 3e f3 04 54 3f da 4f 16 3f
       -0.00526399 0.3875093 0.8282005 0.58715594
0000c0 1b a8 33 3f f3 50 9d bf b1 4e e8 be bc 7b ad be
       0.70178384 -1.2290329 -0.45372537 -0.33883464
0000d0 d9 e1 0b 3f 85 bc 32 3f 1d c9 d1 be d6 39 4d 3f
       0.5464149 0.6981891 -0.4097375 0.80166376
0000e0 8a e0 38 3f eb c3 9f be 23 58 d2 3f e7 27 0b 40
       0.7221762 -0.3120416 1.6433147 2.1743104
0000f0 e0 15 54 bf c2 2f b0 bd 46 05 73 bf 7b 51 87 3d
       -0.8284588 -0.08602859 -0.9492992 0.06607338

arith.constant9 f4 [64]
000000 2f 90 90 3f b9 c1 05 bf 84 2d 8d 3f 2d 72 73 3f
       1.1294001 -0.5224872 1.1029515 0.95096093
000010 96 d7 72 3f 92 a9 28 3f e8 4c 51 bd 50 76 04 3f
       0.9486021 0.65883744 -0.051098734 0.5174303
000020 92 df 80 3e b5 5e 2a 3f 29 2f 34 3f f5 f1 3c bf
       0.2517057 0.6655076 0.7038446 -0.738067
000030 15 a1 bc 3e 27 09 a8 be 49 6c 76 3e 64 55 98 3f
       0.36841646 -0.32819483 0.24064745 1.1901059
000040 08 bb e3 3e 62 f0 31 3f 70 9d d8 3e b1 99 6f 3f
       0.4447863 0.6950742 0.42307615 0.9359389
000050 7f 9a 3c 3f 97 b7 1a 3f 68 51 58 3f f3 7e 6e 3f
       0.7367324 0.60436386 0.84499216 0.9316246
000060 21 7f 66 3d a0 04 1e 3e 99 39 63 3f 7e ee 8c 3f
       0.056273583 0.15431452 0.8875976 1.1010282
000070 6b 6b 9b 3e 36 51 c7 3e 24 bc a6 3e 0c 83 23 3f
       0.3035539 0.38929147 0.32565415 0.63871837
000080 00 ad 7d bb 7e b8 0e 3f 7f 2b 40 3f b4 fa 36 be
       -0.0038707852 0.5575026 0.7506637 -0.17869073
000090 c6 01 d6 3c 91 f5 c5 be 47 12 96 3f d4 4f d7 be
       0.026123893 -0.38663915 1.1724328 -0.42053092
0000a0 5c 79 5d 3d 67 a1 1f 3f 66 8d 0c 3f 70 28 f7 3e
       0.054070815 0.62355655 0.54903257 0.4827304
0000b0 87 d8 48 3f 7c 10 45 3f 3a bc 15 be 00 dc 0f 3d
       0.78455395 0.7697828 -0.14622584 0.035121918
0000c0 88 f5 54 3f 7b 20 5a 3f ab 1e 9d 3e 85 39 40 3f
       0.8318715 0.8520581 0.3068746 0.7508777
0000d0 6f 1b 3d 3f 7f ef f2 3d 58 08 8c 3e 9b 32 2b 3f
       0.73869985 0.118620865 0.27350116 0.6687409
0000e0 f6 f7 75 3f 98 a5 d5 bc ea c4 0b 3e bb a9 0a bf
       0.96081483 -0.026079938 0.13649336 -0.5416524
0000f0 6d 91 57 3f 1a 52 ac 3f 9f 65 59 3f de a6 6c 3e
       0.8420628 1.3462555 0.84920686 0.2311053

arith.constant10 f4 [32]
000000 20 cf b3 3f 9a 91 b2 3f 2d aa ac 3f 2e a1 02 40
       1.4047585 1.3950684 1.3489434 2.0410876
000010 04 bc 73 3f a8 6f 80 3f 5d 0d 27 40 fb a5 97 3f
       0.95208764 1.0034075 2.6101906 1.1847528
000020 66 3e 4a 3f a9 48 f5 3e 14 d6 43 3f 1c 4b c3 3f
       0.7900146 0.47906998 0.7649853 1.5257297
000030 23 88 c5 bd dc ce 61 3f a5 59 c8 3f 33 ea 25 3f
       -0.09645107 0.8820627 1.5652357 0.64810485
000040 20 77 2f 3f 77 59 ca 3f 96 1b 7d 3f 4a 44 b1 3d
       0.68541145 1.5808553 0.9887022 0.08655603
000050 53 45 22 3f 24 aa 6b 3f 86 ec 6f bd 68 02 92 be
       0.6338703 0.9205649 -0.058575176 -0.2851746
000060 25 37 9f 3f cd 4c 48 40 09 a2 87 bf a7 bb eb 3f
       1.2438704 3.1296875 -1.0596324 1.8416642
000070 34 be fe bd 30 d4 df 3f 56 c3 e0 be af 3e c2 3f
       -0.12438622 1.748663 -0.4389903 1.517538

arith.constant11 f4 [32]
000000 fe 76 54 3f 22 eb 7b 3f c0 d0 d7 bb 5b a2 b2 3f
       0.8299407 0.9840566 -0.0065861642 1.3955797
000010 fe a3 9b 3e 2a ff 23 3f 64 c9 2d 3e 4d 45 52 3f
       0.30398554 0.64061224 0.16971356 0.82136995
000020 18 ea 01 bd b4 e5 47 3e 30 68 37 bd 8d 6d 7d 3f
       -0.03171739 0.19521219 -0.044777095 0.98995286
000030 a9 ad d4 be 58 ab 9d 3e 32 dd 6f be 0b c1 48 3f
       -0.41538742 0.30794787 -0.23424223 0.7841956
000040 76 ff 94 3f 0a 05 80 3e 52 22 49 3f 30 ad 03 bf
       1.164046 0.25003844 0.78567994 -0.5143614
000050 fd 48 40 3f c0 8f 82 3f c5 51 68 3f 16 3d 36 3f
       0.7511137 1.0200119 0.9074977 0.7118696
000060 3e cd b2 be a0 dd af 3d 28 a2 0f 3e 6b 4b ff 3d
       -0.34922212 0.085871935 0.14026701 0.12465557
000070 50 10 13 3f f2 80 71 bd 70 53 f4 3d 84 74 7a bd
       0.57446766 -0.058960862 0.11929977 -0.061146274

arith.constant12 f4 [32]
000000 7a 98 af 3f b2 46 23 3e 96 b1 7b be bf 29 01 bf
       1.3718407 0.15944937 -0.24579462 -0.50454324
000010 4c 4a 9e 3f cc 4c 81 be bd 08 7b 3f a8 53 2e bd
       1.2366424 -0.25253904 0.9806021 -0.04256025
000020 6d 52 76 3f 36 50 ea 3e c2 2d 9c 3d 40 56 1f 3f
       0.9621952 0.4576432 0.07625915 0.6224098
000030 5c bd 27 3e 7a 3a b8 3e 08 22 07 3f aa 98 c6 3e
       0.16380829 0.35982114 0.527863 0.38788348
000040 73 fb 11 3f 38 e4 4b be cb 2c 22 be 6e d2 cc 3e
       0.57024306 -0.19911277 -0.158374 0.40004295
000050 fc ce 40 3e 96 0f 27 3e da 56 44 bf 52 eb 38 3f
       0.18828958 0.1631454 -0.76695025 0.7223407
000060 37 03 c9 3e ec c7 85 3e 3a 9b 2a 3f 7a c1 67 3f
       0.39260265 0.2612909 0.66643107 0.90529597
000070 08 05 d4 bd 1c 49 04 3f 10 dd 93 3e 5d 70 c4 3f
       -0.10352522 0.51674056 0.28879595 1.534679

arith.constant13 f4 [32]
000000 9c b3 a8 bd 40 6c 0a 3e 2f f4 9e 3e ac fb ad bd
       -0.08237383 0.13517857 0.31045672 -0.08495268
000010 53 26 b1 bd ce ed 25 be 9f 30 8e 3d c0 b1 0b be
       -0.08649888 -0.16203997 0.069428675 -0.13642025
000020 21 74 a9 3e 78 3c 8b bd 09 59 11 3f 0e 21 89 be
       0.33096412 -0.06798643 0.5677648 -0.2678303
000030 0e 6e e9 3e b0 ac 94 bc 8f 4a 21 3e 87 7a a2 3d
       0.45591778 -0.01814875 0.15751098 0.079335265
000040 20 88 47 be 99 4d c6 3e f6 df 84 3d 8e e8 7d 3e
       -0.19485521 0.38731077 0.0648803 0.24795744
000050 6c 2e 66 bd 54 9c 7b bd f0 09 52 3e 10 d4 6a 3e
       -0.056196615 -0.061428383 0.20511603 0.22932458
000060 20 a2 94 3e ca f1 aa 3f c0 c4 99 3b cc da 40 3e
       0.29029942 1.3355038 0.004692644 0.18833464
000070 06 ed 06 3e 79 2f 10 be bc d6 7c be b8 54 24 be
       0.13176355 -0.1408061 -0.2469129 -0.16047943

arith.constant14 f4 [32]
000000 80 44 66 ba 9e 15 b7 bc dc cf 96 be 22 9b 14 be
       -0.0008784011 -0.022349175 -0.2945546 -0.14512303
000010 d6 b6 98 3c 78 c2 1b be 4a 2f 1f be 9a b0 8a 3e
       0.01864187 -0.15210903 -0.15545383 0.2708786
000020 c7 63 21 be 43 d3 13 3e b1 0c a7 be d7 59 23 3f
       -0.15760718 0.14436059 -0.3262687 0.6380896
000030 24 4a 21 be 56 ab bb bd 5c b6 32 be ae 0e 89 3e
       -0.15750939 -0.09163539 -0.17452377 0.26769012
000040 d9 06 13 3f 0c 49 12 be 32 9c 9f 3e 29 a8 30 be
       0.57432324 -0.14285678 0.31173855 -0.17251648
000050 3e 21 d6 be f0 aa a9 be d8 4b c0 be 96 84 a2 be
       -0.41822237 -0.33138227 -0.37557864 -0.3174178
000060 d3 08 1c 3f 5c db 09 be 69 7e 19 3e 6a 28 23 be
       0.60950965 -0.13462585 0.14989628 -0.15933385
000070 5d f6 23 be 72 b8 d1 3d 3c 78 e9 3d e8 ae 8b 3c
       -0.16011949 0.10240258 0.11399886 0.017051175

arith.constant15 f4 [32]
000000 7a 09 51 3f e4 0b 89 3d 71 c8 ac 3e 70 38 bb 3d
       0.81655085 0.06691721 0.33746675 0.09141624
000010 33 09 21 bf a7 89 f5 3e a8 bb c4 3d b8 f0 96 bd
       -0.6290466 0.47956583 0.09606105 -0.07370132
000020 d9 16 de 3e 91 67 08 3e 33 5d 98 3f a0 15 95 3f
       0.43376806 0.13320757 1.1903442 1.1647224
000030 95 6d 08 bf c5 01 0c bf 56 1e 06 3e f8 61 10 3f
       -0.5329221 -0.546902 0.1309751 0.5639949
000040 18 c1 3f 3f d9 0c dc 3e c8 6f 94 bd 2c 5b e8 bd
       0.7490401 0.42978552 -0.07247883 -0.11345515
000050 07 ec d0 3d ae 18 d4 3f 7c 2b 67 3f d6 cd 43 3f
       0.10201269 1.6570032 0.90300727 0.76485956
000060 54 64 86 3f 84 84 f9 3d 64 47 9f 3e a9 15 ba 3e
       1.0499368 0.121834785 0.31109154 0.3634465
000070 da c7 9c 3e 9f 81 f2 be 30 2d 74 be 8e 8c 33 3f
       0.30621225 -0.47364518 -0.23845363 0.70136344

arith.constant16 f4 [16]
000000 2f e4 24 3f ce a7 22 bf f0 fb 0e 3d 52 90 83 3e
       0.6441068 -0.635373 0.034908235 0.25696045
000010 7c cb 62 bf 7d 23 da bf 9a de 36 3e e8 34 b9 3d
       -0.8859174 -1.704208 0.17858353 0.09043294
000020 97 3e 5d 3f 6a b2 17 3e 4d dd c6 40 bc 50 b6 3e
       0.8642363 0.14814153 6.2145143 0.3560847
000030 48 9c 25 3e 66 bf 56 be 9d a6 d9 3f de 55 02 3d
       0.16172898 -0.2097145 1.7003971 0.03182017

arith.constant17 f4 [16]
000000 0e 56 22 bf 38 c1 3b 3c a0 e5 17 3d 92 ec 72 3e
       -0.6341256 0.011459641 0.03708422 0.23723057
000010 c7 14 4f 3e bd 54 82 3f 98 c7 57 bd d0 94 d4 3c
       0.2022277 1.018211 -0.05268058 0.025949866
000020 50 74 db 3c e8 95 4b bd 00 b8 9d 3f 50 64 17 3d
       0.02678886 -0.04970351 1.2321777 0.0369609
000030 f0 3b 02 3d a0 af e4 bc 54 12 f1 3e 9d 05 96 be
       0.031795442 -0.027915776 0.47084296 -0.29301158

arith.constant18 f4 [16]
000000 06 d7 e8 3e 98 fc ff 3d 38 5c 49 bd 7e 04 33 3f
       0.4547655 0.1249935 -0.049160212 0.6992873
000010 19 25 63 3e fe 20 42 be 4c d2 eb bf 09 7c 89 3d
       0.2218212 -0.18957898 -1.8423553 0.06713111
000020 31 b7 6d bf b3 e7 ba bf b0 f0 27 3f c2 62 14 bf
       -0.9285765 -1.4601959 0.65601635 -0.5796319
000030 29 61 cb bf 1c f9 14 3f 80 d6 02 3f a6 c5 ec 3e
       -1.5889026 0.5819261 0.5110855 0.46244544

arith.constant19 f4 [8]
000000 00 5f 8f ba 5c 86 ed bf d6 f3 7f 3f e0 e0 3e 3c
       -0.0010938346 -1.8556628 0.9998144 0.011650294
000010 15 8a 1f 40 59 51 63 bd 78 e9 a4 bd a8 d4 78 bf
       2.4928029 -0.0554975 -0.08052343 -0.9719949

arith.constant20 f4 [8]
000000 28 d4 ef bf f4 2f 01 40 67 a4 f3 bf 2a 5b 10 c0
       -1.873662 2.0185518 -1.9034547 -2.2555642
000010 dc 1d 42 40 c0 d3 0d 3c 50 5d 15 bf cf 44 91 3e
       3.0330725 0.008656442 -0.5834551 0.2837281

arith.constant21 f4 [4]
000000 45 a4 10 bf 50 ab 53 3d f7 81 7a 40 a4 52 c6 be
       -0.56500655 0.05167705 3.9141824 -0.38734925

arith.constant22 f4 [4]
000000 fe 61 d3 3e f2 d1 77 bf 9c 49 5f 40 26 f0 e1 3f
       0.412857 -0.96804726 3.4888678 1.7651412

arith.constant23 f4 [18]
000000 00 80 2c 3d 00 00 82 3c 00 e0 d3 3f 00 c0 ae 3f
       0.042114258 0.01586914 1.6552734 1.3652344
000010 00 e0 8c c0 00 80 2e 41 00 80 29 3d 00 60 7d 3c
       -4.4023438 10.90625 0.041381836 0.015464783
000020 00 20 93 3f 00 c0 0f 3f 00 80 8c c0 00 a0 31 41
       1.1494141 0.56152344 -4.390625 11.1015625
000030 00 c0 2c 3d 00 00 4c 3c 00 c0 67 3f 00 00 53 3f
       0.042175293 0.012451172 0.90527344 0.82421875
000040 00 e0 92 c0 00 e0 2e 41
       -4.5898438 10.9296875

arith.constant24 f4 [18]
000000 00 a0 62 3e 00 80 7b be 00 a0 5c 40 00 80 41 40
       0.22131348 -0.24560547 3.4472656 3.0234375
000010 00 60 85 c0 00 c0 2e 41 00 e0 6c 3e 00 00 7a bd
       -4.1679688 10.921875 0.23132324 -0.061035156
000020 00 e0 43 40 00 a0 3d 40 00 e0 86 c0 00 80 30 41
       3.0605469 2.9628906 -4.2148438 11.03125
000030 00 40 c1 3e 00 c0 ac be 00 60 2c 40 00 20 e9 3f
       0.3774414 -0.33740234 2.6933594 1.8212891
000040 00 60 86 c0 00 a0 2e 41
       -4.1992188 10.9140625

arith.constant25 f4 [18]
000000 00 00 64 be 00 20 d9 3d 00 40 11 40 00 a0 9a 3f
       -0.22265625 0.10601807 2.2695312 1.2080078
000010 00 60 b0 c0 00 60 32 41 00 60 63 be 00 00 71 3d
       -5.5117188 11.1484375 -0.2220459 0.05883789
000020 00 e0 17 3f 00 00 5a 3e 00 c0 9f c0 00 a0 30 41
       0.5932617 0.21289062 -4.9921875 11.0390625
000030 00 e0 6c be 00 40 72 3d 00 40 1d 3e 00 c0 b2 bd
       -0.23132324 0.059143066 0.15356445 -0.08728027
000040 00 00 a0 c0 00 60 30 41
       -5.0 11.0234375

arith.constant26 f4 [18, 1, 1, 64]
000000 00 40 64 3c 00 20 dc ba 00 a0 2b 3d 00 20 a4 be
       0.013931274 -0.0016794205 0.041900635 -0.32055664
000010 00 e0 6c bc 00 e0 91 3e 00 40 ad bd 00 60 9b bd
       -0.014457703 0.2849121 -0.08459473 -0.0758667
000020 00 40 52 bb 00 20 ab 3d 00 40 84 3c 00 e0 3d 3e
       -0.0032081604 0.08355713 0.016143799 0.1854248
000030 00 c0 d0 bb 00 40 2c be 00 80 be 3c 00 a0 87 3d
       -0.0063705444 -0.16821289 0.023254395 0.066223145
000040 00 00 05 be 00 e0 74 3d 00 60 07 3d 00 80 cf 3d
       -0.12988281 0.059783936 0.033050537 0.10131836
000050 00 a0 d4 3a 00 60 69 bd 00 80 80 3e 00 e0 ef 3d
       0.0016222 -0.05697632 0.25097656 0.117126465
000060 00 00 1c bd 00 20 a1 be 00 a0 07 bd 00 40 39 3e
       -0.038085938 -0.31469727 -0.033111572 0.1809082
000070 00 40 24 be 00 a0 d6 bc 00 c0 84 3c 00 40 88 be
       -0.16040039 -0.02619934 0.016204834 -0.26611328
000080 00 20 18 3d 00 40 ab 3e 00 20 0b 3c 00 60 33 bd
       0.037139893 0.33447266 0.008491516 -0.043792725
000090 00 e0 9a 3d 00 e0 e8 bd 00 60 8f 3d 00 20 45 3d
       0.07562256 -0.113708496 0.070007324 0.04812622
0000a0 00 00 8a 3c 00 c0 e5 3d 00 c0 38 be 00 c0 d4 bc
       0.016845703 0.11218262 -0.18041992 -0.025970459
0000b0 00 c0 f6 3d 00 00 68 ba 00 00 a8 3a 00 60 07 3d
       0.1204834 -0.00088500977 0.0012817383 0.033050537
0000c0 00 80 b3 bc 00 80 33 3d 00 20 96 bb 00 00 0e 3d
       -0.021911621 0.043823242 -0.0045814514 0.03466797
0000d0 00 c0 f8 3d 00 e0 1e bb 00 40 0d 3d 00 40 0c bc
       0.12145996 -0.00242424 0.034484863 -0.008560181
0000e0 00 80 5b bd 00 c0 43 bc 00 e0 96 3d 00 20 06 3d
       -0.053588867 -0.011947632 0.07366943 0.03274536
0000f0 00 80 fc 3c 00 00 14 be 00 60 42 bc 00 00 91 bc
       0.030822754 -0.14453125 -0.0118637085 -0.017700195
000100 00 60 e6 3d 00 c0 bb 3c 00 80 a9 bc 00 c0 9c 3c
       0.11248779 0.022918701 -0.020690918 0.019134521
000110 00 00 78 3a 00 c0 31 3c 00 80 b0 3d 00 c0 96 be
       0.0009460449 0.010848999 0.08618164 -0.2944336
000120 00 80 bc bc 00 00 39 3e 00 20 4a bd 00 40 a6 bd
       -0.023010254 0.18066406 -0.049346924 -0.08117676
000130 00 80 89 be 00 60 35 bc 00 c0 59 bc 00 40 ef bc
       -0.2685547 -0.011070251 -0.013290405 -0.029205322
000140 00 c0 7b 3d 00 40 46 3e 00 00 06 bd 00 60 ce 3c
       0.061462402 0.19360352 -0.032714844 0.02519226
000150 00 40 ab 3c 00 c0 7f 3c 00 00 9d bc 00 c0 27 3d
       0.020904541 0.015609741 -0.019165039 0.04095459
000160 00 40 b9 bd 00 c0 11 bc 00 a0 4e 3e 00 40 b4 bd
       -0.0904541 -0.008895874 0.20178223 -0.088012695
000170 00 40 f6 bc 00 40 8b 3b 00 a0 48 be 00 40 8c bc
       -0.030059814 0.0042495728 -0.19592285 -0.017120361
000180 00 20 53 bd 00 e0 02 bd 00 60 2d bc 00 20 bb 3e
       -0.05154419 -0.031951904 -0.01058197 0.36547852
000190 00 20 0b bc 00 c0 2c bd 00 c0 7b bd 00 60 88 3e
       -0.008491516 -0.042175293 -0.061462402 0.26635742
0001a0 00 80 43 3e 00 80 3f 3c 00 60 19 3e 00 40 51 bb
       0.19091797 0.011688232 0.14978027 -0.0031929016
0001b0 00 00 73 bb 00 80 41 bd 00 80 1e be 00 20 22 3e
       -0.0037078857 -0.04724121 -0.15478516 0.1583252
0001c0 00 60 3e 3c 00 a0 af 3b 00 c0 a4 be 00 60 eb 3c
       0.011619568 0.0053596497 -0.32177734 0.0287323
0001d0 00 c0 a4 3d 00 60 45 3c 00 c0 93 3d 00 80 1d bc
       0.080444336 0.012046814 0.072143555 -0.009613037
0001e0 00 c0 47 3e 00 40 a8 bc 00 a0 38 be 00 80 23 be
       0.19506836 -0.02053833 -0.18029785 -0.15966797
0001f0 00 c0 61 be 00 40 e2 bc 00 20 c6 3c 00 c0 14 be
       -0.22045898 -0.027618408 0.02418518 -0.14526367
000200 00 a0 ac bd 00 a0 15 be 00 80 c0 be 00 40 03 bd
       -0.08428955 -0.14611816 -0.37597656 -0.032043457
000210 00 a0 5f 3d 00 00 d2 bb 00 40 7e be 00 00 8f bd
       0.054595947 -0.0064086914 -0.24829102 -0.06982422
000220 00 60 ed 3c 00 80 ab 3d 00 a0 43 be 00 e0 41 be
       0.02897644 0.083740234 -0.19104004 -0.18933105
000230 00 c0 62 3d 00 00 08 3e 00 e0 14 be 00 e0 0e 3e
       0.055358887 0.1328125 -0.14538574 0.13952637
000240 00 00 50 3e 00 c0 81 bd 00 40 a7 bd 00 e0 20 be
       0.203125 -0.06335449 -0.08166504 -0.15710449
000250 00 00 ce 3d 00 a0 1d be 00 40 35 3d 00 80 a5 bb
       0.10058594 -0.15393066 0.04425049 -0.005050659
000260 00 00 9f bc 00 60 6a 3c 00 40 0f 3c 00 a0 29 3e
       -0.01940918 0.014305115 0.008743286 0.16564941
000270 00 60 8d be 00 60 a4 3c 00 c0 6b 3d 00 c0 5e bd
       -0.27612305 0.020065308 0.057556152 -0.054382324
000280 00 80 15 be 00 20 92 bd 00 20 59 3d 00 a0 cc 3b
       -0.1459961 -0.0713501 0.053009033 0.0062446594
000290 00 60 87 be 00 e0 49 be 00 80 5c be 00 80 b5 3d
       -0.2644043 -0.19714355 -0.21533203 0.08862305
0002a0 00 e0 2c bd 00 c0 0c bf 00 a0 c7 be 00 00 0b 3d
       -0.04220581 -0.5498047 -0.38989258 0.033935547
0002b0 00 80 76 3e 00 e0 8d 3d 00 80 1f 3c 00 60 5e 3d
       0.24072266 0.0692749 0.009735107 0.05429077
0002c0 00 60 ee bd 00 e0 e5 bd 00 60 ae 3c 00 00 a5 bd
       -0.11639404 -0.11224365 0.02128601 -0.080566406
0002d0 00 20 2b be 00 20 ea bd 00 40 3d be 00 c0 73 be
       -0.16711426 -0.11431885 -0.18481445 -0.23803711
0002e0 00 00 9b bc 00 20 48 be 00 c0 96 bd 00 20 9e 3b
       -0.018920898 -0.19543457 -0.0736084 0.004825592
0002f0 00 e0 9f bd 00 60 da be 00 60 bd 3c 00 40 02 3d
       -0.078063965 -0.42651367 0.023117065 0.031799316
000300 00 c0 84 3e 00 c0 3f be 00 c0 22 bc 00 20 07 bd
       0.25927734 -0.18725586 -0.009933472 -0.032989502
000310 00 40 4d be 00 40 bc 3d 00 20 8b 3d 00 c0 33 be
       -0.20043945 0.091918945 0.06793213 -0.17553711
000320 00 20 62 be 00 c0 66 bc 00 00 17 be 00 c0 9d bb
       -0.2208252 -0.014083862 -0.14746094 -0.004814148
000330 00 60 ba 3d 00 a0 fd 3a 00 e0 7c bd 00 20 12 be
       0.09100342 0.0019350052 -0.06173706 -0.1427002
000340 00 20 f0 bc 00 20 06 bd 00 40 5b be 00 00 fe bc
       -0.029312134 -0.03274536 -0.21411133 -0.03100586
000350 00 c0 db 3d 00 a0 b2 bd 00 60 19 3d 00 20 04 3d
       0.107299805 -0.08721924 0.03744507 0.03225708
000360 00 c0 3a 3e 00 00 c5 3d 00 60 0c be 00 c0 94 3b
       0.18237305 0.096191406 -0.13708496 0.0045394897
000370 00 c0 e2 bc 00 60 11 be 00 a0 c2 bd 00 60 61 bd
       -0.027679443 -0.14196777 -0.09503174 -0.055023193
000380 00 a0 f2 be 00 c0 12 bc 00 80 42 be 00 00 ac bd
       -0.47387695 -0.008956909 -0.1899414 -0.083984375
000390 00 80 13 3e 00 40 36 bd 00 40 14 be 00 c0 12 3e
       0.14404297 -0.04449463 -0.14477539 0.14331055
0003a0 00 80 a9 bd 00 20 17 3d 00 c0 a4 bd 00 a0 3b be
       -0.08276367 0.036895752 -0.080444336 -0.18322754
0003b0 00 20 14 bd 00 80 7a be 00 e0 99 3d 00 80 23 bd
       -0.03616333 -0.2446289 0.07513428 -0.039916992
0003c0 00 60 00 bd 00 80 88 be 00 20 1e bc 00 a0 ed bd
       -0.031341553 -0.26660156 -0.009651184 -0.11602783
0003d0 00 40 2c bc 00 20 82 3d 00 00 ae bd 00 c0 94 bd
       -0.010513306 0.0635376 -0.08496094 -0.072631836
0003e0 00 60 80 bd 00 20 02 be 00 c0 92 3d 00 60 56 bd
       -0.062683105 -0.1270752 0.07165527 -0.052337646
0003f0 00 80 9e bd 00 20 7f bd 00 40 33 3e 00 e0 30 bd
       -0.07739258 -0.062286377 0.17504883 -0.043182373

arith.constant27 f4 [64, 1, 1, 64]
000000 8b ed 68 bd 98 5e 6c be e7 7c 9d bd 2b 8a 14 be
       -0.056867164 -0.2308296 -0.07689839 -0.14505832
000010 1e 19 91 3b 00 10 c7 be 93 d8 84 3c c8 12 0c 3e
       0.004428043 -0.38879395 0.016216552 0.1367904
000020 27 02 8a be e9 a2 3b be d7 d0 49 be af 2e e2 3b
       -0.26954767 -0.18323864 -0.19708572 0.006902538
000030 0f 0a d3 3c b7 b6 13 be 6b 36 1d 3a 3c 0d a9 bc
       0.025761632 -0.14425169 0.00059971836 -0.020636193
000040 d9 93 fd 3d 1a f2 cd bd cc 22 fa 3d 42 f7 1f 3e
       0.12381715 -0.10055943 0.12213668 0.15621665
000050 8e da 80 3d 26 29 26 be 92 ec 11 bd 0c 47 9f bd
       0.06291686 -0.16226634 -0.035626 -0.07777223
000060 8b 50 53 be 0f bc 1a 3e aa 45 90 3b 6b 36 9d 3d
       -0.20636193 0.15110801 0.004402836 0.07676395
000070 ea 54 03 be df e2 01 be 2e 87 73 bc d6 96 9e ba
       -0.12825361 -0.126842 -0.014863772 -0.0012099396
000080 81 8e 76 3e 09 d2 23 bd 97 72 f9 3b 65 23 67 bc
       0.24077798 -0.039995227 0.007612537 -0.01410756
000090 8e c5 ce bd 09 ab 07 be b2 b8 8f bd 34 d4 d4 bd
       -0.10096274 -0.13248838 -0.0701765 -0.10392037
0000a0 2b 8a 14 be ec 17 b7 bb 5f 4e 22 bd 8b 65 85 be
       -0.14505832 -0.0055875685 -0.03962552 -0.26054034
0000b0 7f 2e 2d be 11 a8 0d bd 76 81 02 be 31 74 0b 3d
       -0.16912268 -0.03458411 -0.12744698 0.034046356
0000c0 18 cc af 3d a7 d0 14 3e 31 5f 59 bd d8 82 91 3e
       0.0858385 0.1453272 -0.053069297 0.28420138
0000d0 81 8e f6 bd f8 d6 f2 bb 8f 4e 57 bd 2d 13 9d 3d
       -0.12038899 -0.00741088 -0.052565154 0.07669673
0000e0 fe 86 3e be 62 ae eb bd 3a 21 36 3e 56 29 db 3c
       -0.18606183 -0.1150787 0.17786112 0.026753109
0000f0 c1 b2 1b be 7c 56 c7 ba 88 2a 35 bd 02 4b 17 3c
       -0.15204908 -0.001520827 -0.044230014 0.009234192
000100 17 e4 ae 3c 57 81 f0 3d ff 62 d1 3b 77 b9 5c be
       0.021348996 0.117434196 0.006389975 -0.21555124
000110 a7 3f ed 3c c4 09 f3 bd 44 58 8a bd 6f 02 ce bd
       0.028961016 -0.11867097 -0.067551166 -0.10059058
000120 14 76 c8 bd dc 6f 9c 3e 62 54 3e bd c2 2e 31 3d
       -0.097881466 0.30554092 -0.046467192 0.043257482
000130 49 4a 46 bb 88 ba 1e be 54 18 cf bd 6d d0 1f bd
       -0.003025668 -0.15500844 -0.10112062 -0.03901713
000140 0b 6d 92 bd f5 79 14 3d b1 db c7 bd 23 3b 52 be
       -0.071497045 0.03624912 -0.097587 -0.20530371
000150 bd 32 6b 3d 09 51 53 be 29 69 c6 bc 3e ce 64 3d
       0.057421435 -0.20636381 -0.024220066 0.05586075
000160 e6 06 b2 be de f8 36 be 94 11 c2 3c b3 f7 06 be
       -0.34770888 -0.17868373 0.023690023 -0.13180427
000170 f7 ab c2 3d 1a a9 81 bd a6 0d 3f be 4e 98 b3 3d
       0.09505456 -0.06331082 -0.1865755 0.08769284
000180 ef f4 b3 b9 8b 23 c0 3d 70 8b e8 bd 0f 7f 47 3c
       -0.0003432403 0.09381779 -0.113547206 0.012176289
000190 cd a5 4d 3b 72 6b 6f 3d 23 97 03 3e 76 be a1 bd
       0.0031379343 0.058452077 0.12850623 -0.07897656
0001a0 c0 a5 16 bd 89 95 e0 3d 36 1c 1b bd 31 20 55 3d
       -0.036779165 0.109660216 -0.0378687 0.052032653
0001b0 5f 8f eb 3d c3 b7 cb bd 67 f4 52 be 15 b2 80 bc
       0.11501955 -0.09947159 -0.20601045 -0.015709916
0001c0 a1 6d 2a be 3f 0a 9d bd 33 5c 0d 3d cf d7 7b 3d
       -0.16643383 -0.0766797 0.034511756 0.061485108
0001d0 cd a5 cd bd 94 68 2e bd fd 30 23 3c e6 01 6d 3d
       -0.100413896 -0.042580202 0.00996041 0.05786314
0001e0 9c cd 95 3d ac 36 6e be dc c6 88 bb 3c 4a 0f bd
       0.073146075 -0.23263043 -0.0041740965 -0.034982905
0001f0 8f c8 99 bd 46 38 91 bd 64 34 45 bc 67 f9 97 3d
       -0.07508957 -0.070908114 -0.012036417 0.074206166
000200 f3 7c ee 3c dc d9 e1 bd 11 6f 43 3c b7 31 6e be
       0.029112315 -0.110278815 0.011928336 -0.23261152
000210 e6 dd cd bd b4 63 d6 3d f7 64 f5 bc e1 41 1e 3c
       -0.100520894 0.104682356 -0.02995537 0.009659261
000220 f2 2e 0c be 11 6f 43 3c 16 4a 88 bd d2 ef 64 3c
       -0.13689783 0.011928336 -0.06654756 0.013973193
000230 a3 76 68 bd 09 39 ef 3d 50 bb be 3b bd 59 85 bc
       -0.056753766 0.116808005 0.0058206692 -0.016278142
000240 c6 b6 8a 3c 5c a6 36 bc 20 8e 19 bd 21 a8 88 3d
       0.016932856 -0.011148062 -0.037489057 0.06672693
000250 e8 5d 83 bc 77 31 4a be de da 5c 3d 99 3e 09 3b
       -0.016035989 -0.19745432 0.053919666 0.0020941852
000260 a6 dd 29 bd 11 3c e0 bd 03 b6 33 bd 60 f4 83 3d
       -0.041471146 -0.10948957 -0.04387475 0.06443095
000270 fb 7f df bd 3a 65 04 be 91 d5 d1 bc 61 75 c9 bb
       -0.10913082 -0.1292924 -0.025614532 -0.006148026
000280 54 70 e2 bc a9 de 24 3d a2 5c f9 bc bb b2 9e bc
       -0.027641453 0.040251408 -0.030439679 -0.019372335
000290 37 cb df bc 7b 4c 34 3d b6 e3 8b 3d 3b 4c 10 3e
       -0.02731858 0.04401825 0.06830542 0.1409158
0002a0 89 05 c4 bc 39 18 b2 bb 3c d9 07 bd e5 90 fb 3d
       -0.02392842 -0.0054350165 -0.033166155 0.12283496
0002b0 82 68 19 be 8c d3 db bc 60 8e bd bd a6 aa c6 bd
       -0.14981273 -0.026834272 -0.092556715 -0.09700517
0002c0 a4 dc ae 3c 17 31 94 3a 22 29 ce bd d3 55 ab bc
       0.021345444 0.0011306134 -0.10066439 -0.020914948
0002d0 ae e0 1a be 13 49 8d 3d 07 6b 57 3c 92 89 7a be
       -0.15124771 0.068987034 0.013148076 -0.24466541
0002e0 a1 a8 50 3c 47 04 25 be 3b 19 ad 3d 53 ef 1c 3d
       0.012735517 -0.16114913 0.08452078 0.038314175
0002f0 ea 2b 9b bd ce 13 90 bc 21 75 a5 bc c6 43 02 bd
       -0.07576735 -0.017587569 -0.020197453 -0.031802915
000300 e0 59 c1 bd 06 22 3f be 25 bd f4 3c 59 49 9a 3d
       -0.094409704 -0.18665323 0.029875347 0.07533521
000310 56 a4 d8 3d c2 56 5c be ed 79 5b bd 22 ea f9 3b
       0.105782196 -0.2151747 -0.053583074 0.0076267878
000320 53 1c d2 3d 61 77 16 be 80 c6 23 3d 2a cc cd 3c
       0.10259309 -0.14693977 0.039984226 0.025121767
000330 a7 44 61 bd bd 18 96 bd 48 cf b2 3d 3d 19 b0 3c
       -0.054997113 -0.07328937 0.08730942 0.02149641
000340 19 bb 49 be 46 48 60 bc f2 6b 79 bd a5 71 66 bc
       -0.19700278 -0.013689106 -0.06089396 -0.014065181
000350 d4 ee 32 bd 25 da 2f bd 04 b8 a7 3d ac 07 92 bd
       -0.043684795 -0.04293265 0.08189395 -0.071303695
000360 0d 4f 07 be e0 f0 5d bd 80 2f 07 bd 59 2c df bc
       -0.13213749 -0.054184794 -0.033004284 -0.027242826
000370 90 6e c4 3c 38 56 7f 3e e6 1d a6 be 9b d9 d2 bd
       0.023978502 0.24935234 -0.32444686 -0.10295411
000380 74 a7 bd bd 4a 85 72 bd 5a fe a5 3d 37 ec e7 bd
       -0.09260455 -0.059209146 0.08105154 -0.11324351
000390 a6 43 2d 3b 32 17 85 bd 1e 15 17 be 78 e4 4f be
       0.0026438027 -0.06498565 -0.1475415 -0.20301998
0003a0 60 59 27 bd 45 47 ac bc fb 1f 94 bc a3 07 4f be
       -0.04085672 -0.021030078 -0.018081656 -0.20217757
0003b0 a3 07 cf bd 6d e2 a4 bd 0a 5f 51 bd 5f f0 43 bd
       -0.101088785 -0.08051 -0.051116027 -0.047836658
0003c0 d1 fd 48 bd 70 1e 83 bd 9d ab 99 3c 17 9c 26 be
       -0.049070183 -0.0640229 0.01875859 -0.16270481
0003d0 4e 2a 34 be 20 17 ff bc 12 f6 30 3d e1 5a 75 bd
       -0.17594263 -0.031138957 0.04320342 -0.059901122
0003e0 b8 55 65 bc 90 6e 44 be a0 7f 48 bd 4e 2a 34 bd
       -0.013997488 -0.19182801 -0.048949838 -0.043985657
0003f0 53 d1 dd 3e 32 17 85 bd 81 7b af 3d 29 cb 19 3e
       0.43323764 -0.06498565 0.085684784 0.15018906

arith.constant28 f4 [1, 3, 3, 64]
000000 1d a0 77 3b 36 9b b6 3c 9a 31 3c bf 79 27 04 bc
       0.0037784644 0.022290807 -0.73513186 -0.008066052
000010 6c 94 1a bb f1 a0 d4 bc 5a e6 1a be 33 65 c4 bc
       -0.0023587001 -0.02595565 -0.15126935 -0.023974037
000020 fc 1d 4c be 4c db 56 bc 8c d1 96 ba c1 93 12 bf
       -0.19933313 -0.013113808 -0.0011506542 -0.57256705
000030 ef cf 87 3d 4f 6a 16 3b 71 76 6a 3c 2a d3 ba ba
       0.06631457 0.0022951548 0.014310465 -0.0014253606
000040 4a a6 48 3c 56 86 1d be 1d 37 6d bd cb 80 1c bc
       0.012246678 -0.15383276 -0.05791389 -0.009552191
000050 8b 4b 47 3e a3 08 16 3e 9f 26 09 bf d9 94 ff bb
       0.19462411 0.14651732 -0.53574556 -0.0077997264
000060 d1 25 74 ba fa 28 99 bc 5f 2e 99 3d 51 dc 2d bd
       -0.00093134964 -0.018696297 0.07479548 -0.04244644
000070 f2 1c 27 3c 36 04 10 bc ed ed d5 bb 4b 32 9f ba
       0.010199772 -0.0087900665 -0.006528607 -0.0012145726
000080 46 3b 6f bb 08 4b 19 bd 7a 46 69 bc b5 f4 95 ba
       -0.0036503836 -0.03742507 -0.014237994 -0.0011440726
000090 cd c1 0c 3d b7 20 1e 3c 39 ba 63 bc d3 8f 96 3c
       0.03436451 0.0096513545 -0.013899379 0.018379128
0000a0 f4 99 1d 3d 68 0c 5c 3c c5 da e8 3e 1f 19 6a 3c
       0.0384769 0.013430692 0.45479408 0.014288216
0000b0 74 3c 58 3c 22 9a 00 bd 08 bd 95 3a fa 51 0f bd
       0.013198007 -0.031396993 0.0011424134 -0.03499029
0000c0 5b 0c 72 3d 8d 39 0b 3c 80 fb 27 bf cd f1 4a 3c
       0.059093814 0.008497608 -0.65618134 0.012386751
0000d0 df 29 07 bd a6 d9 66 3d 81 4a e6 3e a3 18 aa 3c
       -0.032998916 0.05635991 0.44978717 0.0207637
0000e0 ad ed 57 3b 21 db 80 bb 43 c3 fd bb 6e e8 fd bd
       0.0032948062 -0.003932372 -0.0077442243 -0.12397848
0000f0 38 bb 2a bd d3 72 fc 3a 23 f2 b9 3d 0c c0 eb bc
       -0.041682452 0.0019260295 0.09079387 -0.028778099
000100 bf 1f 31 3e f7 16 2c 3c e2 5b 8e bf 51 81 96 3b
       0.17297266 0.010503522 -1.112179 0.0045930524
000110 24 b1 fd be 9a 36 50 3c e7 6b d6 be 20 97 11 3d
       -0.4954921 0.0127083305 -0.41879198 0.035544515
000120 32 e1 03 3e 84 87 1e 3d 16 b4 ff bc ad 5c 28 3f
       0.12878874 0.038703457 -0.031213801 0.6576641
000130 da c1 6d 3f be 74 ce 3c 09 54 d1 bc 3c 6b c9 be
       0.9287392 0.025202151 -0.025552766 -0.39339626
000140 d7 ab 10 3c ff b8 b3 be 15 0d 98 3e f0 43 36 bb
       0.008830032 -0.35102078 0.2969748 -0.002781149
000150 46 d1 53 3d fe bd 1e 3e a8 6a 16 bf af 1c 6a bc
       0.05171325 0.15502164 -0.58756495 -0.014289065
000160 7a b3 a7 3d 66 f8 20 bb a4 b8 a8 3e e9 8b 35 3e
       0.08188529 -0.002456212 0.3295337 0.17729153
000170 88 f1 72 bd 62 51 03 3d 78 4d d8 bc 3b 81 85 3e
       -0.059312373 0.032060035 -0.026404127 0.26075158
000180 be b7 ab ba bc f8 d5 be 74 3c 81 bc ae 31 58 bc
       -0.0013101024 -0.41791332 -0.015775897 -0.013195438
000190 65 d7 ad 3d d4 8f 6a 3d 19 d3 1b 3f ae b8 df bb
       0.08488349 0.05726607 0.60868984 -0.0068274355
0001a0 07 3d 80 bd ce fe a6 3c a4 f9 c9 bf a3 1b 80 3c
       -0.0626164 0.020385172 -1.5779309 0.015638178
0001b0 86 bd e4 3c c7 d9 57 bd 39 25 0e bc 65 de c0 be
       0.027922403 -0.052697923 -0.008675867 -0.37669674
0001c0 83 bd 48 3f 86 15 c6 bc 2a 79 50 bb 48 1d 80 bc
       0.7841417 -0.024180185 -0.00318105 -0.015638962
0001d0 fc b1 2d bd 6e e1 0e 3e 15 08 1c bf a9 16 94 3d
       -0.042406067 0.13953182 -0.6094983 0.072308846
0001e0 82 cd 06 bf 3b a7 37 3d 12 a1 66 3d 18 ee ec 3d
       -0.5265733 0.044837218 0.056305952 0.1156885
0001f0 8c ef b8 3d 88 1d 7a 3b ad 91 5c 3e 18 00 9e bc
       0.09030065 0.0038164575 0.21539946 -0.019287154
000200 eb c4 12 3c 68 e6 9f 3c 70 4d ed 3d 5d 4c 9b 3b
       0.008958082 0.019519046 0.11587036 0.004739328
000210 41 72 ad 3d 7c ac 92 bb 56 1b 4f bd 6a ef 5e 3c
       0.08469058 -0.004476128 -0.05056318 0.013606885
000220 3c b1 6e 3d c8 3e 08 bc aa d0 9e bc bd db 2b 3c
       0.058274493 -0.0083157495 -0.019386608 0.010489401
000230 32 72 a5 bd 43 f0 0d 3c 4f f8 fd bc c7 16 72 3f
       -0.08078422 0.00866324 -0.031002192 0.94566005
000240 b0 e8 1c bc 69 d8 f4 39 7b 8c e8 3e d7 d6 e6 bc
       -0.009576961 0.00046700545 0.45419678 -0.028178615
000250 30 c1 0b bf 64 3c 3a be ae fd c3 be a5 e3 7b 3c
       -0.54591656 -0.181871 -0.3827948 0.015374099
000260 33 e2 95 bb c2 3b 18 39 a7 46 84 3e 61 02 77 be
       -0.004574084 0.00014518111 0.25835153 -0.24122001
000270 ed 9a d0 bc 81 86 70 bd 6c 18 17 3d 6e 52 0a be
       -0.0254645 -0.058722023 0.036888525 -0.13508007
000280 bc 0c 6c 3b 31 53 bb 3d 3f 76 37 bd c1 eb 94 3c
       0.0036018332 0.09146727 -0.044790503 0.018178822
000290 38 79 2a be 47 79 2f 3d 0e f5 ef 3d 0a c2 66 3c
       -0.16647804 0.04284027 0.11716662 0.014084348
0002a0 90 dc 75 be 68 36 54 3d 7b 84 1c bf 49 a2 09 3b
       -0.24009919 0.0518097 -0.6113965 0.002100127
0002b0 c2 eb 2f bd 16 ad 3d 3d 29 ed 68 bd 9c bc 5e bd
       -0.042949446 0.046307646 -0.0568668 -0.05437909
0002c0 27 79 9c bc 07 c2 ea 3c 15 3b 20 3f 3b 5d 48 bd
       -0.019100739 0.028656973 0.6259015 -0.048917037
0002d0 48 27 7a 3d cb 84 52 3d 38 15 07 bf e8 96 91 bd
       0.061072618 0.051396172 -0.5276675 -0.07108861
0002e0 f8 10 51 be ba 95 27 bc 42 9b c5 3c 1d 09 05 3e
       -0.2041663 -0.010228569 0.024121884 0.12991758
0002f0 f0 6d d9 bd 83 8c 77 3c 15 c3 97 bd d4 cf 86 3a
       -0.10616672 0.015109184 -0.07410256 0.0010285326
000300 54 5b ef 3c ff 50 2f 3a 0e 39 61 be 11 b0 b6 3c
       0.029218353 0.00066877896 -0.21994421 0.022300752
000310 dc 6d 96 be b2 52 02 bd 3e 18 70 3e e1 ec 0d bf
       -0.2938069 -0.031817146 0.23446748 -0.55439574
000320 ce 61 ac be fb 4d 2b bc 19 49 c8 3c 3d 82 c1 bd
       -0.3366837 -0.010455604 0.024448918 -0.09448669
000330 2a df 89 3a bb 8d 12 3c 84 e3 cb bc db 47 9e be
       0.0010518779 0.008944924 -0.024888761 -0.30914196
000340 c0 ce b7 bb ab 62 b2 bb 29 8d 8d 3d 56 81 ac 3c
       -0.0056093633 -0.005443891 0.0691169 0.021057766
000350 6b d9 b0 bd 4b 97 d8 3b a6 39 07 be 72 e4 1b bd
       -0.08635219 0.0066098324 -0.13205585 -0.03805966
000360 51 7b 78 3a 03 0c b2 3d f3 27 8d bf 16 21 0d 3c
       0.0009478825 0.08693697 -1.1027817 0.008613845
000370 b8 39 93 3b e3 5f 3f bc d0 3f 20 3c e3 20 84 3d
       0.0044929646 -0.011680576 0.009780839 0.06451585
000380 85 68 0a bc a3 c5 d5 be 47 e3 00 bd 78 26 2c bc
       -0.008447771 -0.41752347 -0.03146675 -0.010507219
000390 7d 98 c7 be 97 33 d7 bc c8 12 34 3d bb 98 17 bd
       -0.38983527 -0.026269717 0.043963224 -0.03701089
0003a0 88 ed 13 be 00 67 3f bd af 1e a7 bf 81 95 23 bd
       -0.1444608 -0.046729088 -1.3056239 -0.0399375
0003b0 a6 b1 f4 3b e4 9d 2e bc 1e 8f 78 3c 53 0b 53 bd
       0.0074674664 -0.010657761 0.015170841 -0.05152447
0003c0 de 53 04 bd 03 28 5c 3c 1d 9e 27 3f 34 77 9f bd
       -0.032306544 0.013437274 0.65475637 -0.07786408
0003d0 04 93 fc bb 0f 20 97 3d dd 5f 14 3f 9f 6f d1 bd
       -0.0077079553 0.073791616 0.57958776 -0.10226368
0003e0 fd 0d 41 bc fa 53 83 3c c0 71 da bd 41 7c 42 be
       -0.01178312 0.016031254 -0.10666227 -0.18992712
0003f0 b9 0a be bc 89 6c 82 3c 5e 7f 34 3e e1 e1 8e 3f
       -0.023198472 0.015920894 0.17626712 1.1162683
