Neural_network/pytorch_tflite_convert/model/output/yolov5_float16.tflite (tflite, 92036 bytes, 52 tensors)

arith.constant1 f2 [4, 3, 3, 3]
0	0x39d5	0.729
1	0x3b19	0.887
2	0x356f	0.3396
3	0x2fa6	0.1195
4	0xb5e1	-0.3674
5	0xb71e	-0.4448
6	0xbb75	-0.932
7	0xb88c	-0.5684
8	0xb3c9	-0.2433
9	0xbfe7	-1.976
10	0xc035	-2.104
11	0xbc44	-1.066
12	0xa61b	-0.02385
13	0xb1e9	-0.1847
14	0x2d22	0.0802
15	0x405a	2.176
16	0x3f20	1.781
17	0x40e9	2.455
18	0xbd50	-1.328
19	0xbd2e	-1.295
20	0xbda4	-1.41
21	0xb597	-0.3494
22	0xb8a4	-0.58
23	0xb9fc	-0.748
24	0x3c83	1.128
25	0x3e1c	1.527
26	0x3ed2	1.705
27	0x2d01	0.0782
28	0x3301	0.2189
29	0x33e7	0.247
30	0xb500	-0.3125
31	0x34bd	0.2961
32	0x327d	0.2028
33	0xaf58	-0.11475
34	0x317b	0.1713
35	0x3351	0.2286
36	0x33a5	0.2389
37	0x38c5	0.596
38	0x32f1	0.2169
39	0x3a20	0.7656
40	0x36f2	0.434
41	0x365e	0.398
42	0x38aa	0.583
43	0x391c	0.6387
44	0x3c70	1.109
45	0xb53a	-0.3267
46	0xac71	-0.0694
47	0x3449	0.2678
48	0xb233	-0.1937
49	0xb4a4	-0.29
50	0x3410	0.254
51	0x324c	0.1968
52	0x348d	0.2844
53	0x3915	0.6353
54	0x3457	0.2712
55	0x3128	0.1611
56	0x3206	0.1882
57	0xb867	-0.5503
58	0xb2b7	-0.2098
59	0xb00b	-0.1263
60	0x31c0	0.1797
61	0x2d86	0.0863
62	0x3625	0.384
63	0xb6e8	-0.4316
64	0xb209	-0.1886
65	0x2c16	0.06384
66	0xb84d	-0.5376
67	0xb42d	-0.261
68	0xb455	-0.2708
69	0xaede	-0.1073
70	0x3371	0.2325
71	0xb2cf	-0.2128
72	0xb609	-0.3772
73	0xb336	-0.2253
74	0xb7c2	-0.4849
75	0xbb0d	-0.8813
76	0xbcee	-1.232
77	0xbcc1	-1.188
78	0xb8a9	-0.5825
79	0xb81f	-0.515
80	0xb979	-0.684
81	0x2374	0.01456
82	0xb150	-0.166
83	0xb7df	-0.492
84	0xa8fb	-0.0389
85	0xb010	-0.127
86	0x25fd	0.02339
87	0xb953	-0.6655
88	0xaca8	-0.07275
89	0xad99	-0.08746
90	0x34d2	0.3013
91	0x35da	0.3657
92	0x2d7d	0.08575
93	0xaf49	-0.11383
94	0xb65e	-0.398
95	0xb091	-0.1427
96	0xb806	-0.503
97	0xb95d	-0.6704
98	0xba34	-0.7754
99	0xb0b2	-0.1467
100	0x31e6	0.1843
101	0x1d83	0.005383
102	0xb016	-0.1277
103	0xb207	-0.1884
104	0xb82b	-0.521
105	0xb861	-0.5474
106	0xb8e6	-0.6123
107	0xb8e0	-0.6094

arith.constant2 f2 [1, 3, 3, 4]
0	0x2b61	0.05765
1	0x31d9	0.1827
2	0x1d10	0.004944
3	0x357d	0.343
4	0xb0b8	-0.1475
5	0x260f	0.02367
6	0xa523	-0.02007
7	0x30cd	0.15
8	0xaedf	-0.10736
9	0xb3fd	-0.2496
10	0x23a6	0.01494
11	0x35e7	0.369
12	0x35b5	0.3567
13	0x3c08	1.008
14	0xb406	-0.2515
15	0x31e5	0.1842
16	0x355c	0.335
17	0xb416	-0.2554
18	0xb807	-0.5034
19	0xaa2b	-0.0482
20	0x35ad	0.3547
21	0x3c1e	1.029
22	0xb6f6	-0.435
23	0x3361	0.2306
24	0x33ab	0.2396
25	0x3137	0.163
26	0xb023	-0.1293
27	0x3563	0.3367
28	0x30ef	0.1542
29	0xbcaf	-1.171
30	0xb55e	-0.3354
31	0xab85	-0.05875
32	0x301b	0.1283
33	0xbc4a	-1.072
34	0xac18	-0.06396
35	0x397a	0.6846

arith.constant3 f2 [8, 1, 1, 4]
0	0xabd8	-0.06128
1	0xb800	-0.5
2	0x3cc3	1.19
3	0x3a01	0.7505
4	0xb9a5	-0.7056
5	0xbdda	-1.463
6	0xb6ab	-0.4167
7	0xbb25	-0.893
8	0x3c26	1.037
9	0xb526	-0.3218
10	0x3c64	1.098
11	0x3881	0.563
12	0x3b5e	0.921
13	0xb46b	-0.2761
14	0x3bc4	0.9707
15	0x3a70	0.8047
16	0xb01d	-0.1285
17	0xbc83	-1.128
18	0xb9f1	-0.7427
19	0xbb45	-0.9087
20	0x2a19	0.04764
21	0xb61a	-0.3813
22	0xb654	-0.3955
23	0x399c	0.701
24	0xbf17	-1.772
25	0xb610	-0.379
26	0x3c46	1.068
27	0x34eb	0.3074
28	0xb782	-0.4692
29	0x3017	0.1278
30	0xb90a	-0.63
31	0x36df	0.4294

arith.constant4 f2 [1, 3, 3, 8]
0	0xaf54	-0.1145
1	0xafa1	-0.1192
2	0xb3d1	-0.2443
3	0xa761	-0.02882
4	0x2e91	0.1026
5	0x39fa	0.747
6	0x31ab	0.1771
7	0x365f	0.3982
8	0x28ff	0.03903
9	0x31e2	0.1838
10	0xb4e4	-0.3057
11	0x31be	0.1794
12	0xb32f	-0.2245
13	0x301e	0.1287
14	0x34cb	0.2996
15	0x373f	0.453
16	0x326f	0.201
17	0x3abd	0.8423
18	0xb618	-0.3809
19	0x361f	0.3826
20	0xb2fa	-0.218
21	0xaf4f	-0.1142
22	0xb457	-0.2712
23	0x388d	0.569
24	0x2d15	0.0794
25	0xb2d9	-0.214
26	0xb241	-0.1954
27	0x2ab1	0.05228
28	0x3507	0.3142
29	0x3673	0.403
30	0x36de	0.4292
31	0x31e1	0.1837
32	0x3748	0.455
33	0x346e	0.2769
34	0x2393	0.01479
35	0x3625	0.384
36	0xb53d	-0.3274
37	0xaeb5	-0.1048
38	0x3419	0.256
39	0x34df	0.3044
40	0x37c1	0.4846
41	0x3d3a	1.307
42	0xb039	-0.132
43	0x399c	0.701
44	0xba06	-0.753
45	0xbb67	-0.9253
46	0x1e2e	0.006035
47	0x3538	0.3262
48	0x1c5b	0.004253
49	0x9999	-0.002733
50	0x37e2	0.4927
51	0x9e25	-0.006
52	0x3111	0.1583
53	0x3c96	1.146
54	0x2c70	0.06934
55	0xb5d0	-0.3633
56	0x364b	0.3933
57	0x329c	0.2065
58	0x379c	0.4756
59	0x3426	0.2593
60	0xb3b3	-0.2406
61	0xa86a	-0.0345
62	0x3617	0.3806
63	0x340a	0.2524
64	0x3540	0.3281
65	0x3c04	1.004
66	0xb291	-0.2052
67	0x3803	0.5015
68	0xb917	-0.636
69	0xbcf6	-1.24
70	0xa5f0	-0.0232
71	0x350f	0.3162

arith.constant5 f2 [16, 1, 1, 8]
0	0x35fd	0.3743
1	0x9a49	-0.003069
2	0xb383	-0.2347
3	0x3831	0.524
4	0x32d6	0.2136
5	0x1e4d	0.006153
6	0xb8be	-0.593
7	0xb278	-0.2021
8	0xb6a3	-0.4148
9	0x348c	0.2842
10	0xaea6	-0.1039
11	0xb572	-0.3403
12	0xb4ad	-0.2922
13	0x3163	0.1683
14	0x2ef1	0.10846
15	0x3138	0.1631
16	0x36c6	0.4233
17	0xb212	-0.1897
18	0xa99f	-0.0439
19	0x345d	0.2727
20	0x3633	0.3875
21	0x3566	0.3374
22	0x2e86	0.1019
23	0xb0ae	-0.1462
24	0xb73b	-0.452
25	0xaf5b	-0.1149
26	0xb0a6	-0.1453
27	0xb6e7	-0.4314
28	0x37f9	0.4983
29	0xa35b	-0.014366
30	0xb820	-0.5156
31	0x3224	0.1919
32	0xa82c	-0.0326
33	0xb780	-0.4688
34	0xb312	-0.221
35	0x3a84	0.8145
36	0xa14a	-0.01033
37	0x35b0	0.3555
38	0xb7a6	-0.478
39	0xa682	-0.02542
40	0x324a	0.1965
41	0x33bd	0.2418
42	0xa668	-0.02502
43	0x3928	0.6445
44	0x3829	0.52
45	0x30d4	0.1509
46	0xbbc4	-0.9707
47	0xac56	-0.06775
48	0x3d23	1.284
49	0xacf5	-0.07745
50	0x3c60	1.094
51	0xb276	-0.2019
52	0xb001	-0.1251
53	0x33ad	0.2399
54	0xb8b2	-0.587
55	0x3a09	0.7544
56	0xb716	-0.4429
57	0xba21	-0.766
58	0xb189	-0.173
59	0x37f3	0.4968
60	0x3ae0	0.8594
61	0x36e2	0.4302
62	0xb88f	-0.57
63	0x29cd	0.04532
64	0x3153	0.1664
65	0xafcd	-0.1219
66	0x3150	0.166
67	0x3a52	0.79
68	0xb7d2	-0.4888
69	0x35e6	0.3687
70	0x3409	0.2522
71	0x3610	0.379
72	0xbc12	-1.018
73	0xaf64	-0.1155
74	0x2dd6	0.0912
75	0x3925	0.643
76	0x39cf	0.726
77	0x3568	0.338
78	0x3afe	0.874
79	0x38a0	0.578
80	0x3d30	1.297
81	0xb83d	-0.53
82	0xbc0b	-1.011
83	0xba35	-0.776
84	0x3850	0.539
85	0x34b8	0.295
86	0xb47a	-0.2798
87	0x2c7b	0.07
88	0x39a1	0.7036
89	0x2929	0.0403
90	0x34d0	0.3008
91	0x309a	0.1438
92	0x3288	0.2041
93	0x2c8b	0.071
94	0x34bc	0.296
95	0x30da	0.1516
96	0xbacb	-0.849
97	0x3a82	0.8135
98	0x2b2d	0.05606
99	0x3cf9	1.243
100	0x31ca	0.1809
101	0x34b7	0.2947
102	0x3381	0.2345
103	0x3d8f	1.39
104	0xb7c4	-0.4854
105	0xb473	-0.278
106	0xb6c0	-0.4219
107	0x3899	0.5747
108	0xb5e1	-0.3674
109	0x35f3	0.3718
110	0xb8a3	-0.5796
111	0x3589	0.346
112	0xb61f	-0.3826
113	0xb749	-0.4553
114	0xb853	-0.5405
115	0x3ace	0.8506
116	0x312c	0.1616
117	0x35e9	0.3694
118	0x30ab	0.1459
119	0xb0a9	-0.1456
120	0xb935	-0.651
121	0xb3da	-0.2454
122	0xb0b3	-0.1469
123	0x38ce	0.6006
124	0x2868	0.03442
125	0x347d	0.2805
126	0xba38	-0.7773
127	0x2e9a	0.10315

arith.constant6 f2 [16, 1, 1, 16]
0	0x31ae	0.1775
1	0x3520	0.3203
2	0x3405	0.2512
3	0x3317	0.2216
4	0x3401	0.2502
5	0xb3c2	-0.2424
6	0x33f7	0.2489
7	0x35a4	0.3525
8	0x346e	0.2769
9	0x2a54	0.04944
10	0xb1fc	-0.187
11	0x32a6	0.2078
12	0xb28c	-0.2046
13	0x3428	0.2598
14	0x3175	0.1705
15	0xadf5	-0.0931
16	0x26b8	0.02625
17	0xb1bd	-0.1793
18	0xb1de	-0.1833
19	0xb0d4	-0.1509
20	0x3677	0.404
21	0x2c39	0.066
22	0x2a00	0.04688
23	0x3070	0.1387
24	0x2dc7	0.0903
25	0x31c1	0.1798
26	0xb175	-0.1705
27	0x3525	0.3215
28	0xab4a	-0.05695
29	0xb41b	-0.2566
30	0x3717	0.443
31	0xb440	-0.2656
32	0x3129	0.1613
33	0x31a7	0.1766
34	0xaba0	-0.05957
35	0xb465	-0.2747
36	0x3544	0.329
37	0x31ee	0.1853
38	0x2334	0.01407
39	0x2c33	0.0656
40	0x24be	0.01852
41	0xa057	-0.00848
42	0x28c6	0.0373
43	0x350b	0.3152
44	0x1d11	0.004948
45	0xaae0	-0.0537
46	0x28dc	0.03796
47	0x2fb6	0.1205
48	0x35e1	0.3674
49	0xb58e	-0.3472
50	0x2bc8	0.0608
51	0xb7b7	-0.4822
52	0x3082	0.1409
53	0x339e	0.238
54	0x292a	0.04034
55	0x36c6	0.4233
56	0x305e	0.1365
57	0xaf76	-0.1166
58	0xb455	-0.2708
59	0xb439	-0.264
60	0xb3c3	-0.2426
61	0x2e6b	0.1003
62	0x3461	0.2737
63	0xb3d3	-0.2445
64	0xb3a4	-0.2388
65	0xaa65	-0.04996
66	0xb217	-0.1903
67	0x373e	0.4526
68	0xb24d	-0.1969
69	0x3390	0.2363
70	0xb4ea	-0.3071
71	0x9ad4	-0.003334
72	0xb17a	-0.1711
73	0xb42b	-0.2605
74	0x2b99	0.05936
75	0xb32f	-0.2245
76	0x3296	0.2058
77	0x3177	0.1708
78	0xa921	-0.04007
79	0x34a6	0.2905
80	0xac50	-0.0674
81	0xa6ce	-0.02658
82	0xb293	-0.2054
83	0x1880	0.002197
84	0xb3b1	-0.2404
85	0xa831	-0.03275
86	0xb05f	-0.1366
87	0x2510	0.01978
88	0xac47	-0.06683
89	0xa49c	-0.018
90	0x302e	0.1306
91	0xb439	-0.264
92	0xb0f1	-0.1544
93	0xac36	-0.0658
94	0xad63	-0.08417
95	0x2f22	0.11145
96	0x3443	0.2664
97	0xa4ca	-0.0187
98	0x33b2	0.2405
99	0xafcb	-0.12177
100	0x2b7f	0.05856
101	0x32a2	0.2073
102	0x2a7f	0.05075
103	0x2f81	0.11725
104	0xb132	-0.1624
105	0xab1d	-0.05557
106	0x2edb	0.1071
107	0x967d	-0.001584
108	0xb0ee	-0.154
109	0x31ae	0.1775
110	0x3420	0.2578
111	0x305f	0.1366
112	0x3207	0.1884
113	0xb09c	-0.144
114	0x2d97	0.08734
115	0xb386	-0.2351
116	0x2c57	0.0678
117	0x2cb4	0.0735
118	0x3460	0.2734
119	0x288f	0.0356
120	0xb06a	-0.138
121	0xaf5d	-0.11505
122	0x3135	0.1627
123	0x35ce	0.3628
124	0xb0d0	-0.1504
125	0x3032	0.1311
126	0x2ca6	0.07263
127	0x2c52	0.0675
128	0x3457	0.2712
129	0xb152	-0.1663
130	0x2dc6	0.0902
131	0xacf3	-0.07733
132	0x12cf	0.000831
133	0x3363	0.2308
134	0x323c	0.1948
135	0xa066	-0.00859
136	0xacd0	-0.0752
137	0xac0c	-0.06323
138	0x3250	0.1973
139	0x3286	0.2039
140	0xb179	-0.171
141	0x25aa	0.02213
142	0x2d4d	0.0828
143	0x2cb5	0.07355
144	0x2dbd	0.08966
145	0xaa70	-0.0503
146	0x33c1	0.2423
147	0xa758	-0.02869
148	0x2238	0.012146
149	0xb2b5	-0.2096
150	0x2f49	0.11383
151	0xb0ea	-0.1536
152	0x3281	0.2032
153	0x2f82	0.1173
154	0x3552	0.3325
155	0x35d6	0.3647
156	0xa5ca	-0.02261
157	0xac58	-0.0679
158	0xae3e	-0.09753
159	0xadef	-0.0927
160	0x9d97	-0.00546
161	0x1cce	0.004692
162	0x2801	0.03128
163	0x2deb	0.09247
164	0xa995	-0.0436
165	0x9fce	-0.00762
166	0xac51	-0.06744
167	0xad58	-0.0835
168	0xa394	-0.0148
169	0x2ccc	0.07495
170	0x9e42	-0.00611
171	0xac02	-0.0626
172	0x294f	0.04147
173	0x2857	0.0339
174	0xa8ee	-0.0385
175	0xaedc	-0.1072
176	0x3371	0.2325
177	0xb093	-0.143
178	0x32e2	0.2151
179	0xb196	-0.1746
180	0x2c17	0.0639
181	0x24b2	0.01834
182	0x341a	0.2563
183	0x2a49	0.0491
184	0x1ac7	0.00331
185	0xadcf	-0.09076
186	0x2cda	0.0758
187	0x33e8	0.2471
188	0xb002	-0.1252
189	0x2701	0.02736
190	0x28cb	0.03745
191	0x2b77	0.05832
192	0x9f7e	-0.007317
193	0x2d3e	0.0819
194	0x35a2	0.352
195	0xab80	-0.0586
196	0xb06a	-0.138
197	0xb10f	-0.1581
198	0x3095	0.1432
199	0xb05f	-0.1366
200	0x9c7d	-0.004383
201	0x2b16	0.05536
202	0x362d	0.386
203	0x36b3	0.4187
204	0xac83	-0.0705
205	0xae92	-0.10266
206	0xaf62	-0.11536
207	0x2808	0.0315
208	0x27bd	0.03023
209	0xa013	-0.00796
210	0x3066	0.1375
211	0x24c2	0.01859
212	0x3602	0.3755
213	0x36e0	0.4297
214	0xb4db	-0.3035
215	0x2ee5	0.1077
216	0xafa4	-0.1194
217	0x2d83	0.0861
218	0x304c	0.1343
219	0x261e	0.0239
220	0xb7fa	-0.4985
221	0x319c	0.1753
222	0x332a	0.2239
223	0x302b	0.1302
224	0xb75c	-0.46
225	0xa6a8	-0.026
226	0xadb2	-0.089
227	0x339b	0.2377
228	0xb0c7	-0.1493
229	0xb227	-0.1923
230	0x36c4	0.4229
231	0xb08f	-0.1425
232	0x0c08	0.000246
233	0x9ef7	-0.0068
234	0xab13	-0.05527
235	0xad6b	-0.08466
236	0x36ff	0.4373
237	0x22ea	0.013504
238	0xaffe	-0.1249
239	0x3054	0.1353
240	0x3259	0.1984
241	0x2661	0.02492
242	0x32ed	0.2164
243	0xb072	-0.1389
244	0x1eb3	0.006542
245	0x3290	0.2051
246	0x35b6	0.357
247	0xa7a1	-0.0298
248	0x19a8	0.002762
249	0xb0c6	-0.1492
250	0x1812	0.001987
251	0x3286	0.2039
252	0xb3c3	-0.2426
253	0xa3ff	-0.01562
254	0x31cf	0.1815
255	0x2821	0.03226

arith.constant7 f2 [1, 3, 3, 16]
0	0xb396	-0.237
1	0xa293	-0.01284
2	0x3021	0.129
3	0x2cd1	0.07526
4	0x2c38	0.0659
5	0x3db6	1.428
6	0xac00	-0.0625
7	0xa6a1	-0.0259
8	0xb245	-0.1959
9	0x9f60	-0.007202
10	0x306c	0.1382
11	0xaf46	-0.11365
12	0xadeb	-0.09247
13	0xb226	-0.1921
14	0xb297	-0.2059
15	0x3083	0.141
16	0xb0f4	-0.1548
17	0x3847	0.5347
18	0x351b	0.319
19	0xb00d	-0.1266
20	0xb7cf	-0.488
21	0x222a	0.01204
22	0xa757	-0.02867
23	0x3a0c	0.756
24	0x2bd4	0.06116
25	0x3021	0.129
26	0x2c66	0.0687
27	0x2e49	0.0982
28	0x22f8	0.01361
29	0xb29d	-0.2067
30	0xb66b	-0.4011
31	0xb2d6	-0.2136
32	0xb340	-0.2266
33	0xacfa	-0.07776
34	0x3068	0.1377
35	0xaa0c	-0.04724
36	0xb433	-0.2625
37	0x31d9	0.1827
38	0x290a	0.03937
39	0xb249	-0.1964
40	0x3947	0.6597
41	0xabca	-0.06085
42	0xac9f	-0.0722
43	0x31ed	0.1852
44	0x332b	0.224
45	0xb6d9	-0.428
46	0xb7cb	-0.487
47	0xb050	-0.1348
48	0xb6aa	-0.4165
49	0x2556	0.02084
50	0xba89	-0.817
51	0x38c3	0.595
52	0xa82c	-0.0326
53	0x385a	0.544
54	0xa400	-0.01563
55	0x368f	0.41
56	0x30b5	0.1471
57	0x2ae1	0.05374
58	0x3427	0.2595
59	0x29a2	0.044
60	0xae85	-0.10187
61	0x349b	0.2878
62	0xb36c	-0.2319
63	0x279a	0.0297
64	0x1f1e	0.00695
65	0x361f	0.3826
66	0xbd01	-1.251
67	0xb53e	-0.3276
68	0xb9b4	-0.713
69	0xb7f7	-0.4978
70	0x30f0	0.1543
71	0x383c	0.5293
72	0xb770	-0.4648
73	0x38a7	0.5815
74	0x3851	0.5396
75	0x3c01	1.001
76	0xa443	-0.01665
77	0x370e	0.441
78	0xb83e	-0.5303
79	0xbd19	-1.274
80	0xb52a	-0.3228
81	0xb07b	-0.14
82	0x9ce7	-0.004787
83	0xb318	-0.2217
84	0xb0e1	-0.1525
85	0x2b58	0.05737
86	0xb47a	-0.2798
87	0xba76	-0.8076
88	0x3844	0.533
89	0xb08c	-0.1421
90	0xbd47	-1.319
91	0xabf3	-0.0621
92	0x39ac	0.709
93	0x35c1	0.3596
94	0xb40b	-0.2527
95	0x3e12	1.518
96	0xb7b5	-0.4817
97	0x3153	0.1664
98	0x390c	0.631
99	0x3803	0.5015
100	0x3618	0.3809
101	0x37ef	0.4958
102	0x350d	0.3157
103	0xb276	-0.2019
104	0x35b5	0.3567
105	0x28c6	0.0373
106	0xb365	-0.2311
107	0xadd5	-0.0911
108	0xacad	-0.07306
109	0x30d7	0.1512
110	0x24f0	0.01929
111	0x2dea	0.0924
112	0x3489	0.2834
113	0x3497	0.2869
114	0x3b2e	0.8975
115	0x2201	0.01173
116	0x3ae8	0.8633
117	0xa160	-0.0105
118	0x39c2	0.7197
119	0xb970	-0.6797
120	0xb250	-0.1973
121	0x393f	0.656
122	0xbc9b	-1.151
123	0xb01e	-0.1287
124	0xab05	-0.05484
125	0x31c4	0.1802
126	0xaf63	-0.1154
127	0x3b82	0.9385
128	0xb86e	-0.5537
129	0xa2e6	-0.01347
130	0xb317	-0.2216
131	0x36ca	0.4243
132	0x4097	2.295
133	0x3860	0.547
134	0x3398	0.2373
135	0x31fa	0.1868
136	0xb868	-0.551
137	0x2a0e	0.0473
138	0xc1ad	-2.838
139	0xb568	-0.338
140	0x36cd	0.425
141	0x3616	0.3804
142	0xac27	-0.0649
143	0xbd36	-1.303

arith.constant8 f2 [32, 1, 1, 16]
0	0x3490	0.2852
1	0xb2f9	-0.2179
2	0x2ea3	0.1037
3	0xb42d	-0.261
4	0xb24b	-0.1967
5	0x2f13	0.11053
6	0xb10b	-0.1576
7	0x23b7	0.01507
8	0xb45b	-0.2722
9	0xb3c8	-0.2432
10	0xaf24	-0.1116
11	0xb617	-0.3806
12	0x2c53	0.06757
13	0xa977	-0.0427
14	0x2a45	0.04898
15	0xa969	-0.04227
16	0x3306	0.2195
17	0xae0d	-0.09454
18	0xb4d7	-0.3025
19	0xb8ff	-0.6245
20	0xaff9	-0.1246
21	0xb2d0	-0.2129
22	0xb605	-0.3762
23	0xb4ee	-0.308
24	0x3440	0.2656
25	0xb311	-0.2208
26	0x3878	0.5586
27	0xb3a4	-0.2388
28	0x3573	0.3406
29	0x306c	0.1382
30	0xb0ee	-0.154
31	0xafb1	-0.1202
32	0xa98b	-0.0433
33	0xb388	-0.2354
34	0x244d	0.0168
35	0xb506	-0.314
36	0x31a8	0.1768
37	0xb6bf	-0.4216
38	0x32ce	0.2126
39	0x342a	0.2603
40	0xaa91	-0.0513
41	0x394b	0.6616
42	0xb7f5	-0.4973
43	0xb0fb	-0.1556
44	0x38cb	0.599
45	0xb013	-0.1273
46	0x21f0	0.0116
47	0xac32	-0.06555
48	0xafb1	-0.1202
49	0xb79f	-0.4763
50	0x319e	0.1755
51	0xb5f8	-0.373
52	0x309c	0.144
53	0x3884	0.5645
54	0x3c20	1.031
55	0xa6cf	-0.0266
56	0xb81a	-0.5127
57	0xb8a5	-0.5806
58	0xb9a6	-0.706
59	0x3b4d	0.9126
60	0xaecc	-0.1062
61	0xb147	-0.1649
62	0xb529	-0.3225
63	0x333a	0.2258
64	0x351d	0.3196
65	0xb394	-0.2368
66	0x2e17	0.09515
67	0x35f7	0.3728
68	0x323c	0.1948
69	0x287b	0.035
70	0x3957	0.6675
71	0x2b11	0.0552
72	0x3353	0.2289
73	0x28da	0.0379
74	0xb869	-0.5513
75	0x383f	0.531
76	0xba93	-0.822
77	0x2034	0.00821
78	0xb407	-0.2517
79	0x32a6	0.2078
80	0x2fa6	0.1195
81	0x2cf8	0.07764
82	0x2fa3	0.1193
83	0xb6c1	-0.422
84	0xb20e	-0.1892
85	0x3475	0.2786
86	0xb624	-0.3838
87	0x34ac	0.292
88	0x35fc	0.374
89	0xb2e3	-0.2152
90	0xb92e	-0.6475
91	0xb47f	-0.281
92	0xa9d1	-0.04544
93	0x354a	0.3306
94	0x3197	0.1747
95	0xb426	-0.2593
96	0xb882	-0.5635
97	0x2d8a	0.08655
98	0x2da3	0.0881
99	0x3283	0.2035
100	0x30bb	0.1478
101	0x326e	0.2009
102	0xb858	-0.543
103	0x387c	0.5605
104	0xb3ee	-0.2478
105	0xb817	-0.511
106	0xb8ad	-0.5845
107	0x38ef	0.6167
108	0x3420	0.2578
109	0x3515	0.3176
110	0x3355	0.2291
111	0xb570	-0.3398
112	0xafc6	-0.12146
113	0x33ed	0.2477
114	0xb3c4	-0.2427
115	0x2f2a	0.11194
116	0x29af	0.0444
117	0x2db7	0.0893
118	0xabc5	-0.0607
119	0x32cd	0.2125
120	0xa828	-0.03247
121	0xaebc	-0.1052
122	0x3065	0.1373
123	0x31d9	0.1827
124	0x3396	0.237
125	0x3541	0.3284
126	0x3133	0.1625
127	0x2f7b	0.1169
128	0xb53e	-0.3276
129	0xb0a2	-0.1448
130	0x351a	0.3188
131	0x32d8	0.2139
132	0xb0fc	-0.1558
133	0xada2	-0.088
134	0x3c43	1.065
135	0x28f8	0.03882
136	0xb618	-0.3809
137	0xb090	-0.1426
138	0x3486	0.2827
139	0xb2d3	-0.2133
140	0xadfa	-0.0934
141	0xbb0f	-0.8823
142	0xb39b	-0.2377
143	0x3214	0.19
144	0x2f6f	0.11615
145	0xb7bd	-0.4836
146	0xa2a5	-0.01298
147	0x3430	0.2617
148	0x343b	0.2644
149	0xb4ea	-0.3071
150	0x3374	0.2329
151	0xacd6	-0.07556
152	0x2c26	0.0648
153	0xaf08	-0.10986
154	0x385e	0.546
155	0xb36c	-0.2319
156	0xb756	-0.4585
157	0x3561	0.3362
158	0xb698	-0.412
159	0x3382	0.2346
160	0x2a64	0.04993
161	0xb5f8	-0.373
162	0x30fc	0.1558
163	0xb79a	-0.475
164	0x283f	0.03317
165	0x299a	0.04376
166	0xa1c2	-0.011246
167	0x3416	0.2554
168	0x2b1d	0.05557
169	0x343b	0.2644
170	0xb90d	-0.6313
171	0xb9ea	-0.7393
172	0x3699	0.4124
173	0xacdd	-0.076
174	0xb592	-0.3481
175	0xb885	-0.565
176	0xb7ed	-0.4954
177	0x3366	0.2312
178	0xb71c	-0.4443
179	0x32c1	0.211
180	0xa60c	-0.02362
181	0xab0e	-0.0551
182	0x24e5	0.01912
183	0x9fa3	-0.007458
184	0xbad2	-0.8525
185	0xae5f	-0.09955
186	0x3a60	0.797
187	0xb962	-0.673
188	0xaf6d	-0.116
189	0xb71a	-0.4438
190	0x31d7	0.1825
191	0xb1fd	-0.1871
192	0xb390	-0.2363
193	0x2d98	0.0874
194	0xad7a	-0.0856
195	0xace9	-0.0767
196	0x3642	0.391
197	0x3380	0.2344
198	0x267a	0.0253
199	0x2ff0	0.124
200	0x3b03	0.8765
201	0x3827	0.519
202	0xb8ef	-0.6167
203	0xb478	-0.2793
204	0xb59d	-0.3508
205	0x231d	0.01389
206	0x2632	0.0242
207	0xb866	-0.55
208	0x3826	0.5186
209	0xb2b6	-0.2097
210	0xb16c	-0.1694
211	0x2829	0.0325
212	0x33a2	0.2385
213	0x2aed	0.0541
214	0xb8b8	-0.59
215	0x34a8	0.291
216	0x31ae	0.1775
217	0xb418	-0.2559
218	0x9879	-0.002184
219	0x30df	0.1522
220	0x3d73	1.362
221	0xb9ce	-0.7256
222	0x308f	0.1425
223	0xb13f	-0.164
224	0x3ae5	0.862
225	0xb12b	-0.1615
226	0xb6b5	-0.4192
227	0xb5e0	-0.3672
228	0xb684	-0.4072
229	0x3aed	0.8657
230	0xbb26	-0.8936
231	0xb84f	-0.5386
232	0xbacf	-0.851
233	0x374a	0.4556
234	0x3645	0.3918
235	0x2edf	0.10736
236	0x39f9	0.7466
237	0xba0c	-0.756
238	0x3c7e	1.123
239	0xb011	-0.1271
240	0xae4b	-0.0983
241	0x2743	0.02837
242	0xb083	-0.141
243	0x34ed	0.3079
244	0x2823	0.03232
245	0x2dde	0.0917
246	0xb3bf	-0.2421
247	0x36b3	0.4187
248	0xb545	-0.3293
249	0xbb42	-0.907
250	0x31f7	0.1864
251	0x310f	0.1581
252	0xb288	-0.2041
253	0x32dd	0.2145
254	0xa9c9	-0.0452
255	0x3035	0.1315

arith.constant9 f2 [32, 1, 1, 32]
0	0xa77a	-0.0292
1	0xb150	-0.166
2	0x3348	0.2275
3	0x2995	0.0436
4	0x2dc6	0.0902
5	0xac3c	-0.06616
6	0xad1b	-0.0798
7	0xac1c	-0.0642
8	0xb0f2	-0.1545
9	0xa3ca	-0.01521
10	0x2bf9	0.0623
11	0xb076	-0.1394
12	0x339f	0.2382
13	0xb04b	-0.1342
14	0xb13c	-0.1636
15	0x2caf	0.0732
16	0x38c2	0.5947
17	0x2aad	0.05215
18	0xafc1	-0.12115
19	0x20ab	0.00912
20	0x2e9a	0.10315
21	0xb1fb	-0.1869
22	0x2e11	0.0948
23	0x3219	0.1906
24	0xb47f	-0.281
25	0xb1f9	-0.1866
26	0x32cf	0.2128
27	0xa4d5	-0.01888
28	0xac23	-0.06464
29	0xb711	-0.4417
30	0x352a	0.3228
31	0xb012	-0.1272
32	0xa860	-0.03418
33	0xb3e8	-0.2471
34	0xb4e5	-0.306
35	0xb17b	-0.1713
36	0xac22	-0.0646
37	0x37c7	0.486
38	0x3567	0.3376
39	0x2e6d	0.1004
40	0xaf50	-0.11426
41	0xb2fe	-0.2185
42	0xb69c	-0.413
43	0xb4c5	-0.298
44	0x3752	0.4575
45	0x2ff5	0.1243
46	0xb739	-0.4514
47	0xb023	-0.1293
48	0xb2b3	-0.2094
49	0x325d	0.1989
50	0x3497	0.2869
51	0x3200	0.1875
52	0xb4b1	-0.2932
53	0x328a	0.2043
54	0xaceb	-0.07684
55	0x31dd	0.1832
56	0xb119	-0.1593
57	0xb2a8	-0.208
58	0x35c1	0.3596
59	0xb20e	-0.1892
60	0x32ad	0.2086
61	0x39ab	0.7085
62	0x300c	0.1265
63	0x2d4a	0.08264
64	0x3302	0.219
65	0x3101	0.1564
66	0xb105	-0.1569
67	0x2e60	0.0996
68	0xb124	-0.1606
69	0xaf10	-0.11035
70	0x9a0f	-0.002958
71	0x3172	0.1702
72	0x34b5	0.2942
73	0x3145	0.1647
74	0xb096	-0.1433
75	0x3010	0.127
76	0x2089	0.00886
77	0xb3e3	-0.2465
78	0xae83	-0.10175
79	0xaaf1	-0.05423
80	0xb10d	-0.1578
81	0x3121	0.1603
82	0xaa80	-0.05078
83	0x2d72	0.0851
84	0xac86	-0.0707
85	0xa627	-0.02403
86	0x3008	0.126
87	0x2ccc	0.07495
88	0xafae	-0.12
89	0x30fe	0.156
90	0x1d1e	0.004997
91	0x2be1	0.06155
92	0x35e2	0.3677
93	0xad1c	-0.07983
94	0x3076	0.1394
95	0x31cd	0.1813
96	0x2ca8	0.07275
97	0x3288	0.2041
98	0xad05	-0.0784
99	0x30f5	0.1549
100	0xb06f	-0.1385
101	0x2b0d	0.05508
102	0x1ead	0.00652
103	0x31cc	0.1812
104	0x2cfa	0.07776
105	0x2dd1	0.0909
106	0x2a77	0.0505
107	0xa5cb	-0.02263
108	0xb2a0	-0.207
109	0xb04f	-0.1346
110	0xb2bd	-0.2106
111	0xa87b	-0.035
112	0xaf5d	-0.11505
113	0x2c2d	0.06525
114	0xaf88	-0.1177
115	0x3416	0.2554
116	0x2d69	0.08453
117	0xb1d3	-0.182
118	0x3231	0.1935
119	0x32e8	0.2158
120	0xadbd	-0.08966
121	0x2cf0	0.07715
122	0xa971	-0.0425
123	0x28d7	0.0378
124	0x30af	0.1464
125	0x2fc7	0.1215
126	0x31c7	0.1805
127	0x30c0	0.1484
128	0x301e	0.1287
129	0xad5f	-0.0839
130	0x335a	0.2297
131	0xaa4b	-0.04916
132	0xb062	-0.137
133	0xade1	-0.09186
134	0x276d	0.029
135	0xa71c	-0.02777
136	0xaa2c	-0.04822
137	0xab10	-0.05518
138	0x288a	0.03546
139	0x2b20	0.05566
140	0xadf2	-0.0929
141	0xac34	-0.0657
142	0xaf12	-0.1105
143	0xaccf	-0.07513
144	0x3590	0.3477
145	0x18f3	0.002417
146	0xaaea	-0.05402
147	0x2c06	0.06287
148	0x305a	0.136
149	0xb386	-0.2351
150	0xb1e5	-0.1842
151	0x3377	0.2333
152	0xb063	-0.1371
153	0x9c34	-0.004105
154	0x2df6	0.09314
155	0xaf6d	-0.116
156	0x20f6	0.00969
157	0x3076	0.1394
158	0x3474	0.2783
159	0x9d75	-0.00533
160	0x21c4	0.01126
161	0x3088	0.1416
162	0x31f5	0.1862
163	0xa850	-0.0337
164	0xb2c7	-0.2118
165	0x9e5e	-0.006218
166	0x3151	0.1661
167	0xacb1	-0.0733
168	0x2c17	0.0639
169	0xb0e9	-0.1534
170	0x2952	0.04156
171	0x2a7d	0.0507
172	0xb382	-0.2346
173	0xb41d	-0.257
174	0xb69f	-0.4138
175	0xb2f3	-0.2172
176	0x3009	0.1261
177	0x2f2f	0.11224
178	0x2abc	0.0526
179	0x3640	0.3906
180	0x3471	0.2776
181	0xaaa4	-0.05188
182	0x2a86	0.05096
183	0x3148	0.165
184	0x2bf8	0.06226
185	0x3250	0.1973
186	0x2fe5	0.12335
187	0xac35	-0.06573
188	0xab67	-0.05783
189	0xb15f	-0.1678
190	0x3179	0.171
191	0x3174	0.1704
192	0x32c4	0.2114
193	0xb03b	-0.1322
194	0xb17d	-0.1715
195	0x3030	0.1309
196	0x3386	0.2351
197	0x3101	0.1564
198	0xa7ac	-0.02997
199	0xadd5	-0.0911
200	0x36c0	0.4219
201	0xac25	-0.06476
202	0x2ed4	0.1067
203	0x3153	0.1664
204	0x30b0	0.1465
205	0xb51c	-0.3193
206	0xb3d1	-0.2443
207	0x2eae	0.1044
208	0x2899	0.03592
209	0xb1e5	-0.1842
210	0x2d77	0.0854
211	0x342c	0.2607
212	0x3427	0.2595
213	0xb3f4	-0.2485
214	0xa5a4	-0.02203
215	0x3236	0.1941
216	0xaebd	-0.1053
217	0xaeb3	-0.1047
218	0x9ccd	-0.00469
219	0x31e3	0.184
220	0xa428	-0.01624
221	0xa8ff	-0.03903
222	0x3432	0.2622
223	0x3105	0.1569
224	0xaeb8	-0.105
225	0xb1d3	-0.182
226	0xb33b	-0.226
227	0x306d	0.1383
228	0xb0e2	-0.1526
229	0x30e4	0.1528
230	0xa99c	-0.04382
231	0xb4ae	-0.2925
232	0x37ba	0.483
233	0x27ed	0.03096
234	0x2891	0.03568
235	0x2e35	0.097
236	0x341b	0.2566
237	0xb33d	-0.2262
238	0xb651	-0.3948
239	0x2118	0.00995
240	0x252a	0.02017
241	0xabbc	-0.06042
242	0x265f	0.02489
243	0x2aa5	0.0519
244	0x33ff	0.2499
245	0xb461	-0.2737
246	0x9e85	-0.006367
247	0x329c	0.2065
248	0xaaac	-0.05212
249	0xa1af	-0.0111
250	0x251d	0.01997
251	0x2d3b	0.0817
252	0x27fa	0.03116
253	0xb3cc	-0.2437
254	0x35d4	0.3643
255	0x2ecf	0.1064

arith.constant10 f2 [1, 3, 3, 32]
0	0xa91e	-0.03998
1	0x2766	0.0289
2	0x2ac4	0.05286
3	0x2a11	0.0474
4	0x321b	0.1908
5	0x2c51	0.06744
6	0x26a3	0.02592
7	0xa069	-0.00861
8	0x2fa0	0.11914
9	0xa682	-0.02542
10	0x2324	0.01395
11	0x32fc	0.2183
12	0x2c40	0.0664
13	0xa50f	-0.01976
14	0xa9a6	-0.04413
15	0x252b	0.02019
16	0xa53c	-0.02045
17	0xad13	-0.0793
18	0x24e6	0.01913
19	0xa4f8	-0.01941
20	0x264d	0.02461
21	0x300e	0.1267
22	0xac37	-0.06586
23	0x2046	0.00835
24	0xa23f	-0.0122
25	0x21f2	0.01161
26	0x2091	0.00892
27	0x3334	0.2251
28	0xa86f	-0.03464
29	0x245a	0.017
30	0xb160	-0.168
31	0x294f	0.04147
32	0x31f3	0.1859
33	0x3078	0.1396
34	0xb6ad	-0.4172
35	0xa79e	-0.02975
36	0xb0de	-0.1521
37	0x3998	0.699
38	0x33d6	0.2449
39	0x2e2f	0.0966
40	0xb390	-0.2363
41	0xb474	-0.2783
42	0x3087	0.1415
43	0xa755	-0.02864
44	0xb2cd	-0.2125
45	0xa982	-0.04303
46	0xaf4c	-0.114
47	0xb909	-0.6294
48	0xa80a	-0.03156
49	0x30f1	0.1544
50	0xaefb	-0.1091
51	0xb5ff	-0.3748
52	0x3475	0.2786
53	0xa954	-0.04163
54	0x3773	0.4656
55	0xafe2	-0.12317
56	0xac33	-0.0656
57	0xb439	-0.264
58	0xaa01	-0.0469
59	0xb64a	-0.393
60	0x35aa	0.354
61	0x3424	0.2588
62	0x3402	0.2505
63	0xb02f	-0.1307
64	0x36ca	0.4243
65	0x15d4	0.001423
66	0xb37b	-0.2338
67	0xae96	-0.1029
68	0xb7b8	-0.4824
69	0x353e	0.3276
70	0x3a18	0.7617
71	0xacb9	-0.0738
72	0x3442	0.266
73	0xaf61	-0.1153
74	0x2fdd	0.12286
75	0xb5d4	-0.3643
76	0xb0e3	-0.1527
77	0x29db	0.04575
78	0xafd8	-0.12256
79	0xac0f	-0.0634
80	0x2c44	0.06665
81	0xa8bd	-0.03702
82	0x357b	0.3425
83	0xb0a6	-0.1453
84	0xb4b9	-0.2952
85	0x3452	0.27
86	0x3ace	0.8506
87	0x2f0d	0.11017
88	0x2fd1	0.12213
89	0xb61c	-0.3818
90	0x1541	0.001283
91	0xb68d	-0.4094
92	0xb4f9	-0.3108
93	0x3064	0.1372
94	0x33d2	0.2444
95	0xab4c	-0.057
96	0xa03c	-0.00827
97	0xb812	-0.509
98	0xb7e6	-0.4937
99	0x33df	0.246
100	0x3184	0.1724
101	0x2c28	0.06494
102	0x291e	0.03998
103	0x2f2a	0.11194
104	0xb35f	-0.2303
105	0x35e3	0.368
106	0xb0fd	-0.1559
107	0x3ca3	1.159
108	0x3525	0.3215
109	0x2a59	0.0496
110	0x298a	0.04327
111	0x2a96	0.05145
112	0xa621	-0.02394
113	0xb4af	-0.2927
114	0x996d	-0.00265
115	0x395e	0.671
116	0xb352	-0.2288
117	0x317a	0.1711
118	0x15fa	0.001459
119	0xb40c	-0.253
120	0x221f	0.011955
121	0xb55d	-0.3352
122	0xa854	-0.0338
123	0x30c6	0.1492
124	0x2d67	0.0844
125	0xa544	-0.02057
126	0xae20	-0.0957
127	0xa6e9	-0.027
128	0x3b1a	0.8877
129	0xb5c5	-0.3606
130	0xb525	-0.3215
131	0xad0c	-0.07886
132	0xb42a	-0.2603
133	0x30ce	0.1501
134	0xb978	-0.6836
135	0x38ba	0.591
136	0xb454	-0.2705
137	0x372e	0.4487
138	0xb81f	-0.515
139	0xb242	-0.1956
140	0x3921	0.641
141	0x3427	0.2595
142	0xba50	-0.789
143	0xa72d	-0.02803
144	0xb384	-0.2349
145	0x3afb	0.8726
146	0xb78e	-0.4722
147	0xba49	-0.7856
148	0xa785	-0.02937
149	0xb6db	-0.4285
150	0xb25d	-0.1989
151	0xb8f6	-0.62
152	0x3842	0.532
153	0xb4b7	-0.2947
154	0xae66	-0.1
155	0xb48f	-0.285
156	0x39df	0.734
157	0x378e	0.4722
158	0x3bcc	0.9746
159	0x341e	0.2573
160	0xb04e	-0.1345
161	0xaea1	-0.1036
162	0x26cd	0.02657
163	0x35c3	0.36
164	0xb757	-0.4587
165	0x3989	0.692
166	0xb58b	-0.3464
167	0x3962	0.673
168	0x3a2f	0.773
169	0xadab	-0.08856
170	0xb770	-0.4648
171	0xb455	-0.2708
172	0xa089	-0.00886
173	0x345f	0.2732
174	0xaaab	-0.0521
175	0xb787	-0.4705
176	0x39d9	0.731
177	0x369d	0.4133
178	0x39d7	0.73
179	0xad41	-0.0821
180	0x3a2d	0.772
181	0x352a	0.3228
182	0xb825	-0.518
183	0x3827	0.519
184	0x32d5	0.2135
185	0xb70b	-0.4402
186	0x3866	0.55
187	0xb42b	-0.2605
188	0xbb93	-0.947
189	0x30c1	0.1486
190	0x2b9e	0.0595
191	0x3a5f	0.7964
192	0xb3a8	-0.2393
193	0x3a5a	0.794
194	0x33af	0.2401
195	0x3b88	0.9414
196	0x2ba7	0.05978
197	0xacce	-0.0751
198	0x3494	0.2861
199	0xa92c	-0.0404
200	0xb299	-0.2062
201	0xa885	-0.0353
202	0xb43c	-0.2646
203	0x3df5	1.489
204	0xb676	-0.4038
205	0x33b8	0.2412
206	0xae82	-0.1017
207	0xa611	-0.0237
208	0xabbc	-0.06042
209	0xb15b	-0.1674
210	0xaae2	-0.05377
211	0x387f	0.562
212	0xb34d	-0.2281
213	0x3594	0.3486
214	0xaecc	-0.1062
215	0xb7df	-0.492
216	0xb2e8	-0.2158
217	0xb4b5	-0.2942
218	0xaa55	-0.04947
219	0xb4f2	-0.309
220	0x3028	0.1299
221	0xa304	-0.0137
222	0xb1e0	-0.1836
223	0x29b5	0.0446
224	0xaa2b	-0.0482
225	0xb515	-0.3176
226	0x3aa6	0.831
227	0x32ad	0.2086
228	0x32ae	0.2087
229	0x2275	0.01261
230	0xae24	-0.09595
231	0xaaa4	-0.05188
232	0xb245	-0.1959
233	0x3825	0.518
234	0xb657	-0.3962
235	0xbe60	-1.594
236	0xbb23	-0.892
237	0x3a77	0.808
238	0x3caa	1.166
239	0x39e9	0.739
240	0xaf0c	-0.1101
241	0xba94	-0.8223
242	0xafd1	-0.12213
243	0xb815	-0.5103
244	0xb4d4	-0.3018
245	0xb53a	-0.3267
246	0xb5d6	-0.3647
247	0x3a5e	0.796
248	0xb95f	-0.6714
249	0xb993	-0.697
250	0xb006	-0.1257
251	0x3b87	0.941
252	0xaf3f	-0.1132
253	0xb8ed	-0.6157
254	0x3150	0.166
255	0x380f	0.5073

arith.constant11 f2 [32, 1, 1, 32]
0	0xb0df	-0.1522
1	0x2e13	0.0949
2	0xb463	-0.2742
3	0x365d	0.3977
4	0xb1ea	-0.1848
5	0xb400	-0.25
6	0x38f3	0.6187
7	0xaaa8	-0.052
8	0x316c	0.1694
9	0xb483	-0.282
10	0x2ca6	0.07263
11	0xac4e	-0.06726
12	0x230b	0.013756
13	0xb033	-0.1312
14	0xb1c1	-0.1798
15	0x3416	0.2554
16	0x2cf6	0.0775
17	0xad47	-0.08246
18	0xa4b1	-0.01833
19	0x318d	0.1735
20	0x3439	0.264
21	0xba1b	-0.763
22	0xb6b9	-0.4202
23	0xb410	-0.254
24	0xa724	-0.0279
25	0x2c57	0.0678
26	0xaebd	-0.1053
27	0xb463	-0.2742
28	0xb3b2	-0.2405
29	0xb17e	-0.1716
30	0x3442	0.266
31	0x31de	0.1833
32	0xa959	-0.04178
33	0x2fa3	0.1193
34	0x2e2e	0.09656
35	0x2c6d	0.06915
36	0xadeb	-0.09247
37	0xb04f	-0.1346
38	0x3663	0.3992
39	0x3487	0.283
40	0xac87	-0.07074
41	0x2c39	0.066
42	0xb0c2	-0.1487
43	0x1258	0.0007744
44	0xafcd	-0.1219
45	0x2c39	0.066
46	0xa3fb	-0.01559
47	0xaeb6	-0.10486
48	0x20e8	0.00958
49	0x3726	0.4468
50	0xa2db	-0.01339
51	0x9e7b	-0.00633
52	0xaf63	-0.1154
53	0xb2cc	-0.2124
54	0xb0d4	-0.1509
55	0xb0cf	-0.1503
56	0x2bf5	0.06216
57	0x255f	0.02098
58	0x30b9	0.1476
59	0x331d	0.2223
60	0x34aa	0.2915
61	0x31aa	0.177
62	0x2858	0.03394
63	0xa856	-0.03387
64	0x3142	0.1643
65	0x3435	0.263
66	0x34e3	0.3054
67	0xadb5	-0.0892
68	0x2520	0.02002
69	0xb396	-0.237
70	0xb17e	-0.1716
71	0xa9c8	-0.04517
72	0xac5e	-0.06824
73	0xac2e	-0.0653
74	0x3515	0.3176
75	0x312d	0.1617
76	0x352a	0.3228
77	0xb17d	-0.1715
78	0xb719	-0.4436
79	0xacc0	-0.0742
80	0x328b	0.2045
81	0x26f5	0.02718
82	0x32eb	0.2162
83	0xab8c	-0.05896
84	0xa5c4	-0.02252
85	0x23e0	0.01538
86	0x2f65	0.11554
87	0xac1a	-0.0641
88	0xb2fd	-0.2184
89	0x355d	0.3352
90	0x315b	0.1674
91	0xa859	-0.03397
92	0x341b	0.2566
93	0xb425	-0.259
94	0x362f	0.3865
95	0x2462	0.01712
96	0x2db3	0.08905
97	0x2fcd	0.1219
98	0xaaa1	-0.0518
99	0x30a3	0.1449
100	0x30d8	0.1514
101	0x2b7a	0.0584
102	0x30f2	0.1545
103	0xb113	-0.1586
104	0x3182	0.1721
105	0x346f	0.277
106	0x2d4d	0.0828
107	0x2d45	0.08234
108	0x388d	0.569
109	0xb339	-0.2257
110	0xb7cb	-0.487
111	0x307e	0.1404
112	0x25ec	0.02313
113	0x3352	0.2288
114	0xac25	-0.06476
115	0x30cf	0.1503
116	0x2745	0.0284
117	0x2422	0.01614
118	0xa5b3	-0.02226
119	0xb14c	-0.1655
120	0x3055	0.1354
121	0xb06e	-0.1384
122	0x2db8	0.08936
123	0x315b	0.1674
124	0x2db6	0.08923
125	0x2d35	0.08136
126	0x31dc	0.1831
127	0x3902	0.626
128	0xb6e9	-0.432
129	0x3513	0.3171
130	0x34aa	0.2915
131	0x34a0	0.289
132	0x2a89	0.05106
133	0x2f9b	0.11884
134	0xb84d	-0.5376
135	0x2e21	0.09576
136	0xb828	-0.5195
137	0x97fe	-0.001951
138	0x2dbe	0.0897
139	0xaec0	-0.10547
140	0xb84c	-0.537
141	0xace9	-0.0767
142	0xad2c	-0.0808
143	0x32ce	0.2126
144	0xafda	-0.1227
145	0xadba	-0.0895
146	0x331c	0.2222
147	0xb0e1	-0.1525
148	0xab94	-0.0592
149	0xb871	-0.555
150	0xb641	-0.3909
151	0x35e2	0.3677
152	0xb72b	-0.448
153	0xb12a	-0.1614
154	0x34cc	0.2998
155	0xb6d6	-0.4272
156	0x2da2	0.088
157	0xa8c7	-0.03732
158	0x36ce	0.4253
159	0xb1c8	-0.1807
160	0xac47	-0.06683
161	0xb509	-0.3147
162	0x2a34	0.04846
163	0x2ad0	0.05322
164	0x3711	0.4417
165	0x30fb	0.1556
166	0x2d82	0.08606
167	0x2ea4	0.10376
168	0x318e	0.1736
169	0xb1ba	-0.179
170	0xab11	-0.0552
171	0xb550	-0.332
172	0x328d	0.2047
173	0x3056	0.1355
174	0xa8b0	-0.03662
175	0xb0ec	-0.1538
176	0xa4c8	-0.01868
177	0xa8d0	-0.0376
178	0x33f4	0.2485
179	0x374d	0.4563
180	0xb2ef	-0.2167
181	0xb0f4	-0.1548
182	0xab76	-0.0583
183	0xb47f	-0.281
184	0x2624	0.02399
185	0x9e4b	-0.006145
186	0x30b1	0.1466
187	0x351f	0.32
188	0xadbd	-0.08966
189	0xae50	-0.09863
190	0x3640	0.3906
191	0x2c36	0.0658
192	0xb4da	-0.3032
193	0xabf7	-0.06223
194	0xb0a8	-0.1455
195	0x2d03	0.0783
196	0xa8ba	-0.03693
197	0x364a	0.393
198	0x391c	0.6387
199	0xad55	-0.0833
200	0xacc0	-0.0742
201	0xb237	-0.1942
202	0xa3e7	-0.015434
203	0x32dc	0.2144
204	0xa92e	-0.04047
205	0x92b2	-0.0008173
206	0xb4c8	-0.2988
207	0x3809	0.5044
208	0x20ce	0.009384
209	0x304a	0.134
210	0xb498	-0.287
211	0x2f28	0.1118
212	0x34ba	0.2954
213	0xb81e	-0.5146
214	0xb543	-0.3289
215	0xb3c4	-0.2427
216	0x2b0b	0.05502
217	0xb50e	-0.316
218	0xb0a0	-0.1445
219	0x9d88	-0.0054
220	0x3422	0.2583
221	0x2f06	0.10974
222	0xb286	-0.2039
223	0x335c	0.23
224	0xae9c	-0.1033
225	0x28c8	0.03735
226	0x347a	0.2798
227	0xb087	-0.1415
228	0x1f65	0.00722
229	0xabf2	-0.06207
230	0xa754	-0.02863
231	0xb040	-0.1328
232	0x32b1	0.2091
233	0x2807	0.03146
234	0xb3e3	-0.2465
235	0x2d7f	0.0859
236	0x940e	-0.00099
237	0xa1ec	-0.011566
238	0xa807	-0.03146
239	0xac9e	-0.07214
240	0xace1	-0.07623
241	0x2c28	0.06494
242	0x324f	0.1971
243	0x317c	0.1714
244	0x26ab	0.02605
245	0xac1d	-0.0643
246	0xaccf	-0.07513
247	0x2edb	0.1071
248	0xae25	-0.096
249	0x2f05	0.1097
250	0xb0e9	-0.1534
251	0x2c8f	0.0712
252	0x2fba	0.1207
253	0x3115	0.1588
254	0x3335	0.2252
255	0x32c9	0.212

arith.constant12 f2 [1, 3, 3, 32]
0	0xa3f9	-0.01557
1	0xa02f	-0.00817
2	0x2ece	0.1063
3	0xaf32	-0.1124
4	0xb0fd	-0.1559
5	0xa3f8	-0.015564
6	0xaa2e	-0.04828
7	0xa568	-0.02112
8	0xa4c7	-0.01866
9	0x965e	-0.0015545
10	0xa4b9	-0.01845
11	0xa26e	-0.01256
12	0x2bc6	0.06073
13	0x2e3a	0.0973
14	0xaa29	-0.04813
15	0x9cc3	-0.00465
16	0xa82f	-0.03268
17	0xa0cb	-0.00936
18	0x2b63	0.0577
19	0xa778	-0.02917
20	0x2554	0.02081
21	0xae99	-0.1031
22	0x928e	-0.0008
23	0x312a	0.1614
24	0x995a	-0.002613
25	0xa462	-0.01712
26	0xa717	-0.0277
27	0x9a02	-0.002934
28	0xad05	-0.0784
29	0xb6d5	-0.427
30	0x20ad	0.00913
31	0xa2f7	-0.0136
32	0xa74c	-0.0285
33	0xa302	-0.01369
34	0x3914	0.635
35	0xb6f8	-0.4355
36	0x3c25	1.036
37	0x32e8	0.2158
38	0x165a	0.001551
39	0xb167	-0.1688
40	0x9151	-0.000649
41	0x2c00	0.0625
42	0xa6f1	-0.02711
43	0xac36	-0.0658
44	0x2c5e	0.06824
45	0xb44b	-0.2683
46	0xb07c	-0.1401
47	0xa1bb	-0.01119
48	0xaf23	-0.1115
49	0x27e6	0.03085
50	0xb805	-0.5024
51	0xb43f	-0.2654
52	0x304e	0.1345
53	0xb42d	-0.261
54	0x25b6	0.02231
55	0x34ce	0.3003
56	0xa08b	-0.00887
57	0xaee3	-0.1076
58	0xabce	-0.06097
59	0xa239	-0.01215
60	0xac43	-0.0666
61	0xa6d5	-0.02669
62	0x24e9	0.01918
63	0x3a0a	0.755
64	0x9fd0	-0.00763
65	0xa050	-0.00842
66	0x3548	0.33
67	0xb41d	-0.257
68	0xb8db	-0.607
69	0x1048	0.0005226
70	0x250e	0.01974
71	0x30b2	0.1467
72	0xaa48	-0.04907
73	0x24d0	0.0188
74	0xaabf	-0.0527
75	0x2ba0	0.05957
76	0x24be	0.01852
77	0xa8ba	-0.03693
78	0x314b	0.1654
79	0x2b92	0.05914
80	0xa6cc	-0.02655
81	0xa4e4	-0.0191
82	0x1eb4	0.006546
83	0x3203	0.1879
84	0x9d2a	-0.005043
85	0x2778	0.02917
86	0x256a	0.02115
87	0x2229	0.01203
88	0x1948	0.002579
89	0xa2da	-0.01338
90	0x1520	0.001251
91	0x2b40	0.05664
92	0x3040	0.1328
93	0x3509	0.3147
94	0x9cc9	-0.004673
95	0xa87d	-0.03506
96	0xa648	-0.02454
97	0xac2b	-0.0651
98	0xa813	-0.03183
99	0xb54e	-0.3315
100	0xabd5	-0.0612
101	0x2dad	0.0887
102	0xa366	-0.01445
103	0xb4de	-0.3042
104	0xaa2e	-0.04828
105	0xaa55	-0.04947
106	0x24aa	0.01822
107	0xab36	-0.05634
108	0xb023	-0.1293
109	0x38c3	0.595
110	0xa46f	-0.01732
111	0x2015	0.00797
112	0x3735	0.4504
113	0xa39f	-0.014885
114	0x2ed8	0.10693
115	0xb440	-0.2656
116	0xb36f	-0.2323
117	0xb409	-0.2522
118	0xb0d1	-0.1505
119	0x2d7d	0.08575
120	0x287e	0.0351
121	0x28b8	0.03687
122	0xa7c7	-0.03038
123	0x23da	0.015335
124	0x329a	0.2063
125	0xb88e	-0.5693
126	0x2654	0.02472
127	0xa62e	-0.02414
128	0xbb39	-0.903
129	0xbc1e	-1.029
130	0x2991	0.0435
131	0xb864	-0.549
132	0xb8b0	-0.586
133	0xba34	-0.7754
134	0xb8d1	-0.602
135	0xb878	-0.5586
136	0xac33	-0.0656
137	0xba78	-0.8086
138	0x3aea	0.8643
139	0xbe23	-1.534
140	0x3b65	0.9243
141	0xbc62	-1.096
142	0xb01f	-0.1288
143	0xba4f	-0.7886
144	0xbd30	-1.297
145	0xbc56	-1.084
146	0xb934	-0.6504
147	0x443c	4.234
148	0xbbf5	-0.9946
149	0xba45	-0.7837
150	0xb9cd	-0.725
151	0xbc9a	-1.15
152	0x3b7e	0.9365
153	0x3b58	0.918
154	0xbc91	-1.142
155	0xbb02	-0.876
156	0xbc57	-1.085
157	0xb910	-0.633
158	0x398b	0.693
159	0xbc57	-1.085
160	0x382a	0.5205
161	0xa462	-0.01712
162	0x3234	0.1938
163	0xb80e	-0.507
164	0xb2ec	-0.2163
165	0xb4f6	-0.31
166	0x3576	0.3413
167	0xb81b	-0.513
168	0x9f09	-0.00687
169	0xa327	-0.01397
170	0xa978	-0.04272
171	0xb68a	-0.4087
172	0x25f6	0.02328
173	0xacd0	-0.0752
174	0x3b0f	0.8823
175	0x3a13	0.7593
176	0x299d	0.04385
177	0x378d	0.472
178	0xb740	-0.4531
179	0xbe5b	-1.589
180	0xb702	-0.438
181	0xb548	-0.33
182	0xaa79	-0.05057
183	0x16c2	0.00165
184	0xb124	-0.1606
185	0x2ad7	0.05344
186	0x395f	0.6714
187	0x38cd	0.6
188	0x2ddb	0.0915
189	0x3d37	1.304
190	0x31a3	0.1761
191	0x24aa	0.01822
192	0x9a17	-0.002974
193	0xa8a3	-0.03622
194	0x9f7e	-0.007317
195	0xb096	-0.1433
196	0x9ce9	-0.004795
197	0x140d	0.000989
198	0xa467	-0.0172
199	0x230c	0.01376
200	0x28e6	0.03827
201	0x2953	0.0416
202	0x2556	0.02084
203	0xa725	-0.02791
204	0x2d0b	0.0788
205	0xae8a	-0.1022
206	0x24ef	0.01927
207	0xa1b4	-0.01114
208	0xac1c	-0.0642
209	0x27f3	0.03105
210	0x28bc	0.037
211	0x316f	0.1698
212	0x2f42	0.1134
213	0xa1ed	-0.01157
214	0x3095	0.1432
215	0x25df	0.02293
216	0x22d4	0.013336
217	0x22cb	0.01327
218	0x242c	0.0163
219	0x23fc	0.015594
220	0x2fdb	0.12274
221	0xb731	-0.4495
222	0x9663	-0.001559
223	0x2102	0.00978
224	0xb429	-0.26
225	0x3b3b	0.904
226	0xb22b	-0.1927
227	0xb797	-0.4744
228	0xb0d3	-0.1508
229	0xb94f	-0.6636
230	0x3955	0.6665
231	0xb851	-0.5396
232	0x3cad	1.169
233	0x3d1d	1.278
234	0x350d	0.3157
235	0x38d0	0.6016
236	0xb028	-0.1299
237	0x3318	0.2217
238	0xaf2c	-0.11206
239	0xafb5	-0.1204
240	0xaeba	-0.1051
241	0xb422	-0.2583
242	0xb8b0	-0.586
243	0xb9ca	-0.7236
244	0xb5c5	-0.3606
245	0xb98c	-0.6934
246	0xb8b3	-0.5874
247	0x961d	-0.0014925
248	0xb133	-0.1625
249	0x27c7	0.03038
250	0x2769	0.02895
251	0xb17b	-0.1713
252	0x37b9	0.4827
253	0xb5f1	-0.3713
254	0x3530	0.3242
255	0xa60f	-0.02367

arith.constant13 f2 [32, 1, 1, 32]
0	0xb36e	-0.2322
1	0xb442	-0.266
2	0x280c	0.03162
3	0x29d1	0.04544
4	0x2f70	0.1162
5	0x342c	0.2607
6	0xb9fc	-0.748
7	0xb47f	-0.281
8	0x3717	0.443
9	0xb2d8	-0.2139
10	0xae44	-0.0979
11	0x37aa	0.479
12	0xb1f0	-0.1855
13	0xb45b	-0.2722
14	0x315b	0.1674
15	0xb523	-0.321
16	0xb438	-0.2637
17	0x32b2	0.2092
18	0xb3b7	-0.2411
19	0x306f	0.1385
20	0x3204	0.188
21	0xa625	-0.024
22	0xad0f	-0.07904
23	0x369c	0.413
24	0xbb94	-0.9473
25	0xb296	-0.2058
26	0x3229	0.1925
27	0xa40e	-0.01584
28	0x2990	0.04346
29	0x2102	0.00978
30	0xac85	-0.0706
31	0xb928	-0.6445
32	0x2bcf	0.061
33	0x1fe7	0.007717
34	0xaf57	-0.1147
35	0xacda	-0.0758
36	0xa441	-0.01662
37	0x31f5	0.1862
38	0xb484	-0.2822
39	0xb148	-0.165
40	0x9d41	-0.00513
41	0x278e	0.02951
42	0x3023	0.1293
43	0xb1aa	-0.177
44	0xab0c	-0.05505
45	0xaea2	-0.10364
46	0xab35	-0.0563
47	0x3617	0.3806
48	0xb130	-0.1621
49	0x344f	0.2693
50	0x234e	0.01427
51	0x2eef	0.10834
52	0xb0ed	-0.1539
53	0x2f47	0.1137
54	0xb23d	-0.195
55	0xb532	-0.3247
56	0xb7f6	-0.4976
57	0xb343	-0.2269
58	0x3252	0.1975
59	0xb9a3	-0.7046
60	0x1ccb	0.00468
61	0xb38d	-0.236
62	0xb639	-0.389
63	0xae5d	-0.0994
64	0xb59b	-0.3503
65	0xb75a	-0.4595
66	0x8edc	-0.0004187
67	0xaeb8	-0.105
68	0x3409	0.2522
69	0x3876	0.5576
70	0xb75c	-0.46
71	0x3637	0.3884
72	0x3616	0.3804
73	0x1953	0.0026
74	0x2d85	0.08624
75	0xb752	-0.4575
76	0xb749	-0.4553
77	0xb4df	-0.3044
78	0x34f1	0.3088
79	0xaeb6	-0.10486
80	0xb3af	-0.2401
81	0x33c6	0.2429
82	0xb5a1	-0.3518
83	0xa721	-0.02785
84	0x357e	0.3433
85	0x38bf	0.5933
86	0xb49b	-0.2878
87	0x3639	0.389
88	0xbcd9	-1.212
89	0xb435	-0.263
90	0xb8b7	-0.5894
91	0xb4f3	-0.3093
92	0x21c3	0.01125
93	0x955a	-0.001307
94	0xb247	-0.1962
95	0x2e56	0.099
96	0xb4ca	-0.2993
97	0xb60b	-0.3777
98	0x3220	0.1914
99	0x2baa	0.05988
100	0x2827	0.03244
101	0x3434	0.2627
102	0xb5a5	-0.3528
103	0xbf44	-1.816
104	0x2c5b	0.06805
105	0xb453	-0.2703
106	0x3a6d	0.803
107	0xbc68	-1.102
108	0xbd8f	-1.39
109	0x2505	0.0196
110	0x3030	0.1309
111	0x34a8	0.291
112	0x3120	0.1602
113	0xb49d	-0.2883
114	0xb4d1	-0.301
115	0x30be	0.1482
116	0x332f	0.2245
117	0x381c	0.5137
118	0xaacc	-0.0531
119	0xb074	-0.1392
120	0xbd58	-1.336
121	0xb939	-0.653
122	0xb7e7	-0.494
123	0xb642	-0.391
124	0x3605	0.3762
125	0x25fd	0.02339
126	0x379f	0.4763
127	0xba5f	-0.7964
128	0x3920	0.6406
129	0xb43c	-0.2646
130	0x2622	0.02396
131	0xb5a7	-0.3533
132	0x2cb1	0.0733
133	0x2924	0.04016
134	0x3096	0.1433
135	0x331f	0.2225
136	0x3232	0.1936
137	0x2f50	0.11426
138	0x354a	0.3306
139	0xbb4f	-0.9136
140	0xba76	-0.8076
141	0xb761	-0.4612
142	0xaa50	-0.04932
143	0xb75d	-0.4602
144	0xb1a2	-0.176
145	0x312b	0.1615
146	0xb248	-0.1963
147	0x3963	0.6733
148	0xb2af	-0.2089
149	0x28ac	0.0365
150	0x3484	0.2822
151	0xb398	-0.2373
152	0xb93a	-0.6533
153	0xb63d	-0.39
154	0x36ad	0.4172
155	0x28d7	0.0378
156	0x324a	0.1965
157	0xb56f	-0.3396
158	0xb55a	-0.3345
159	0xb6a8	-0.416
160	0xb455	-0.2708
161	0xae09	-0.0943
162	0x2c11	0.06354
163	0x2e98	0.103
164	0xa318	-0.013855
165	0xb082	-0.1409
166	0x2919	0.03983
167	0xa03e	-0.008286
168	0x310d	0.1578
169	0x1a2d	0.003016
170	0xb258	-0.1982
171	0x3282	0.2034
172	0xb500	-0.3125
173	0xaca7	-0.0727
174	0x2f5e	0.1151
175	0xb6ad	-0.4172
176	0x359d	0.3508
177	0x2934	0.04065
178	0xae2b	-0.0964
179	0x314e	0.1658
180	0x3537	0.326
181	0xaea5	-0.1038
182	0x3402	0.2505
183	0x1a90	0.003204
184	0xb053	-0.1351
185	0xa944	-0.04114
186	0xae36	-0.09705
187	0xb381	-0.2345
188	0x3422	0.2583
189	0x2568	0.02112
190	0xb08a	-0.1418
191	0xb61a	-0.3813
192	0x1e14	0.005936
193	0xa4c2	-0.01859
194	0xb883	-0.564
195	0xb5ff	-0.3748
196	0xad4f	-0.08295
197	0xb067	-0.1376
198	0x2423	0.01616
199	0x2031	0.00819
200	0x2c3a	0.06604
201	0x2d5a	0.0836
202	0xb948	-0.66
203	0xb9e6	-0.7373
204	0xaad7	-0.05344
205	0xb56c	-0.3389
206	0xb735	-0.4504
207	0xa818	-0.03198
208	0xaa25	-0.048
209	0xb501	-0.3127
210	0xb322	-0.2229
211	0xb9d0	-0.7266
212	0xb0b3	-0.1469
213	0xaea5	-0.1038
214	0xb60d	-0.3782
215	0xac6f	-0.0693
216	0xaced	-0.07697
217	0xb188	-0.1729
218	0xb022	-0.1292
219	0xac98	-0.0718
220	0xac33	-0.0656
221	0x3360	0.2305
222	0xb5c0	-0.3594
223	0x28af	0.0366
224	0x2d6a	0.0846
225	0xb643	-0.3914
226	0xb1fb	-0.1869
227	0xb3e9	-0.2472
228	0x2e50	0.09863
229	0xb037	-0.1317
230	0x1d35	0.005085
231	0xb160	-0.168
232	0x3195	0.1744
233	0x2f0d	0.11017
234	0xb499	-0.2874
235	0xb84f	-0.5386
236	0x2a2a	0.04816
237	0xa9ea	-0.0462
238	0x292b	0.04037
239	0x2b14	0.0553
240	0xb45d	-0.2727
241	0xa9d0	-0.0454
242	0xb2ea	-0.2161
243	0xa25f	-0.01244
244	0xaa5d	-0.0497
245	0xafbc	-0.12085
246	0x2c69	0.0689
247	0x28a2	0.0362
248	0x2f44	0.1135
249	0xb251	-0.1974
250	0x32a5	0.2076
251	0x2eb0	0.1045
252	0x206f	0.00866
253	0xae87	-0.102
254	0x30bf	0.1483
255	0x2c93	0.0715

arith.constant14 f2 [18, 1, 1, 32]
0	0x2c09	0.06305
1	0x3259	0.1984
2	0xa7a6	-0.02988
3	0x2e6f	0.1005
4	0x33a8	0.2393
5	0xb4ab	-0.2917
6	0xa46f	-0.01732
7	0x2ea0	0.1035
8	0x3372	0.2327
9	0x3122	0.1604
10	0x255f	0.02098
11	0xa39c	-0.01486
12	0x3671	0.4026
13	0x2f15	0.11066
14	0xaf62	-0.11536
15	0xa64a	-0.02457
16	0xb436	-0.2632
17	0x306c	0.1382
18	0xb0e9	-0.1534
19	0x21a5	0.011024
20	0x2fae	0.12
21	0x2ab5	0.0524
22	0xb122	-0.1604
23	0x9e41	-0.006107
24	0xb847	-0.5347
25	0x1ffe	0.007805
26	0x9ccf	-0.004696
27	0x2c9c	0.072
28	0xa4e6	-0.01913
29	0xb23a	-0.1946
30	0xa79e	-0.02975
31	0x2de3	0.092
32	0x3561	0.3362
33	0x2ad1	0.05325
34	0xb714	-0.4424
35	0xa469	-0.01723
36	0xa8b1	-0.03665
37	0x3074	0.1392
38	0x9e78	-0.006317
39	0xad6d	-0.0848
40	0xa926	-0.04022
41	0x17cf	0.001906
42	0xaf33	-0.1125
43	0x19e7	0.002882
44	0xa965	-0.04214
45	0xb34b	-0.2279
46	0x263e	0.02438
47	0x311a	0.1594
48	0x29f0	0.0464
49	0x3121	0.1603
50	0xb2c0	-0.2109
51	0x31f8	0.1865
52	0x2ecc	0.1062
53	0x2425	0.01619
54	0x9d11	-0.004948
55	0x3129	0.1613
56	0x2951	0.04153
57	0x9f48	-0.00711
58	0xa298	-0.01288
59	0x3184	0.1724
60	0x2369	0.01447
61	0xb0e9	-0.1534
62	0xb4fe	-0.312
63	0xb586	-0.3452
64	0x2638	0.02429
65	0xab77	-0.05832
66	0xaca7	-0.0727
67	0x31b7	0.1786
68	0xb10b	-0.1576
69	0xaf4c	-0.114
70	0xad93	-0.0871
71	0xafab	-0.1198
72	0x3421	0.258
73	0x2d57	0.08344
74	0xb1f1	-0.1857
75	0xb4e1	-0.305
76	0x31b5	0.1783
77	0x349b	0.2878
78	0xb2c7	-0.2118
79	0x2c38	0.0659
80	0xa007	-0.007866
81	0xb3e0	-0.2461
82	0x3550	0.332
83	0x3802	0.501
84	0x2d9a	0.0875
85	0x3412	0.2544
86	0x2597	0.02184
87	0x3186	0.1726
88	0x1a87	0.003187
89	0xb833	-0.525
90	0x27cf	0.0305
91	0xb14e	-0.1658
92	0x35a6	0.353
93	0xadca	-0.09045
94	0x2fc4	0.12134
95	0xb39f	-0.2382
96	0x1fdd	0.00768
97	0x2a55	0.04947
98	0xa9ba	-0.04474
99	0x2dde	0.0917
100	0xad3f	-0.082
101	0xaf41	-0.11334
102	0xb072	-0.1389
103	0xb276	-0.2019
104	0x299e	0.04388
105	0xa51b	-0.01994
106	0x2a6d	0.0502
107	0x35c9	0.3616
108	0x2891	0.03568
109	0x3260	0.1992
110	0xaa40	-0.04883
111	0x2bb9	0.06033
112	0x2d76	0.0853
113	0xb322	-0.2229
114	0xa593	-0.02177
115	0xa47c	-0.01752
116	0x2f32	0.1124
117	0xb2eb	-0.2162
118	0xa835	-0.03287
119	0x2fe0	0.12305
120	0x287f	0.03513
121	0xb15b	-0.1674
122	0x2aca	0.05304
123	0xb2d9	-0.214
124	0x373e	0.4526
125	0xa835	-0.03287
126	0x2715	0.02766
127	0xaa57	-0.04953
128	0xb4ae	-0.2925
129	0xb4b0	-0.293
130	0xadea	-0.0924
131	0xb6d1	-0.426
132	0x329c	0.2065
133	0xb319	-0.2218
134	0xad58	-0.0835
135	0x3986	0.6904
136	0x34d4	0.3018
137	0xb303	-0.2191
138	0x314c	0.1655
139	0x27a5	0.02986
140	0xb19e	-0.1755
141	0x3188	0.1729
142	0x393f	0.656
143	0x36e1	0.43
144	0x3122	0.1604
145	0xacb0	-0.07324
146	0x374d	0.4563
147	0x34dc	0.3037
148	0x37de	0.4917
149	0xb6fc	-0.4365
150	0xb4a6	-0.2905
151	0xb346	-0.2273
152	0x2512	0.0198
153	0x3e12	1.518
154	0xb3ac	-0.2397
155	0xae30	-0.0967
156	0xb09a	-0.1438
157	0xab49	-0.05692
158	0x207a	0.00874
159	0xb268	-0.2002
160	0xa4b0	-0.01831
161	0xacc2	-0.07434
162	0x2cfb	0.0778
163	0x2aae	0.0522
164	0xa4e7	-0.01915
165	0x1bdf	0.003843
166	0x202b	0.00814
167	0x9c8f	-0.00445
168	0xa152	-0.01039
169	0x24c9	0.01869
170	0xad86	-0.0863
171	0x2a19	0.04764
172	0x2d78	0.08545
173	0x2361	0.01441
174	0xa988	-0.0432
175	0x2c73	0.0695
176	0x2e3b	0.09735
177	0x2c51	0.06744
178	0x2711	0.0276
179	0xa159	-0.010445
180	0x2a57	0.04953
181	0x2dfb	0.09344
182	0x2d55	0.0833
183	0x25b7	0.02232
184	0xa479	-0.01747
185	0x2d35	0.08136
186	0xa5cf	-0.02269
187	0xaa89	-0.05106
188	0x26b4	0.02618
189	0x2467	0.0172
190	0xae44	-0.0979
191	0xa21e	-0.01195
192	0x2c67	0.0688
193	0x3265	0.1998
194	0xa558	-0.02087
195	0xacb6	-0.0736
196	0x336b	0.2318
197	0xb4c1	-0.297
198	0xa617	-0.02379
199	0x2df9	0.0933
200	0x340c	0.253
201	0x30ec	0.1538
202	0x2365	0.01444
203	0xa0c5	-0.009315
204	0x3708	0.4395
205	0x2f36	0.1127
206	0xaf06	-0.10974
207	0xa518	-0.0199
208	0xb443	-0.2664
209	0x3084	0.1411
210	0xb0bd	-0.1481
211	0x210a	0.00984
212	0x2f72	0.11633
213	0x2a9f	0.05173
214	0x2cef	0.0771
215	0x9fec	-0.007736
216	0xb7ba	-0.483
217	0x1b6a	0.00362
218	0x93f9	-0.000973
219	0x2c20	0.06445
220	0xa876	-0.03485
221	0xb22d	-0.193
222	0xa7c8	-0.0304
223	0x2dcf	0.09076
224	0x3517	0.318
225	0x2bc5	0.0607
226	0xb6a1	-0.4143
227	0xa192	-0.01088
228	0xa96a	-0.0423
229	0x306e	0.1384
230	0x9fd8	-0.00766
231	0xac1e	-0.06433
232	0xa9f6	-0.04657
233	0x9f3f	-0.007076
234	0xaf84	-0.11743
235	0x1e06	0.005882
236	0xa84c	-0.03357
237	0xb364	-0.231
238	0x26cf	0.0266
239	0x30d0	0.1504
240	0x2a0d	0.04727
241	0x31be	0.1794
242	0xb2b8	-0.21
243	0x3281	0.2032
244	0x2e97	0.10297
245	0x1df3	0.00581
246	0x1054	0.0005283
247	0x3381	0.2345
248	0x2843	0.0333
249	0x11ce	0.0007086
250	0xb0d1	-0.1505
251	0x3136	0.1628
252	0x241b	0.01604
253	0xb0bb	-0.1478
254	0xb503	-0.3132
255	0xb554	-0.333
